sudoku_cnn.pth (torch, 310754 bytes, 20 tensors)

conv_layer1.weight f4 [64, 1, 3, 3]
000000 61 90 12 ba 05 4d 54 3a 5c 02 05 bc 37 af 93 bb
       -0.0005590972 0.0008098635 -0.008118238 -0.004506971
000010 17 76 70 bb 9d f0 40 bc e1 6f 45 bc 35 bd 98 ba
       -0.003669148 -0.011776117 -0.0120506 -0.0011653068
000020 d1 26 7c bc 90 d3 81 ba 0e 4d 84 bd 2b 48 5f 3b
       -0.015390114 -0.000990497 -0.064600095 0.0034070115
000030 0d 38 4b 3a c1 8e 5d 3b 9d a4 aa 3a 54 a3 e2 b9
       0.00077521877 0.0033807012 0.0013019029 -0.00043227768
000040 6f 9b 96 bd 15 27 05 3b 05 8b 4a bb 19 b4 69 ba
       -0.07353865 0.0020317484 -0.0030905616 -0.0008915081
000050 59 8f b1 39 64 1e a7 3a 8a bd 7e ba ba 15 8c 3a
       0.00033866873 0.0012750146 -0.00097175746 0.0010687627
000060 8f 61 9d bd 04 10 10 bc d0 4e cd ba b3 a7 c9 3a
       -0.076846235 -0.008792881 -0.0015663747 0.0015385061
000070 da 89 d3 39 96 e8 b2 39 93 09 3b 3a 30 64 16 be
       0.00040347764 0.00034124096 0.00071349106 -0.14686656
000080 4f 82 b1 b9 fc 62 76 39 18 46 f5 37 f0 e6 c1 b9
       -0.00033857158 0.00023497263 2.9238916e-05 -0.0003698389
000090 fd 4a 05 39 88 c1 d7 ba c6 be d9 39 81 8c 51 bb
       0.00012711804 -0.0016460875 0.00041531603 -0.0031974616
0000a0 e8 33 d8 b7 73 e4 f0 3d 40 a1 6f 3a 04 6d b6 3a
       -2.5773377e-05 0.11762323 0.00091411546 0.0013917987
0000b0 e8 d9 a0 39 1b 66 b9 3a 57 fe de 3b 53 12 3f bb
       0.0003067993 0.001414481 0.006805222 -0.002915521
0000c0 d4 9b 22 3d 00 54 0e 3d d6 40 56 bb ac fc 2d 3c
       0.03969939 0.034748077 -0.0032692454 0.010619324
0000d0 e5 0c 00 3c 34 db b7 3a 38 e7 22 3a 13 4c 63 ba
       0.007815574 0.001402712 0.0006214264 -0.0008670699
0000e0 11 ad 99 3a 9a 0b 15 b8 78 16 d3 3d 3c 2e 96 b9
       0.0011724551 -3.5535173e-05 0.1030702 -0.00028644677
0000f0 4a 6e c0 39 e6 da 3b ba 50 ad 13 ba 92 22 75 ba
       0.00036703266 -0.00071661023 -0.00056334306 -0.00093511597
000100 6d 5e f7 39 23 85 45 ba ac 24 21 bb 3d f4 89 39
       0.00047181864 -0.00075347925 -0.0024588509 0.00026312648
000110 a6 54 10 3d be af ae ba 4b d0 34 3a f1 78 fd 39
       0.035236977 -0.0013327522 0.0006897493 0.0004834603
000120 4e b5 32 3a 26 83 a7 ba 6a db 46 3a bd 34 62 38
       0.00068171776 -0.0012780174 0.0007585796 5.3931715e-05
000130 fe af ec 3d a9 31 d4 b9 37 19 00 3a 50 67 41 ba
       0.11557005 -0.0004047279 0.000488657 -0.00073777605
000140 fe ba ce b9 06 77 44 3c 1e 96 ab 3b ca ca 2d 3b
       -0.00039430702 0.011991268 0.005236401 0.0026518577
000150 c9 65 49 3c ec c4 aa ba 24 8c c9 bb c1 c4 91 b8
       0.012292334 -0.0013028658 -0.0061507393 -6.950787e-05
000160 19 17 bf 3b c0 e8 42 3c fc 06 c1 3a 3a f5 10 3b
       0.005831611 0.011896312 0.0014726813 0.0022118823
000170 6d de d1 3a 85 54 b1 bc f2 86 c7 39 48 d5 ac bc
       0.0016011723 -0.021646747 0.0003805678 -0.021097794
000180 9b 5e 3a ba c1 f1 64 3a 20 0f 1b 3b 51 dc 6c 3a
       -0.0007109434 0.0008733534 0.0023660138 0.0009035515
000190 b8 c7 2b 3a 9b f1 1e ba 05 fb 25 3e ac 1f c7 3a
       0.0006552893 -0.00060632237 0.16209038 0.0015191934
0001a0 31 e9 dc ba 23 2d e9 b8 3d 72 00 bb 26 94 19 bb
       -0.0016854164 -0.00011118713 -0.0019599341 -0.002343425
0001b0 f5 20 61 b9 a8 79 ad 3b ee c1 54 3c 35 ff e9 39
       -0.0002146995 0.0052940436 0.01298569 0.00044631367
0001c0 e2 0c ca 3c 8c 0d 0d 3d 16 f6 a2 ba cb 62 6e 3c
       0.024664346 0.034436747 -0.0012432958 0.014549921
0001d0 b8 2c 59 3c 3b 78 4c ba 08 26 c9 3a 8d 13 d0 3a
       0.013255291 -0.0007799898 0.0015346417 0.0015874967
0001e0 27 1c e2 3a d1 d5 77 be 7f cc e5 3a b9 7a 15 3a
       0.0017250822 -0.24202658 0.0017532258 0.0005702186
0001f0 25 29 0c 3b fe f7 ba 3a e1 58 9a 3b f4 bc 44 3b
       0.0021386829 0.0014264581 0.004710302 0.0030019851
000200 0e a1 03 3b f1 d8 70 3b 8d 4e a5 3a a7 f4 f6 bc
       0.002008501 0.00367504 0.0012611911 -0.030145956
000210 67 12 83 3a 7d 46 0a bd cb 18 79 3b c8 52 01 3d
       0.0009999991 -0.03375863 0.0038009163 0.031573087
000220 00 0a 99 3c 28 d9 c7 3c a1 5d 76 3c 6e a5 00 bd
       0.018681526 0.02439554 0.015036971 -0.031407766
000230 92 66 9c 3c 48 e7 ce 3c 11 b4 d1 3c 5d 6d cc 3c
       0.019091878 0.025256768 0.025598558 0.024954492
000240 98 53 71 3a a7 5b 71 ba 4e 69 6d 3a af 19 f7 38
       0.0009205877 -0.00092070777 0.0009056524 0.00011782662
000250 fb a6 d3 3d 4e d5 43 b9 c6 6d 42 3a a0 1f 20 36
       0.10334583 -0.00018676111 0.000741687 2.3860266e-06
000260 4f 27 11 b9 0e 47 8b 3b 51 28 51 bb a6 0e 8e b9
       -0.00013842921 0.0042504137 -0.00319149 -0.00027095265
000270 88 0c 1a bb 90 4a e0 37 2b c3 00 be 00 5a 12 b8
       -0.0023506004 2.6737602e-05 -0.1257445 -3.489293e-05
000280 fe b9 87 3a d5 d5 8f 3a 90 49 71 ba f2 72 fb b8
       0.0010355113 0.0010973761 -0.0009204382 -0.00011990023
000290 bd bf 18 ba 9b 71 db bc 6c 5e df 3a d6 2a 11 3b
       -0.0005826911 -0.02678757 0.001704169 0.0022150776
0002a0 fe f1 09 3b f4 b3 d4 3b d9 59 22 ba 5f 14 c5 39
       0.002104878 0.0064911786 -0.0006193198 0.00037589946
0002b0 3a 32 fc 3a 29 a5 17 ba f2 cc 78 3a aa 85 47 ba
       0.0019241043 -0.00057848037 0.00094909885 -0.0007611165
0002c0 ae 2d bc 3a 6c fe c1 3a 32 a4 b0 ba eb 3e dd b9
       0.0014356875 0.0014800555 -0.0013476668 -0.00042199282
0002d0 fe a6 0d 3a ba 50 bb ba 46 4e 2b 3a ce 3b a2 39
       0.0005403607 -0.0014291026 0.0006534796 0.00030943606
0002e0 57 97 2f 3e 6a e5 fb b8 a0 4f f8 39 40 a3 28 ba
       0.17147575 -0.000120113444 0.0004736157 -0.00064330176
0002f0 ab de b0 b9 c8 98 26 39 6c 5c b1 b9 68 99 14 39
       -0.00033735237 0.00015887909 -0.0003382893 0.00014171528
000300 60 37 c0 b7 9a 59 99 3d 8c 84 48 3a cd cc 32 3b
       -2.291397e-05 0.07487793 0.00076491456 0.0027282715
000310 ec 82 84 3a b4 7f 55 39 9c f0 4c ba 1f 42 aa 3a
       0.0010109819 0.00020360836 -0.0007817836 0.0012989676
000320 79 f0 bf 39 aa 71 b1 38 0a 23 12 bb 53 53 fc 39
       0.00036609525 8.461189e-05 -0.0022298717 0.00048127267
000330 3a 02 5a 39 2f 75 46 3e e0 82 40 ba 08 51 3d ba
       0.0002079093 0.1938064 -0.00073437206 -0.00072218524
000340 29 90 d5 3a ee a0 87 3a 7f 99 01 3b 85 44 1b 3e
       0.0016293573 0.0010347643 0.0019775329 0.15162857
000350 aa 89 da b9 69 27 43 3a 1e 23 9c 3a b0 0d e9 3a
       -0.00041682768 0.0007444532 0.0011912321 0.0017780568
000360 8e 10 73 3a 90 4f c3 bb cc 2f 22 bb 00 b8 f4 3b
       0.0009272181 -0.0059604123 -0.0024747727 0.0074682236
000370 7b 98 35 3b 0f 7f 12 3a 52 db e5 3b 15 7b 40 3b
       0.0027709294 0.0005588391 0.0070146704 0.0029370238
000380 8f 38 0f 3c 98 64 08 3d d3 5c ff 3a b2 79 0d 3b
       0.008741512 0.03329906 0.001948262 0.0021587429
000390 82 9d fe b9 dd 1e f8 ba 42 51 79 b9 0b 00 3d 3c
       -0.00048564008 -0.0018930096 -0.00023776761 0.011535655
0003a0 29 59 4d bb f0 b9 10 bc 96 fc fb b9 9a d7 97 bd
       -0.0031333661 -0.008833393 -0.00048062642 -0.074141696
0003b0 d5 ec 07 3a 1e a3 8e 39 4b 75 a8 3b 92 5b fc ba
       0.0005185132 0.00027205882 0.0051409355 -0.0019253364
0003c0 02 85 0f bb 11 87 7c 3b e0 72 f1 ba fc 91 ab 3b
       -0.0021899347 0.0038532654 -0.0018421076 0.0052359086
0003d0 a7 c7 cd 3a 34 c4 2a 3b 92 33 26 3b c3 52 1f bc
       0.001569976 0.0026056888 0.0025360328 -0.009724322
0003e0 80 af 1b 3b 22 1b 40 3b e3 50 c7 3a dc 61 bf 3a
       0.002375573 0.0029313047 0.0015206601 0.0014601308
0003f0 ab ab 11 3b bc f8 1a 3b d2 ee 26 bb 5f c3 df 3a
       0.0022227566 0.0023646792 -0.0025471938 0.0017071775

conv_layer1.bias f4 [64]
000000 35 0d a9 b1 63 ab de b5 e2 90 dc b5 c9 da ac b8
       -4.920049e-09 -1.6590169e-06 -1.6433444e-06 -8.242351e-05
000010 15 9d ac b4 25 27 e8 b3 32 62 32 b7 8a 55 35 b4
       -3.215179e-07 -1.0810462e-07 -1.063249e-05 -1.6888058e-07
000020 7a 09 88 34 18 41 09 34 60 10 c2 34 1c de fc 36
       2.533887e-07 1.27828e-07 3.614723e-07 7.536042e-06
000030 17 0a af 34 21 c4 a9 b6 cd d5 45 b4 c5 5c 55 34
       3.2603631e-07 -5.059425e-06 -1.8424835e-07 1.987092e-07
000040 eb 55 a9 b4 7e 9b 11 b8 99 32 56 32 08 d7 90 b0
       -3.1541217e-07 -3.4715507e-05 1.2467944e-08 -1.0538495e-09
000050 08 63 16 b8 6a 50 ce b4 00 1f 6b b3 1f 5b 97 b7
       -3.5855017e-05 -3.8429e-07 -5.4743396e-08 -1.8043034e-05
000060 fa 64 54 31 42 a2 82 33 70 08 8b b6 aa 80 f0 2c
       3.0907459e-09 6.083111e-08 -4.143505e-06 6.835495e-12
000070 77 88 4f aa b2 f2 19 36 da f6 77 35 ee 15 6a b6
       -1.8432639e-13 2.2940044e-06 9.2373887e-07 -3.4881482e-06
000080 a6 b9 b5 25 f0 4a 2c b6 e2 09 40 33 03 d1 20 38
       3.1524295e-16 -2.5673617e-06 4.4712472e-08 3.834163e-05
000090 82 10 c1 35 a8 a6 a5 37 9e ef 5e b6 a0 fb fa b3
       1.4384425e-06 1.9747138e-05 -3.3220053e-06 -1.16873025e-07
0000a0 ac 93 7b 9f 66 ea 52 38 5a 45 9f b6 bb 97 a8 36
       -5.327347e-20 5.0286202e-05 -4.746643e-06 5.024454e-06
0000b0 1f 8b 49 35 7d 03 e2 33 fb 0d 30 a2 70 70 8f ac
       7.508078e-07 1.05245796e-07 -2.385985e-18 -4.0767875e-12
0000c0 e8 c4 e8 35 63 6a df 34 03 19 b7 b4 d0 bc be 9d
       1.7342654e-06 4.1614393e-07 -3.4104605e-07 -5.048781e-21
0000d0 02 43 09 34 14 b6 f3 b3 66 ba 1c b4 6c cd c9 ab
       1.2783497e-07 -1.1348689e-07 -1.4596444e-07 -1.4338925e-12
0000e0 93 40 02 36 8c 96 ab 92 db 97 39 b7 3c 9b 1c b6
       1.9409097e-06 -1.082873e-27 -1.1062216e-05 -2.333617e-06
0000f0 ea 6a ce 34 ab ab 40 b7 9d 5c 4d 37 a2 22 b5 35
       3.844828e-07 -1.1484061e-05 1.2240515e-05 1.349563e-06

norm1.weight f4 [64]
000000 5e 4a 89 3c 12 38 24 3d e1 aa 6c 3d d8 02 26 3e
       0.016759094 0.040092535 0.05778015 0.16212022
000010 58 a0 d1 3d 5c 06 f9 3c c4 dc a1 3d df 05 d9 3c
       0.10235661 0.03039854 0.07903436 0.026492057
000020 9d 2f be 3d 79 50 2a 3c da 07 e7 3b 45 2e 0d 3e
       0.09286425 0.010395163 0.0070504965 0.13787182
000030 e3 aa a8 3c 22 08 70 3e b9 e5 66 3c fb a1 80 3c
       0.020589298 0.23440602 0.014092856 0.015702238
000040 af d1 ac 3d 64 5f cc 3d 32 fd a8 3c 6c 36 4f 3b
       0.084384315 0.09979132 0.020628545 0.0031618131
000050 51 c8 21 3e 34 c9 26 3d f8 38 43 3e cd e8 cb 3d
       0.15799071 0.040719226 0.190647 0.099565126
000060 e1 0b 03 3c a0 c9 d7 3c bc 12 38 3d 1e 59 d5 3b
       0.007998438 0.02634126 0.04493974 0.0065108677
000070 e0 69 5f 3b 01 ca d4 3d ec 88 9f 3d c4 89 8f 3d
       0.0034090206 0.10390092 0.07789788 0.070086986
000080 d2 34 34 3b 1f 2f f3 3d 4d 1d 00 3c ce af 09 3e
       0.0027497304 0.11874222 0.007819486 0.1344597
000090 51 e4 f6 3d af 59 55 3e ed aa 99 3d 3d db b1 3c
       0.12055267 0.20834993 0.07503305 0.021710986
0000a0 0f 36 85 3a 2d af 0f 3e 54 4f 34 3e c5 1c 13 3e
       0.0010163205 0.14031668 0.17608386 0.14366443
0000b0 9e c0 24 3e bd 32 00 3d e5 4b c7 3a 04 3d ee ba
       0.16089103 0.031298388 0.0015205113 -0.0018176143
0000c0 07 db 2b 3d cc 71 02 3e 4f f0 08 3d 5f f7 bd 3a
       0.041956928 0.12738723 0.0334323 0.0014493278
0000d0 db 82 93 3d 02 c3 3e 3d 14 3c f5 3c b8 f9 aa 3b
       0.07202693 0.046572693 0.029935874 0.005217757
0000e0 a2 b2 0e 3e 6b 1f 59 3a 36 42 6a 3e 8d 0b 63 3d
       0.1393533 0.00082825747 0.2287682 0.055430938
0000f0 f3 52 e7 3d 5b 4f 20 3e 9a 50 1d 3e 00 2a a1 3d
       0.11295118 0.15655272 0.15362778 0.07869339

norm1.bias f4 [64]
000000 2e 2c 09 bd 5e 34 2e bb e4 aa 38 bd cb fa 44 3d
       -0.0334894 -0.0026581506 -0.04508485 0.048090737
000010 99 22 27 be 9a 99 1d bd 72 97 08 be 36 b0 3d bd
       -0.16321792 -0.038476564 -0.13339022 -0.046310626
000020 02 8f 1e be 07 56 b4 bc 4d 29 51 ba f8 1f a1 bd
       -0.1548424 -0.022013677 -0.00079788716 -0.07867426
000030 66 29 87 bc 01 ae b9 bd df 62 fa ba 79 7a 76 3d
       -0.016499233 -0.09066392 -0.0019102952 0.060175393
000040 cf 3d 10 be 5c 8e f9 bc 5e 2e b2 bc e7 11 26 bb
       -0.14086078 -0.03046339 -0.021750625 -0.002534026
000050 24 14 86 be d0 c9 28 bd 79 7e 7b be 5c 54 e6 3a
       -0.2618724 -0.04120809 -0.24559964 0.0017572748
000060 7b 19 8a bc 73 8f 2a bd ba 3f 0d bc 7a 14 75 bc
       -0.016857853 -0.04164071 -0.008621151 -0.014958495
000070 aa e3 1e bc 71 a5 84 bd 9f 8d 00 be 33 e6 0b be
       -0.009697834 -0.06476868 -0.12554024 -0.13662033
000080 2a bf 84 bb 3f ca 9e bd 44 02 3e bc 5f 35 a5 bd
       -0.004051109 -0.07753419 -0.01159722 -0.0806682
000090 ac 06 22 be 76 07 d9 bd f2 31 38 bd 52 6b cb bc
       -0.15822858 -0.10597126 -0.044969507 -0.024831448
0000a0 06 b7 47 bb ab 61 27 3d a2 4e 30 be 85 9e 30 bd
       -0.003047408 0.040864628 -0.17217496 -0.043119926
0000b0 8c b3 d9 bd 8c 81 ac 3a 4d 60 1b bb 30 c1 77 bc
       -0.10629949 0.0013161167 -0.0023708523 -0.015121743
0000c0 36 62 5c 3c 1c 1f 25 bd 92 27 10 bd 5e 32 24 bb
       0.01345115 -0.04031287 -0.035193987 -0.0025054435
0000d0 35 cf b2 bd 12 36 af bd 7e 52 08 3b 4e 7e 0a bc
       -0.08730928 -0.08555235 0.0020801122 -0.008452965
0000e0 84 a7 5e be e5 61 b7 ba a8 ea 39 bc ec 83 d7 bd
       -0.2174359 -0.0013990967 -0.01134745 -0.10523209
0000f0 d0 75 86 bc e0 05 55 be 96 64 77 be 80 73 1a bd
       -0.0164136 -0.20803022 -0.24159464 -0.037707806

norm1.running_mean f4 [64]
000000 3d dd 51 3c 73 ed fb 3c 4e c9 a2 3c b4 1d 21 3d
       0.012809095 0.030752873 0.01987138 0.039334968
000010 0a 98 e5 bc ed 1b c0 bc 53 68 df bc 4d 89 07 bc
       -0.0280266 -0.023450816 -0.027271425 -0.008272481
000020 12 d5 fa bc dc 27 1d bc a2 79 09 3c ff 82 1d bd
       -0.030619178 -0.009592023 0.008390816 -0.038455006
000030 32 3e ca bc fd e8 7f 3d 78 36 32 3c 76 c1 04 bd
       -0.02468786 0.062478054 0.010877244 -0.03241106
000040 e8 99 e2 bc ae c4 f0 3c fe 51 80 3b 73 f2 31 ba
       -0.027661279 0.02939066 0.003916024 -0.0006788142
000050 ac 5f 3a bd d3 65 ab bc cb cd 37 bd 99 91 2b bd
       -0.045501396 -0.020922577 -0.044873994 -0.0418869
000060 3f d9 a4 bb 59 b3 ca bb c5 6e 8a 3c 21 ac ed ba
       -0.0050307806 -0.0061859307 0.016898522 -0.0018132963
000070 22 c7 17 3b b6 b7 0b 3d 85 82 b9 bc 38 aa d0 bc
       0.0023159464 0.034110747 -0.022645244 -0.025471792
000080 ab b9 9e 3a 0d 9d 31 bd 67 a0 c0 bb 57 ac 1a bd
       0.0012109777 -0.043362666 -0.0058784964 -0.037762012
000090 e4 3f fb bc cf 45 46 3d 9e 20 02 bd d4 e1 d2 bc
       -0.030670114 0.04840642 -0.031769387 -0.025742449
0000a0 9f 65 01 ba 5a 4c 13 3d 0b 15 65 bd 3f 7d 2d bd
       -0.0004936102 0.035961486 -0.05592827 -0.042355772
0000b0 03 35 43 bd 6d a4 d3 3c 20 04 c0 39 2f f3 3b bb
       -0.047657978 0.02583524 0.00036624167 -0.0028678884
0000c0 20 d0 02 3d ec c5 22 bd 5b 97 30 bd 14 b2 77 3a
       0.031936765 -0.039739534 -0.043113094 0.0009448838
0000d0 c2 bf af bc ed d3 63 bc dc b1 bb 3c 16 2e 59 3b
       -0.021453742 -0.0139055075 0.022911958 0.0033139042
0000e0 40 46 ec bc 7f 7e 10 ba 52 2e 48 3d f2 51 9a bc
       -0.028842092 -0.00055120134 0.0488723 -0.018837903
0000f0 14 3d f6 3c 8e 29 30 bd fe 78 d5 bc da 5e e7 3c
       0.030058421 -0.04300838 -0.02605867 0.028243471

norm1.running_var f4 [64]
000000 32 a6 7f 38 2a b4 79 3a d7 3d 1f 3a 30 e7 1c 3b
       6.095152e-05 0.0009525443 0.00060745835 0.002394151
000010 c4 f5 ba 3a ab 3c 99 39 73 35 97 3a d8 ec 08 39
       0.0014263918 0.00029227635 0.0011536315 0.00013058202
000020 d5 5f be 3a 5d d0 68 38 20 7d c8 38 3a 18 32 3b
       0.001452441 5.5507164e-05 9.5600495e-05 0.0027175085
000030 b2 4e 6a 39 82 02 d1 3b fc 37 6b 39 6c cd 14 3a
       0.00022345295 0.006378473 0.00022432202 0.0005676362
000040 df f0 97 3a 6f 28 d7 3a 9d 8c ae 38 95 6a b4 35
       0.0011592171 0.0016415248 8.323158e-05 1.3442065e-06
000050 48 71 51 3b 1b 92 21 3a c1 34 81 3b 4e 7b 23 3b
       0.003195839 0.0006163434 0.0039430563 0.0024945321
000060 e8 fb d5 37 d9 ba 0d 39 ca a5 23 3a 7d 54 9e 37
       2.5508882e-05 0.00013516414 0.0006242661 1.887441e-05
000070 ba 4b b5 37 b2 a3 0a 3b e5 ba 5c 3a 57 b6 9d 3a
       2.1612144e-05 0.00211547 0.00084201834 0.0012032491
000080 37 3c 99 35 66 11 46 3b dd 47 a8 37 1b 6f 2a 3b
       1.1416913e-06 0.0030222773 2.0060625e-05 0.0026006165
000090 b4 86 cc 3a 90 57 84 3b 1c 84 d1 3a 4d ab af 39
       0.001560411 0.0040387586 0.0015984806 0.0003350623
0000a0 5c 8c 16 35 c9 4f 04 3b 20 f6 98 3b a6 ea 2c 3b
       5.6083604e-07 0.0020189157 0.0046680123 0.0026384979
0000b0 9c ed 5e 3b 87 ee 12 3a 9a f8 b5 35 3a 6a 27 37
       0.0034016138 0.00056050014 1.3557903e-06 9.9787085e-06
0000c0 23 82 6b 3a b7 78 15 3b 41 46 ba 39 16 6a 40 35
       0.00089839305 0.0022807547 0.00035529028 7.167995e-07
0000d0 c1 fd 73 3a b6 b7 c2 39 41 a3 ed 39 2e eb 1f 36
       0.00093075266 0.0003713944 0.00045325796 2.382974e-06
0000e0 e4 3e fc 3a 3d 5c 1d 35 10 5a 75 3b c6 ef 23 3a
       0.0019244817 5.862128e-07 0.0037437715 0.00062536856
0000f0 64 1e de 3a 52 2b 37 3b d7 2f e1 3a ab 19 ae 3a
       0.0016946313 0.0027949405 0.0017180395 0.0013282796

conv_layer2.weight f4 [64, 64, 3, 3]
000000 8c a3 99 35 52 f5 4f b9 d1 54 81 b9 6b 38 d6 b7
       1.1446987e-06 -0.00019832447 -0.0002466799 -2.553706e-05
000010 a3 10 c1 b9 de c5 56 b8 f9 db 53 39 21 12 88 b9
       -0.00036824224 -5.1205854e-05 0.00020204474 -0.00025953448
000020 1a 66 9f b7 2b 7f ee bc dc fc 77 bc e7 b5 ae bc
       -1.9001822e-05 -0.029113373 -0.01513597 -0.021326972
000030 25 f3 9c bc 7f 0a 97 bc 9a 37 89 bc b3 b7 90 bc
       -0.01915891 -0.018437622 -0.016750146 -0.01766572
000040 89 ab 09 bc 6e c5 0f bd 9e d1 01 ba 49 e2 c8 bb
       -0.008402714 -0.035100393 -0.0004952195 -0.006130491
000050 68 35 d4 ba 6a 96 74 bb 4f b2 ee bb ea 77 c2 bb
       -0.0016190233 -0.00373211 -0.0072844396 -0.005934705
000060 58 4c aa bc e1 4e 08 3b b2 8d 8c bb 64 2a e0 bb
       -0.020788357 0.0020798969 -0.0042893523 -0.006840991
000070 ae 81 03 bc 01 83 34 bc 60 d8 72 3a 02 13 fc bb
       -0.0080265235 -0.011017562 0.000926381 -0.0076926956
000080 ee b8 fc bb 76 52 3e bc 14 9b bf bb c4 dd 13 bc
       -0.007712475 -0.01161634 -0.005847344 -0.009025041
000090 61 bb 16 bc ce 53 4a bb b1 a9 38 bb 62 5f 5e 3b
       -0.009199948 -0.0030872705 -0.0028177316 0.0033931364
0000a0 70 50 f8 bb 57 fa 84 bb 57 db 9c bb 11 51 b5 bb
       -0.0075779483 -0.004058163 -0.0047868895 -0.0055333455
0000b0 e8 89 0d bb 63 93 53 3b 48 ad bb 3a 05 e8 06 bb
       -0.002159709 0.0032283894 0.001431861 -0.0020585072
0000c0 6b 34 07 3b ca c3 0e bb dd 86 2e bb 40 1f a7 3b
       0.0020630609 -0.002178418 -0.0026630678 0.005100161
0000d0 50 4f 8d 3a a1 10 ac ba bd f6 e0 bb 0d 02 03 bc
       0.0010781083 -0.0013127514 -0.006865351 -0.007996094
0000e0 4f 3c 10 bb 1e 90 a5 b9 1a b3 9f 3a e0 96 cb bb
       -0.0022008603 -0.00031578628 0.0012184114 -0.006213054
0000f0 82 1a af bb 44 f6 a1 ba 67 6a 96 bb bc bb 08 ba
       -0.005343736 -0.0012356718 -0.004590321 -0.0005215963
000100 a6 54 05 3b 83 48 98 3a 1e ff 10 3a 11 b5 66 39
       0.0020344644 0.001161829 0.00055311795 0.00022001962
000110 b8 30 28 ba f6 0e 80 ba c6 cc 59 ba 92 09 55 3a
       -0.0006415951 -0.0009770084 -0.00083084067 0.0008126731
000120 2e 4c 03 bc 37 30 1e bc 98 f3 03 bb 17 95 3e b9
       -0.008013768 -0.00965505 -0.0020134207 -0.00018175352
000130 82 47 11 3a b6 62 fc bb fe a6 d1 bb f1 b1 35 bb
       0.00055419665 -0.007702197 -0.006398081 -0.002772447
000140 a2 a7 bb bb 7e 52 87 ba fa 89 01 3b 0f 41 63 3a
       -0.0057267705 -0.0010324267 0.0019766078 0.0008669057
000150 3a 50 97 3a 00 36 c7 ba 8f 45 83 ba d4 e1 10 3b
       0.0011544295 -0.0015198588 -0.0010015237 0.002210726
000160 bd ea fd 3a 47 71 a5 ba 34 ee 18 bb e9 51 96 bb
       0.0019372326 -0.001262226 -0.002333534 -0.004587401
000170 8f 8d ba bb b6 69 aa 3a 35 a2 1b bb cb 40 b8 bb
       -0.0056931446 0.0013001475 -0.0023747806 -0.0056229583
000180 89 28 78 bb 57 48 85 bb 8d a2 da bb b1 99 ab 3b
       -0.0037865958 -0.0040674615 -0.0066722096 0.0052368273
000190 61 76 cd bb 8f 7b 12 bc 56 8e c2 bb 6b 1c cd bb
       -0.0062702154 -0.0089405915 -0.005937378 -0.006259491
0001a0 6a 62 98 3b 7e c2 68 bc 51 d6 84 bb e3 b2 3f 3b
       0.0046504037 -0.014206527 -0.004053869 0.0029250912
0001b0 04 b5 00 3b 85 7c 79 3b 94 47 ed 3b e0 49 26 bb
       0.0019639144 0.0038068604 0.007241199 -0.0025373623
0001c0 3d a3 c1 b9 d0 ba 44 3c ef ee 67 3a c6 6c b0 b9
       -0.0003693345 0.01200743 0.00088475546 -0.00033650378
0001d0 29 ee 27 3c 3f 1e 34 3c 31 d0 ff 3b 58 c9 5b 3c
       0.010249653 0.010993539 0.007806801 0.013414703
0001e0 93 30 d0 3b a3 16 06 3c d8 ce 91 3c 93 aa e9 3a
       0.0063534467 0.008184108 0.017798826 0.0017827324
0001f0 f9 c7 2e 3a e9 c9 80 3c 32 94 3b ba c5 d2 29 3b
       0.00066673715 0.015721278 -0.0007155567 0.0025912982
000200 38 52 03 bc 4d 18 32 3a a5 31 bb ba 80 36 39 bb
       -0.008015208 0.0006793782 -0.0014281763 -0.0028261244
000210 eb a3 c8 bb 8d d3 bd bb 58 c2 88 bc 0a a3 e7 3c
       -0.006123056 -0.005793041 -0.016694233 0.028275985
000220 0e cf 82 3c 20 89 c0 3c 0b 31 c2 3c bc df a5 3b
       0.015967872 0.023502886 0.023705026 0.0050620716
000230 6d d9 44 3c f9 3e 14 3d b8 7e 9b 3c ac 2b d6 3c
       0.012014729 0.036192868 0.018981323 0.026143871
000240 e7 38 ea bb 14 38 13 bc 44 62 83 bb 3c e5 79 b9
       -0.0071478966 -0.008985538 -0.004009517 -0.00023831887
000250 50 42 34 38 1b 8b e4 bb 04 83 bd bb f4 54 bf ba
       4.2977103e-05 -0.0069745905 -0.0057834405 -0.0014597462
000260 ea a8 9b bb 68 9a 52 3c 9f 42 93 3b 4f 5c 1a bd
       -0.0047503607 0.012854196 0.004494026 -0.03768569
000270 a8 80 db 3c 95 09 cf 3b 50 ea 34 bd ad da e3 3b
       0.026794747 0.006318281 -0.04416877 0.0069535584
000280 d2 6f 28 3b bb dd c7 bc a3 61 22 3a fb 5c 12 bb
       0.0025701416 -0.024397722 0.00061943586 -0.0022333253
000290 04 aa d2 39 4c 8e 0f b9 1c 05 7b ba 57 58 e9 39
       0.00040180993 -0.00013690552 -0.00095756515 0.00044507041
0002a0 9c a5 10 3b c3 97 ac 3a 7e db 92 b9 9a fd cf b8
       0.0022071367 0.0013167787 -0.00028010824 -9.917766e-05
0002b0 0a ef d2 b8 f4 d7 bb b8 2c 91 1a b8 c2 21 8d b7
       -0.00010058105 -8.957079e-05 -3.6851663e-05 -1.682423e-05
0002c0 c3 67 cc 38 77 35 2a 38 e7 f1 40 38 c1 90 89 b7
       9.746805e-05 4.058095e-05 4.6001656e-05 -1.6399079e-05
0002d0 09 5e 6c bc 9c a7 8b bc 14 0f ee bb 12 bc 90 bb
       -0.014426717 -0.017047696 -0.007264981 -0.004416951
0002e0 3d 38 0f ba 78 cf 74 bc 00 7a 35 bc 43 30 c2 bb
       -0.0005463397 -0.0149420425 -0.01107645 -0.0059261634
0002f0 70 fe 25 bc ae 0e d6 bb 7d 14 c1 bb 41 5f 90 bb
       -0.010131463 -0.0065325117 -0.005892335 -0.0044058864
000300 6f 8f c9 bb 12 7b d0 bb 41 9b 9f bb 0a cb e3 bb
       -0.006151132 -0.0063623274 -0.0048708026 -0.0069516944
000310 af d2 82 bb 6c 8f 1d bb f3 d2 90 bc 01 4f ce bc
       -0.0039924006 -0.0024041785 -0.017678713 -0.025184156
000320 8c 29 0b bd 66 8a 00 bd 47 ef e7 bc 72 83 15 bd
       -0.03397517 -0.031381987 -0.028312339 -0.03650231
000330 72 ec e7 bc c7 65 49 bc 3d 28 b7 bc 2e ff 9b 3c
       -0.028310988 -0.012292332 -0.022358054 0.019042578
000340 85 5d af 3c 12 87 a6 3c 7a 75 ca 3c 40 fe f4 3c
       0.021406898 0.020328078 0.02471422 0.029906392
000350 ed f8 97 3c 9a c9 d1 3c f8 11 a7 3c 87 30 72 3c
       0.018551314 0.025608826 0.02039431 0.014782078
000360 d2 68 29 36 04 57 22 b9 c4 b1 72 37 3f ce 18 b7
       2.5243976e-06 -0.0001548194 1.4465713e-05 -9.107926e-06
000370 7c 7b cb b6 91 da 89 b9 7a 0b 61 38 9b 10 6a b8
       -6.064247e-06 -0.0002629352 5.365487e-05 -5.5805413e-05
000380 c8 65 c1 38 87 90 4f ba e6 95 38 39 ba 24 a3 3a
       9.2219154e-05 -0.00079179596 0.00017603449 0.0012446858
000390 63 31 91 bb aa 98 80 ba 1c 15 44 ba aa 4e 00 ba
       -0.004430936 -0.0009811122 -0.0007479952 -0.00048945344
0003a0 3a 58 88 ba 23 4d 34 ba ff 51 b7 bc 07 85 b6 bc
       -0.001040227 -0.00068779493 -0.022377966 -0.02228023
0003b0 be e0 bf bc cb 79 7c 3b a6 30 e9 3a 55 72 80 3a
       -0.023422595 0.0038524743 0.0017790988 0.0009799699
0003c0 ac a4 eb 3b e6 16 1b 3c 92 4f 1f 3b d3 6b 6b 39
       0.0071912613 0.009465909 0.0024308902 0.00022451514
0003d0 4e 8f c8 38 56 84 50 39 d5 61 03 39 95 53 38 31
       9.563436e-05 0.00019885725 0.00012529579 2.6823035e-09
0003e0 fd fd e1 b8 64 01 8a 38 cb bd e6 b7 44 2c 17 38
       -0.00010776145 6.580612e-05 -2.7506516e-05 3.604243e-05
0003f0 5a 7a 88 35 93 9f d9 b0 40 33 8a b8 ba b0 7a 38
       1.0168399e-06 -1.5834182e-09 -6.589899e-05 5.9769234e-05

conv_layer2.bias f4 [64]
000000 ac 2e 1c 37 04 25 de 37 66 1e 4a b5 f4 a6 9e b6
       9.309191e-06 2.6481699e-05 -7.52951e-07 -4.728203e-06
000010 ef aa 29 36 93 a5 c3 37 ca 89 91 38 2e 07 62 b6
       2.528246e-06 2.3322913e-05 6.939804e-05 -3.3680803e-06
000020 d1 6b f2 37 76 1a 32 37 2c 7a db b7 dc e7 e1 b7
       2.8898854e-05 1.0615788e-05 -2.6163725e-05 -2.6930058e-05
000030 d0 05 d2 b6 36 0b 0e b7 99 b7 00 b7 da 3f 3d b7
       -6.2591644e-06 -8.46647e-06 -7.672142e-06 -1.12801445e-05
000040 67 b2 07 b8 a8 96 c8 b6 49 aa 2e b7 b8 86 a5 b7
       -3.235266e-05 -5.978003e-06 -1.0410856e-05 -1.9732266e-05
000050 08 04 67 b6 c8 f1 25 b7 11 3b 44 b7 62 d6 90 36
       -3.4424029e-06 -9.8910605e-06 -1.1696263e-05 4.316492e-06
000060 4c 20 3c 37 e4 e0 03 39 e6 b5 e6 b8 81 ce 23 b7
       1.1213193e-05 0.00012576912 -0.00011001136 -9.7636375e-06
000070 80 82 a4 37 a8 f8 8a 35 f8 ec c6 37 58 15 c6 b7
       1.9611092e-05 1.035417e-06 2.3713787e-05 -2.3613378e-05
000080 d7 ee 50 b8 81 3a b1 b6 1a c2 b3 b6 9c 2b 4c b7
       -4.98135e-05 -5.281822e-06 -5.357212e-06 -1.2169501e-05
000090 e4 22 f2 b6 6e 61 6c b7 b2 2d 76 37 fa 88 5c 35
       -7.216224e-06 -1.4089381e-05 1.4673382e-05 8.2155714e-07
0000a0 b2 9c 3e 37 c6 5a af b7 52 92 6c 37 8a 7a 8a 37
       1.1361366e-05 -2.0903895e-05 1.4100764e-05 1.6507944e-05
0000b0 6d cd 0a b8 b4 fb 99 37 e2 a2 4a b7 f8 0b 9b 36
       -3.309308e-05 1.835623e-05 -1.2078062e-05 4.6207533e-06
0000c0 d6 ba a4 37 0c db 09 37 c7 bd 89 b6 2e 8e 12 38
       1.9637326e-05 8.216837e-06 -4.105011e-06 3.4941528e-05
0000d0 f5 bb 86 35 12 e1 bf 36 dc cf 17 b8 32 f5 f2 36
       1.0038481e-06 5.718445e-06 -3.619479e-05 7.2407065e-06
0000e0 ec 46 d9 35 88 e1 6f 35 43 39 5f b7 d0 84 49 36
       1.6188401e-06 8.936263e-07 -1.3305168e-05 3.002864e-06
0000f0 40 df 8e b6 00 a0 ef b1 c0 df 5e b7 c3 a5 2b 2f
       -4.2579195e-06 -6.9740054e-09 -1.3284327e-05 1.561125e-10

norm2.weight f4 [64]
000000 b9 5d 9a 3d c3 83 2e 3e fa 3c 5e 3c f8 fb 7f 3d
       0.075374074 0.1704245 0.013564343 0.062496156
000010 e0 c4 54 3d 44 50 e3 3d b5 01 f7 3d 0b cd 11 3d
       0.051945567 0.11099294 0.120608725 0.035595935
000020 6a 1a 8a 3d 47 1b 71 3d 55 09 91 3d d8 85 a9 3d
       0.06743319 0.058863904 0.07081858 0.08277482
000030 ee bd fc 3d 9a e9 e0 3d 66 5a a2 3d 1b 91 c7 3d
       0.12340914 0.10982056 0.079273984 0.097444735
000040 ce 2e b3 3d 26 10 7f 3d 0e e4 bd 3d 80 41 a9 3d
       0.08749162 0.06227126 0.092720136 0.08264446
000050 41 17 5d 3e e2 5d b2 3d b4 e5 a7 3d b2 ba 04 3e
       0.21590902 0.08709313 0.08198109 0.12961844
000060 2b 54 e9 3d b3 99 08 3e 74 8d b2 3e aa d8 9a 3d
       0.11393007 0.13339882 0.34873545 0.07560857
000070 a0 ca a0 3d d1 6d 8c 3d 07 57 89 3e 16 6e 00 3d
       0.07851148 0.06856883 0.2682421 0.031354986
000080 32 b7 9a 3d 60 12 54 3e d3 f5 67 3d 67 b0 e7 3c
       0.07554473 0.20710135 0.05663092 0.028282357
000090 3e 7f 2f 3d 86 24 71 3d aa 0e 6b 3d 32 cc 8f 3d
       0.042845957 0.058872722 0.05738703 0.07021369
0000a0 c0 d0 12 3d 38 f0 02 3e bb 89 c3 3e 39 6c b6 3d
       0.03584361 0.12786949 0.38191018 0.089073606
0000b0 60 8b de 3d 12 a4 d1 3d 87 65 3d 3d 4a c8 ab 3d
       0.108664274 0.10236372 0.046239402 0.083878115
0000c0 ad e9 5e 3d 57 8c ee 3d ca e9 ed 3d 1a 59 0a 3e
       0.05442207 0.116478615 0.11616857 0.13510552
0000d0 3c 86 72 3d 59 db ec 3d 9b 8b db 3e ba 8e 10 3e
       0.059210047 0.11565275 0.42879948 0.14116946
0000e0 a1 60 cf 3d be 56 0c 3d 4d 7b 81 3e d3 b4 61 3e
       0.101258524 0.03426241 0.25289384 0.22041635
0000f0 ed b7 90 3d 25 06 06 3d 53 63 09 3e 02 df cd 3b
       0.07066331 0.032720704 0.13416795 0.006282688

norm2.bias f4 [64]
000000 5e 9a 65 bd 60 e6 d4 bb 95 e9 56 bc 14 da 39 bd
       -0.05605542 -0.0064971894 -0.013117214 -0.04537399
000010 a4 27 42 3c 72 e3 e1 bd 56 a3 19 be 1b 3b b3 bc
       0.011850271 -0.1102971 -0.15003714 -0.02187877
000020 4a 6b 84 bc 27 8f 49 bd 0d 1d b4 bd bd 5a da bd
       -0.01616444 -0.049208786 -0.087946035 -0.10661838
000030 59 a2 19 be 0b b9 12 be da 0f 6b bd 75 fe 4f bd
       -0.15003337 -0.14328401 -0.057388164 -0.05077978
000040 c2 5c 57 be 3a 95 82 bd 2e b0 e2 bc 93 37 db bd
       -0.21031478 -0.06376119 -0.0276719 -0.10703959
000050 85 1e cf bc 2c 47 d8 bd 31 10 a0 bd 0c b1 f6 bd
       -0.025283108 -0.1056045 -0.07815588 -0.12045488
000060 12 ac fe bd f7 ff d0 bd 25 a6 54 be 1f 54 b5 bc
       -0.124351636 -0.102050714 -0.20766504 -0.022134839
000070 b9 81 d3 bc 6f 49 ac bd d8 cf 1a be e5 1d 2c 3d
       -0.025818693 -0.08412444 -0.15118349 0.042020697
000080 7f 6c ee bd 0b 5b 8d be 1c ec 58 3c 11 5a b8 bc
       -0.11641788 -0.27608523 0.013239887 -0.022503885
000090 9b 78 77 bc ff 2d 3d bd e3 d8 39 bc c5 a7 8f bd
       -0.015104438 -0.046186443 -0.011343214 -0.070144214
0000a0 cd 15 94 bc 1f 45 1c be 9c 4f 96 be 52 61 dd bd
       -0.018076802 -0.15260743 -0.29357612 -0.10809578
0000b0 69 06 15 be e6 dc 64 be d5 7f 71 bd 01 cd c6 bd
       -0.14553227 -0.22349891 -0.0589598 -0.0970707
0000c0 5e 99 e9 bc 90 f8 7d be b1 06 b5 bd ab f8 3b be
       -0.028515514 -0.2480185 -0.08839167 -0.18356578
0000d0 b6 91 f8 bc 15 e1 1c be 8c 4f 25 be 47 a2 37 be
       -0.030342918 -0.15320237 -0.16143626 -0.17932998
0000e0 4a b1 bc bd 84 88 2f bd ee b9 96 be d5 d1 8c be
       -0.09213503 -0.0428548 -0.29438728 -0.2750384
0000f0 24 a7 5e bd 1d 4b 9c 3c f1 8d 2a be 5d de 51 bc
       -0.054358616 0.019078786 -0.16655709 -0.012809363

norm2.running_mean f4 [64]
000000 97 bf 1e bc 46 f7 21 3d 5e 3a 93 bb 86 cc 9d 3c
       -0.009689233 0.03954246 -0.004493042 0.019262563
000010 2a d7 81 ba 28 77 21 bc ec b0 18 bd 44 9f 94 bc
       -0.0009906043 -0.009855069 -0.0372781 -0.01814235
000020 f2 dc 9c 3b 48 ef 38 3c b2 7d 9c bc f0 7d 92 3b
       0.004787081 0.011287518 -0.019102905 0.0044705793
000030 80 79 ff bb 62 60 fb bb 13 f5 65 ba a1 23 11 bc
       -0.0077964664 -0.007671402 -0.00087721756 -0.008858592
000040 b2 50 1f ba 60 87 15 3b 04 7d 39 bc 73 3b af 3b
       -0.0006077393 0.0022816285 -0.01132131 0.005347663
000050 42 31 52 bd 71 6a 55 bb fd 3f 11 3b 6e 49 ca bc
       -0.051316507 -0.0032564665 0.0022163384 -0.024693217
000060 5e 95 07 3b 53 e2 8d bb 62 48 50 3d 9a 91 11 3d
       0.0020688395 -0.0043299585 0.05085028 0.035539247
000070 8a 9d a6 bb 12 0d 01 bd 26 68 81 bd 05 c7 0c 3b
       -0.005084698 -0.031506605 -0.06318693 0.002148093
000080 10 43 ef 3b bc cb cb 3c 0a a0 a2 b8 b8 b2 46 3c
       0.0073016956 0.024877422 -7.7545716e-05 0.012127571
000090 26 a7 d5 3c d4 14 a7 ba f3 e9 0b 3b d1 52 18 bc
       0.02608068 -0.0012747296 0.0021349161 -0.009297089
0000a0 68 a9 9a bc ae 97 d6 bb 92 0e 81 3d f8 53 03 bc
       -0.018879607 -0.0065488433 0.06301607 -0.008015625
0000b0 5e e9 52 bc bf 3e 24 3b fb 27 c4 bc ce bf fb 3c
       -0.012873022 0.0025061814 -0.023944845 0.030731108
0000c0 d7 5d 23 bd 44 1e 23 bb 43 2e d2 bb 25 cb 01 bc
       -0.039884415 -0.0024889866 -0.0064142062 -0.007921969
0000d0 66 a7 18 bd ae c6 cf 3a dc 1b 6d bd 3b 91 a5 bc
       -0.03726902 0.0015852058 -0.057887897 -0.020210853
0000e0 fc b4 d0 3b 4a ef c3 bc b7 14 fe 3c a5 da ff 3c
       0.0063692313 -0.023917813 0.031015737 0.031232188
0000f0 3f 94 93 3b 20 f4 cb b9 de 3c 1a bc 3c cd 2b bb
       0.0045037563 -0.00038901065 -0.009413926 -0.0026214859

norm2.running_var f4 [64]
000000 6d 24 b9 38 b8 01 1e 3b b8 71 9a 38 b3 bb 35 3a
       8.828272e-05 0.0024109911 7.364474e-05 0.00069325714
000010 25 cf ca 38 c9 9d 45 39 e1 9c 6b 38 8a ad a6 38
       9.670694e-05 0.00018846164 5.617447e-05 7.947821e-05
000020 3d 5d d2 38 4f 29 1d 3a ed 2a f7 38 3c de 93 38
       0.00010030947 0.000599523 0.00011785873 7.0509006e-05
000030 0e 52 b3 37 e7 e1 dd 37 0f af 65 39 f1 4d fb 38
       2.1376673e-05 2.6450447e-05 0.00021904356 0.000119831304
000040 f2 7f bc 38 38 60 20 39 f9 2e 8a 39 82 b8 9d 38
       8.98837e-05 0.00015294633 0.00026356408 7.520711e-05
000050 50 3b 43 3a 34 4a 21 38 3b 0a 39 38 be 56 1c 39
       0.0007447498 3.84545e-05 4.4116965e-05 0.00014909633
000060 7b 20 53 38 b6 9a 60 38 c2 30 15 3a 1d c3 23 3a
       5.033657e-05 5.3549848e-05 0.00056911644 0.00062470307
000070 41 76 32 39 25 c9 c8 38 17 ca 87 3a 64 6c 75 38
       0.00017019456 9.574209e-05 0.001035991 5.85135e-05
000080 cf 8b 50 39 c0 b4 05 3a 47 2c 99 39 6f d4 de 38
       0.00019888509 0.0005100481 0.00029215423 0.00010625354
000090 a3 dc 50 39 98 36 94 39 6e 1b a9 39 88 3e 23 39
       0.0001991862 0.00028269435 0.0003225463 0.00015568186
0000a0 8c 1b bb 38 91 79 b3 37 2e 81 6c 3a 13 8e c1 37
       8.921986e-05 2.1395072e-05 0.0009021935 2.3073551e-05
0000b0 f0 f3 65 38 9a 74 b6 38 ff c1 37 39 2f 6a 0a 3a
       5.482504e-05 8.700155e-05 0.00017524509 0.0005280105
0000c0 c5 44 74 39 13 23 da 38 c3 82 34 39 e2 1f 09 38
       0.00023295272 0.00010401583 0.0001721485 3.269304e-05
0000d0 65 94 59 39 74 cc 1f 38 68 7d 07 3b 91 81 1e 39
       0.00020750014 3.8098966e-05 0.0020674113 0.00015116321
0000e0 0d 48 cf 38 f6 67 24 39 0b 09 17 3a c0 3f d7 39
       9.88395e-05 0.00015678987 0.00057615404 0.00041055493
0000f0 20 18 49 39 60 61 24 38 61 43 00 38 a7 61 2a 36
       0.00019177841 3.9191335e-05 3.058033e-05 2.5388815e-06

conv_layer3.weight f4 [64, 64, 3, 3]
000000 e4 44 09 bb 85 05 2d bb ce ab 76 bb 39 e3 ab ba
       -0.0020945603 -0.0026400995 -0.0037639025 -0.0013113982
000010 f8 43 1f 38 9a 39 34 bb 76 71 0c bb c0 3e 70 ba
       3.7971855e-05 -0.0027500154 -0.0021429933 -0.0009164624
000020 65 4a 22 bb ed 42 a1 b8 14 73 81 39 9f bc d5 ba
       -0.002476358 -7.689544e-05 0.00024690537 -0.0016306824
000030 ee 2b 5f b9 f1 98 e3 bb 2c 11 a2 ba f9 bf 64 b9
       -0.00021283302 -0.0069457223 -0.0012364737 -0.0002181529
000040 d8 d5 42 ba d7 06 57 bb 19 50 ca 36 f1 e1 d6 38
       -0.0007432378 -0.0032810473 6.0293937e-06 0.000102464
000050 f7 0a 6d b9 a7 bd b9 b9 2b 8b da 39 9d 6b 1f 3a
       -0.00022606166 -0.00035427252 0.00041683888 0.0006081404
000060 3f 63 89 39 c7 4f 69 ba cc 52 73 39 14 42 0d bb
       0.0002620462 -0.00089001324 0.0002320513 -0.0021554278
000070 39 de 7a 3b cf d1 32 bb 63 f6 7b 39 21 e3 0a bb
       0.0038279428 -0.00272857 0.00024029012 -0.0021192508
000080 f3 bc 79 39 1f 49 ca 3a 8f ca b3 bb e1 f4 d0 39
       0.0002381688 0.0015433169 -0.0054867934 0.000398553
000090 50 ee 6e 3b c9 e5 ce 3a 8d 27 5d bb 22 2c 00 3b
       0.0036457963 0.0015785034 -0.0033745498 0.0019557555
0000a0 8e 92 ee ba df 94 c5 ba ed 59 0d bb 99 7c 41 bb
       -0.0018201636 -0.0015074274 -0.0021568493 -0.002952373
0000b0 cf b0 9e 3c 88 48 85 ba 60 15 c3 3b c8 40 f0 b9
       0.019371418 -0.0010168711 0.005953476 -0.00045824633
0000c0 66 83 83 ba de 15 d0 39 dc 23 54 38 d3 2a 69 3a
       -0.0010033667 0.00039689144 5.0578135e-05 0.0008894626
0000d0 c2 30 49 bb e6 02 95 3a 95 0e b9 3a b0 3b 05 ba
       -0.0030699228 0.0011368662 0.0014118726 -0.00050824415
0000e0 72 7f fb 3a 4d 0f 09 ba a5 57 62 ba 15 dd a8 ba
       0.0019187762 -0.0005228415 -0.0008634276 -0.001288327
0000f0 97 5f 66 3a 13 2c 84 39 bf 62 09 3b 3c 18 90 39
       0.00087880477 0.0002520984 0.0020963398 0.00027483876
000100 b5 3a 66 3a 8f f2 c4 39 26 14 f0 b9 98 ff 80 3a
       0.0008782552 0.00037564753 -0.0004579138 0.0009841798
000110 ea 32 19 3a c1 d2 07 3a 83 55 6a 3a b2 a3 7a 3a
       0.00058440736 0.0005181246 0.0008939134 0.00095611357
000120 dc 50 2a 3a 28 78 46 b8 3b b8 61 3b 25 f8 0d 39
       0.00064970343 -4.7318783e-05 0.0034442085 0.00013539249
000130 52 5f f1 b9 27 a2 54 bb 76 c4 a9 39 0a 54 97 3a
       -0.0004603812 -0.0032445283 0.00032380567 0.0011545431
000140 5e 23 9e 3b 48 8e f9 b8 ca d5 bc b9 51 db 31 bb
       0.0048259934 -0.00011899747 -0.0003601744 -0.002713878
000150 60 b3 7a bb d0 ce 12 bb ac a9 64 3b 7f ab 1a 3a
       -0.0038253888 -0.0022401102 0.0034891171 0.00059001887
000160 36 91 a3 b9 e9 e0 2f bb 11 44 e6 3a ca 51 64 39
       -0.00031197973 -0.0026836938 0.0017567893 0.00021774243
000170 fb 14 18 3a 58 b4 fe b9 08 09 d6 3a 0e 81 9b 3a
       0.0005801466 -0.00048581022 0.0016329596 0.0011864023
000180 a4 4f 70 38 b6 5a 17 3a a4 44 83 39 2a d4 f6 3a
       5.729463e-05 0.000577371 0.00025037408 0.001883154
000190 08 07 ab ba 4f 99 a1 bb 71 73 3f bc 4d bf bb bb
       -0.001304836 -0.004931606 -0.011685238 -0.005729592
0001a0 f9 16 80 3c fe 28 f9 39 ac bd 92 ba 9a 94 93 bb
       0.015635954 0.00047523523 -0.0011195443 -0.0045037987
0001b0 22 ac f8 b7 88 cb 69 ba 59 3b dc 3a e9 f6 87 3a
       -2.964406e-05 -0.0008918573 0.0016802355 0.0010373268
0001c0 7c 8f a9 3a ef 6d d4 3b 50 87 04 3b ff 8c a5 ba
       0.0012936438 0.0064828317 0.0020222254 -0.0012630521
0001d0 3b e7 58 3a a6 35 26 3a 84 7b 88 3a 9c 15 d1 3a
       0.0008274202 0.00063403917 0.0010412787 0.0015951875
0001e0 50 be a2 39 8b 5c 04 3a c5 cd 5f 3b 92 7f 7f b9
       0.00031040842 0.00050491904 0.0034149748 -0.00024366219
0001f0 31 7e 21 ba 98 54 0e b9 35 b2 cc 3a ec b7 10 bb
       -0.00061604666 -0.00013573689 0.0015617075 -0.0022082282
000200 ec c8 dd 37 d3 e5 fa ba 44 88 d9 3b c1 31 ac ba
       2.6438815e-05 -0.0019141979 0.0066385586 -0.0013137386
000210 f1 eb 8e ba 9e 31 0f bb 77 01 c3 ba 2e 33 90 3a
       -0.0010904056 -0.0021849643 -0.0014877756 0.0011001581
000220 42 e1 97 bb 32 86 c2 ba ba 8f 99 bb 1c 55 2e 3c
       -0.004635007 -0.0014841019 -0.004686323 0.010640409
000230 2e 6c 84 bb ad 4f 95 ba c7 7a 88 bb 78 21 ed ba
       -0.0040412163 -0.0011391543 -0.004165027 -0.001809164
000240 18 5f 00 b8 89 ea d2 39 82 f1 ca ba ef ee 0a bb
       -3.060614e-05 0.00040229064 -0.0015483352 -0.0021199544
000250 a2 99 28 3a 10 ff ab ba 4e b0 f7 3b 50 12 a8 3a
       0.00064315845 -0.0013122279 0.007558859 0.001282284
000260 d5 5b 83 3a c9 aa 35 3a 90 e5 41 bb f3 90 f0 b9
       0.0010021875 0.0006930051 -0.0029586293 -0.00045884363
000270 88 35 55 bb c5 b1 81 3b 25 88 08 bb bb 7d ec 3a
       -0.0032533128 0.0039579594 -0.0020833102 0.0018042842
000280 f3 06 68 bb fd 08 a0 3a 49 46 d3 bb 61 9e 55 ba
       -0.0035404533 0.001220971 -0.0064475876 -0.00081489055
000290 f5 b7 e6 ba 94 f0 30 3c be a1 d3 3b 0f 9c 6f 3a
       -0.0017602431 0.010799546 0.00645849 0.0009140381
0002a0 be 26 64 bb d8 4f 62 ba 97 48 19 bb 48 e1 92 bb
       -0.0034813131 -0.00086331135 -0.0023389214 -0.004482422
0002b0 d6 21 42 3c 3f c9 66 bb 2a cb 6c ba d1 cf 92 bb
       0.011848887 -0.0035215167 -0.00090329594 -0.00448034
0002c0 89 c3 97 b9 32 1c 0d b9 cf 82 6b bc a0 37 8e 3b
       -0.0002894665 -0.00013457311 -0.014374449 0.004340127
0002d0 3b e1 1f 3b 43 92 1a 3c 5f b2 c7 3a 6e 22 17 3c
       0.0024395722 0.009434286 0.0015235654 0.009224517
0002e0 47 96 ba bc e7 57 0c 3c 2b 78 4a 3b 65 21 09 3c
       -0.022776736 0.008565879 0.003089438 0.008369778
0002f0 d6 1d 4d 39 7d 6b 95 3b 95 d5 03 3a 91 ab 1f 3a
       0.00019561438 0.0045599327 0.00050290796 0.0006090934
000300 ee aa 34 3b 7c 90 ad 3a 32 63 63 3a 52 24 c5 bb
       0.0027567702 0.0013241912 0.0008674144 -0.0060162926
000310 17 ef ef 39 7a f5 a0 3b 7f ac b7 3a f9 df 35 3b
       0.00045763768 0.0049120756 0.00140132 0.0027751906
000320 32 9e 8d bb 69 0c b0 3a fd 5d d9 3a 4c f2 4a 3a
       -0.004321837 0.0013431433 0.0016583797 0.00077417935
000330 e0 7b cf b6 12 27 77 3a d0 aa 01 3b 7d a8 96 3a
       -6.1835017e-06 0.0009428124 0.001978565 0.0011494305
000340 24 4d 1a 3b 57 b1 20 3a 18 f2 8f 3a f5 7e 06 bc
       0.0023544515 0.00061299413 0.0010982184 -0.00820898
000350 de 3f d7 3a d6 a4 eb 3a 4d 13 77 3a 2f 29 7c 3a
       0.0016422232 0.0017978202 0.0009425178 0.0009619174
000360 23 5b 0e ba ba e7 fd ba 3f c5 c6 39 9b 02 9d ba
       -0.00054304505 -0.0019371428 0.00037912463 -0.0011978926
000370 14 ff 97 bb a8 01 ee 3a fc 93 aa 3a 7e 26 06 bc
       -0.004638562 0.0018158453 0.0013014073 -0.008187888
000380 79 94 82 3a ed 02 90 3b e2 77 4f ba a8 df 89 b9
       0.0009962461 0.00439488 -0.0007914287 -0.00026297313
000390 c2 3b ac b9 64 5d 8c ba 18 14 d2 ba e2 5b a0 ba
       -0.0003285092 -0.0010708985 -0.0016027717 -0.0012234414
0003a0 62 d3 07 b9 57 62 ac 3b f0 0d 98 38 7f 8f 85 ba
       -0.0001295335 0.0052607465 7.250521e-05 -0.001018986
0003b0 1b 4c 8d 39 95 91 f8 ba 39 b5 11 3c 54 20 9f ba
       0.0002695032 -0.0018964285 0.0088933045 -0.0012140372
0003c0 ed b7 aa 39 57 62 4b bb 16 19 88 b9 58 75 96 39
       0.00032561962 -0.0031033957 -0.00025958632 0.00028697657
0003d0 a6 b8 ca b9 7d 18 7a 3a e0 19 25 3a 30 a6 89 b9
       -0.00038666016 0.0009540392 0.0006298106 -0.00026254496
0003e0 bd 28 8c 3a b8 c3 84 3b cf d5 6f bb 84 e6 f5 b9
       0.0010693293 0.004051652 -0.0036595946 -0.0004690179
0003f0 bc 85 67 bb bc 61 68 ba 34 bf a0 3c 92 01 90 39
       -0.0035327515 -0.0008864661 0.019622423 0.0002746699

conv_layer3.bias f4 [64]
000000 79 63 7e 35 e2 d6 61 b5 89 2b aa 35 c0 40 89 ae
       9.4767125e-07 -8.413173e-07 1.2678657e-06 -6.2415406e-11
000010 ea 31 fe 34 e8 b4 ae 33 4b ac 98 b6 b4 35 99 36
       4.7347504e-07 8.135413e-08 -4.5500105e-06 4.566007e-06
000020 f0 f6 7d b6 7a 73 c4 37 19 fa f7 34 f4 26 5a b6
       -3.7843674e-06 2.3418794e-05 4.6189305e-07 -3.2507205e-06
000030 7e 68 9b 31 c9 03 d2 b7 fa 36 a8 33 a6 e2 7b 34
       4.522973e-09 -2.5035713e-05 7.83311e-08 2.3458651e-07
000040 e1 f1 c2 37 4e a6 8d 34 8c ff fb b6 b6 c0 f4 b7
       2.3239236e-05 2.63843e-07 -7.5101325e-06 -2.9176805e-05
000050 e7 a8 99 37 b2 c6 a8 36 c9 f5 2a b7 00 de f5 b0
       1.8317673e-05 5.0299213e-06 -1.0190016e-05 -1.7889192e-09
000060 b2 2a 0d 37 a6 50 c1 b6 3e e1 75 ae 23 a2 09 b7
       8.414196e-06 -5.761237e-06 -5.5906606e-11 -8.203587e-06
000070 0e 75 36 b6 6c 44 29 b6 0c b4 47 b1 a0 30 18 b7
       -2.7188248e-06 -2.522279e-06 -2.9060656e-09 -9.071227e-06
000080 e6 65 82 35 f2 93 f2 32 f8 26 03 33 1c 63 d6 36
       9.715411e-07 2.8239786e-08 3.0536256e-08 6.389235e-06
000090 94 b8 67 36 c0 07 d4 32 3f cd eb 36 ae 77 5c 33
       3.452912e-06 2.4683573e-08 7.0274396e-06 5.133159e-08
0000a0 27 fd c8 33 cc 46 00 36 44 6d 1c b4 df a8 99 36
       9.359274e-08 1.9114696e-06 -1.4568383e-07 4.5794145e-06
0000b0 d6 a9 fa 35 12 df 19 35 b6 46 21 35 eb 8c fc 2b
       1.867588e-06 5.732155e-07 6.008007e-07 1.794479e-12
0000c0 60 59 89 b8 80 84 1d b6 5d 70 02 37 8e 28 98 b3
       -6.5493165e-05 -2.3471948e-06 7.774765e-06 -7.0854284e-08
0000d0 3a ea a6 b7 22 ca 09 37 54 3d 44 b3 a5 e1 be b4
       -1.9897812e-05 8.212899e-06 -4.5690584e-08 -3.5554436e-07
0000e0 8d 5b f0 b6 34 f9 eb 36 fc 75 90 2a e9 e5 7c 36
       -7.1632153e-06 7.032557e-06 2.5661407e-13 3.7684752e-06
0000f0 60 73 a9 2b f7 42 3c 25 52 0c 1f b8 1a d5 cf 36
       1.2040195e-12 1.6329089e-16 -3.792003e-05 6.193889e-06

norm3.weight f4 [64]
000000 9c 77 ed 3d 88 c2 38 3e 02 e4 68 3f 58 2c 88 3a
       0.11595079 0.18042958 0.9097291 0.0010389192
000010 59 e3 8a 3d ca 2e 94 3c fc 25 7f 3e aa b7 47 3f
       0.067816444 0.018088717 0.24916834 0.78014624
000020 b0 b8 f4 3e 37 ca 6d 3f 51 4d c2 3d 23 60 de 3e
       0.47797155 0.9288668 0.09487403 0.43432721
000030 50 43 85 3b cd 7a 7a 3f d3 c7 c7 3c ce ac 9c 3d
       0.004066862 0.9784363 0.024387276 0.076501474
000040 72 4b 4e 3f d6 81 34 3e 73 bb 26 3f 97 99 c2 3e
       0.8058387 0.17627653 0.65129775 0.38007805
000050 c1 ac 68 3f b7 fb 25 3f e4 d3 67 3f 12 fa 94 3c
       0.908886 0.6483721 0.90557694 0.018185649
000060 39 50 ba 3e c1 95 69 3f 3c 16 aa 39 94 f5 42 3f
       0.3638933 0.9124413 0.00032441493 0.7615597
000070 78 80 75 3e 03 d5 b4 3e d2 dd 9f 3b bd 90 de 3e
       0.23974788 0.35318765 0.004878738 0.43469802
000080 c7 ef 12 3e ca b5 c4 3c 0b 3c 33 3c 6b ce 59 3f
       0.1434928 0.024012465 0.010939608 0.85080594
000090 92 49 2b 3f 6a 8e fa 3c 7a 96 e1 3e df c3 2f 3d
       0.66909134 0.030585486 0.44060117 0.042911407
0000a0 8f c4 58 3d d9 bb 56 3e 50 78 23 3e 1a ee 07 3f
       0.052921828 0.20970096 0.15963864 0.5309769
0000b0 e4 c4 29 3e 41 8c dd 3d d0 31 95 3e 3c ca 0a 38
       0.16579014 0.10817767 0.29139566 3.309011e-05
0000c0 40 6f 62 3f f9 61 f9 3e a3 99 04 3f b8 37 ad 3c
       0.88451004 0.4870756 0.5179693 0.021144733
0000d0 a9 b8 52 3f 9d e3 59 3f 40 97 e9 3c 79 47 19 3d
       0.8231302 0.85112935 0.028514504 0.037421677
0000e0 5a b3 40 3f d0 c5 67 3f 70 66 8a 37 b1 10 ee 3e
       0.7527367 0.9053621 1.6498583e-05 0.4649711
0000f0 03 7e 20 39 28 8f 0c 35 73 9f 5d 3f e9 a5 84 3f
       0.00015305732 5.2362384e-07 0.86571425 1.0363132

norm3.bias f4 [64]
000000 11 c1 8f 3d ab b5 af 3d 4e b7 87 3e e4 23 19 39
       0.07019246 0.08579572 0.26507038 0.00014604587
000010 ae 7b 2d 3d 7e 28 28 3c ed 94 06 3e 6f 63 af 3e
       0.04235428 0.01026356 0.13142748 0.3425555
000020 4f 87 55 3e 48 9c b7 3e df e9 68 3d 0c 25 85 3e
       0.20852397 0.3586142 0.05686366 0.26004827
000030 f0 79 9a 3a 6b bc f8 3e b2 ca 7b 3c b8 03 19 3d
       0.0011785608 0.48581252 0.015368151 0.037357062
000040 43 a5 88 3e ae 58 cb 3d 28 74 87 3e 6b 89 50 3e
       0.26688585 0.09929024 0.26455808 0.20364921
000050 6d 8c a7 3e 7b de 89 3e 92 07 a5 3e fd b0 20 3c
       0.32724324 0.26927552 0.32232338 0.009807822
000060 e4 85 48 3e dc 78 a5 3e ad b3 2c 39 f4 89 a7 3e
       0.19582325 0.3231877 0.00016470133 0.32722437
000070 2e ba 15 3e 76 5c 4a 3e 5b a6 2a 3b 76 2e 3b 3e
       0.14621803 0.19761834 0.0026039097 0.18279442
000080 ec f4 a3 3d 6d a0 54 3c 4d 84 ba 3b 18 f9 a0 3e
       0.080056995 0.012977702 0.005692041 0.31440043
000090 b3 03 cd 3e 5a 13 5b 3c 94 53 83 3e 16 c5 ae 3c
       0.40041885 0.013371313 0.25649703 0.021334212
0000a0 44 ad c4 3c e1 bb f3 3d 5f 5a 9e 3d a5 29 7b 3e
       0.0240084 0.119010694 0.07732081 0.24527605
0000b0 ce 60 b5 3d a9 a4 7a 3d a4 d1 ff 3d 71 bc b1 37
       0.08856355 0.06119219 0.12491158 2.1187794e-05
0000c0 73 12 83 3e 12 d6 42 3e de dd 78 3e 04 ef 43 3c
       0.25600013 0.19026974 0.24303386 0.011958841
0000d0 4c 23 e2 3e fa ea e0 3e 19 ae 90 3c dc 3e 9f 3c
       0.44167554 0.43929273 0.017661141 0.019439153
0000e0 10 c5 99 3e da 80 a4 3e 15 69 96 36 74 11 56 3e
       0.3003316 0.32129556 4.4825815e-06 0.20905095
0000f0 87 10 81 38 01 8f 96 b3 9b 4f 8c 3e 01 32 c0 3e
       6.154278e-05 -7.0109316e-08 0.27404484 0.3753815

norm3.running_mean f4 [64]
000000 fc 7e c3 39 52 9e df 3a 42 a9 64 bb b7 c6 5f 38
       0.0003728791 0.0017060733 -0.0034890925 5.335241e-05
000010 1a 3d 34 ba 41 20 6d 38 45 1b 46 bb 4b 2d 4f 3b
       -0.000687556 5.6535242e-05 -0.0030228656 0.003161269
000020 cb 96 30 3a 42 a6 3a bb 97 c5 00 3a c3 3a 93 38
       0.0006736337 -0.0028480445 0.00049122557 7.0204514e-05
000030 a1 be f8 38 d0 50 82 bb 67 f9 04 39 25 2e 76 3a
       0.00011861069 -0.0039769188 0.0001268141 0.00093910313
000040 89 a1 74 bb 99 d9 03 3b 63 02 28 bc 30 6a f7 39
       -0.0037327728 0.0020118712 -0.010254475 0.00047190627
000050 61 74 66 3b 93 8c 33 3a d2 b5 0e 3c 00 c4 e4 39
       0.0035164582 0.00068492553 0.0087103415 0.0004363358
000060 b2 83 bf ba a0 62 4f 39 64 e0 7f 39 d5 42 87 3b
       -0.0014611392 0.00019777799 0.00024402287 0.00412784
000070 51 24 0c bb eb f1 95 ba c6 ef a8 39 76 2e 62 39
       -0.002138395 -0.0011439895 0.00032222102 0.00021570348
000080 90 21 6c ba 31 b8 84 39 f7 7e 64 39 83 9a 67 b9
       -0.0009007687 0.00025314235 0.00021791073 -0.00022087437
000090 6c 21 0c bb 08 b4 18 3a 95 1f d1 39 41 59 8d 39
       -0.0021382226 0.00058251666 0.00039887117 0.00026960115
0000a0 0e f0 4f 3a 46 fe 8d 3a 85 4c db 3a 61 dc 7a ba
       0.0007932194 0.0010833226 0.0016731179 -0.0009569582
0000b0 16 a9 3d ba ee 01 50 ba 17 01 b2 38 95 4d e4 38
       -0.00072349736 -0.0007934858 8.4879044e-05 0.00010886338
0000c0 be 43 96 bb f2 61 6e ba d7 d4 38 3b a9 6a d9 39
       -0.004585712 -0.00090935745 0.0028203034 0.00041468933
0000d0 3e 9b 7f 3a d4 fd c4 3b 99 62 63 b6 21 ca c9 39
       0.0009750611 0.006011704 -3.3883027e-06 0.00038488305
0000e0 93 5f 4e bc 80 f1 82 3b 8d 33 22 39 8b e1 b6 39
       -0.012596029 0.003996074 0.00015468728 0.00034881788
0000f0 f1 c4 0a 39 cd 5f 03 36 8c a4 2f ba b8 6c 68 b9
       0.00013234072 1.9576285e-06 -0.00067002396 -0.00022165745

norm3.running_var f4 [64]
000000 7f f0 31 38 70 b6 0c 39 d8 ab 9c 39 07 ec d0 33
       4.2424068e-05 0.00013419404 0.00029882672 9.728688e-08
000010 2f 02 87 37 7e b6 54 36 5b bb a1 38 08 e2 63 39
       1.609427e-05 3.1696686e-06 7.711976e-05 0.0002173261
000020 e3 20 64 39 ab 70 f8 39 2c a9 0c 38 d8 bb 7a 39
       0.00021756026 0.0004738619 3.3536155e-05 0.00023911835
000030 76 c1 7a 35 b3 8d 4a 3a d8 82 c4 36 de 1e 4c 38
       9.341378e-07 0.00077268033 5.8564874e-06 4.8666137e-05
000040 0a f2 9d 39 10 ed a6 38 f1 fd 96 39 1e 67 53 39
       0.00030125707 7.959653e-05 0.0002879943 0.00020160942
000050 0a 6f bd 39 2d fd eb 39 11 9e 90 39 c7 0d cf 36
       0.0003613162 0.00045011324 0.0002758359 6.1706846e-06
000060 76 d5 26 39 1f 54 9b 39 b6 0b 23 34 52 9a a6 39
       0.00015910514 0.0002962658 1.5184818e-07 0.00031776965
000070 92 51 08 39 43 91 2d 39 cb b1 e4 35 c6 64 9b 39
       0.00013000358 0.0001655268 1.7039068e-06 0.00029638986
000080 65 27 5e 38 32 cd 0a 37 2e e4 4f 36 1b 47 30 39
       5.2965614e-05 8.273217e-06 3.0978222e-06 0.00016811157
000090 81 9d c7 39 27 7a 87 37 03 8c 6a 39 d0 d5 74 37
       0.00038073587 1.6150136e-05 0.00022368137 1.4593315e-05
0000a0 59 70 00 38 5d 80 c4 38 76 6a f1 38 8e da bc 39
       3.062221e-05 9.369918e-05 0.000115116054 0.0003602099
0000b0 8b fc 89 38 70 40 f2 37 cb 2e 30 39 63 53 f7 32
       6.579709e-05 2.8878654e-05 0.000168021 2.8792504e-08
0000c0 b3 05 9d 39 0d 74 a6 39 32 86 eb 39 00 63 fb 36
       0.0002994962 0.00031748452 0.00044922676 7.491908e-06
0000d0 fa 54 06 3a eb 31 e4 39 dc ff b9 36 8a 80 46 37
       0.0005124357 0.0004352474 5.5432156e-06 1.18316475e-05
0000e0 03 dc b1 39 c4 bb c5 39 9c 9c 51 33 dd d2 ad 39
       0.00033923992 0.00037714664 4.880404e-08 0.00033154237
0000f0 1e 94 65 33 f3 b0 96 2f 33 8b 87 39 42 f0 1d 3a
       5.345293e-08 2.741057e-10 0.00025852918 0.0006024876
