sudoku_cnn.pth (torch, 310754 bytes, 20 tensors)

conv_layer1.weight f4 [64, 1, 3, 3]
0	0x3ea4b971	0.3217273
1	0x3e33446a	0.17506567
2	0x3e5b628a	0.21424308
3	0x3ea7c917	0.32770607
4	0x3cfa5c50	0.030561596
5	0x3ea74065	0.32666317
6	0xbe3e3596	-0.18575129
7	0xbe01744e	-0.12642023
8	0x3e36fe8e	0.17870542
9	0x3deeecf4	0.11666289
10	0x3dd76330	0.105169654
11	0xbdd2e040	-0.102966785
12	0xbe5df686	-0.21676072
13	0x3e5e820e	0.217293
14	0x3d8b7cec	0.06810936
15	0x3dfb84b0	0.122811675
16	0x3e536302	0.20643237
17	0xbe2a7630	-0.16646647
18	0x3bbec9c0	0.0058223903
19	0xbe826f30	-0.25475454
20	0x3ab00900	0.0013430417
21	0xbe0702b8	-0.13184631
22	0xbdcc74f0	-0.099832416
23	0xbe63c326	-0.22242412
24	0xbdf78bbc	-0.12087199
25	0x3de05070	0.10952842
26	0x3e969b63	0.29415426
27	0x3e1b6bf8	0.15177906
28	0x3e333e5a	0.17504254
29	0xbe81a35e	-0.25319952
30	0xbc33f380	-0.010983348
31	0x3e8e8f13	0.27843532
32	0xbca05110	-0.019569904
33	0x3e6a326a	0.22870794
34	0xbea979fa	-0.33100873
35	0x3e864f33	0.262323
36	0xbe8efe5c	-0.27928436
37	0x3e96b0ab	0.29431662
38	0xbdbdf98c	-0.09276113
39	0x3e861ebd	0.26195326
40	0xbe73222b	-0.23743503
41	0x3e6fd346	0.23420438
42	0xbdb917a0	-0.09037709
43	0xbd8db0a4	-0.06918457
44	0xbdc39376	-0.0954961
45	0x3e8922d3	0.2678438
46	0xbea39724	-0.3195125
47	0x3e884af7	0.26619694
48	0x3da25034	0.07925454
49	0x3e4446ce	0.19167635
50	0x3cc17a50	0.023617893
51	0xbdcc1346	-0.099646136
52	0x3e81256d	0.25223866
53	0x3e3459ae	0.17612335
54	0xbe67f4ce	-0.2265198
55	0xbd27d858	-0.040977806
56	0x3d93b6b0	0.07212579
57	0xbdcdcd5c	-0.10048935
58	0x3d6cccd8	0.05781254
59	0x3e33537a	0.17512313
60	0x3e117d1a	0.14207879
61	0xbd9e8a4c	-0.07741222
62	0x3e985e05	0.2975923
63	0xbde2a926	-0.11067419
64	0xbdb2cce6	-0.087304875
65	0xbe70956b	-0.23494498
66	0xbe3a7f23	-0.18212561
67	0x3d9030ac	0.070405334
68	0x3e940de5	0.2891685
69	0xbe728fe3	-0.23687701
70	0x3da45fbc	0.080260724
71	0xbdf8d9ac	-0.121508926
72	0x3e58150e	0.21101782
73	0xbe3ed4ce	-0.18635866
74	0x3e919541	0.28434184
75	0x3d336d28	0.04380527
76	0x3e34a7f2	0.17642191
77	0x3e943219	0.2894447
78	0xbe83615e	-0.25660223
79	0x3e96a60d	0.29423562
80	0xbea7cf40	-0.32775307
81	0x3e995c8b	0.29953417
82	0x3e9306e9	0.2871621
83	0xbd83e4dc	-0.06440136
84	0x3e412bd2	0.18864372
85	0xbe761408	-0.24031079
86	0xbe9b9433	-0.30386505
87	0xbd7cfdd8	-0.06176552
88	0x3e67e46e	0.22645733
89	0xbe4d958b	-0.20076577
90	0xbdcfba80	-0.10142994
91	0x3e976dad	0.29575863
92	0x3e9719a7	0.2951176
93	0x3e96977d	0.2941245
94	0xbbf3f640	-0.007445127
95	0x3ea160b1	0.31519082
96	0x3b3db400	0.00289464
97	0xbe0f50a8	-0.13995612
98	0x3e50e3b2	0.20399359
99	0xbe910a64	-0.2832824
100	0x3e395a42	0.18100837
101	0xbde8c066	-0.11364822
102	0x3d2ef300	0.04271221
103	0x3e2a3582	0.16621974
104	0xbcfc7d40	-0.030821443
105	0x3bcbbf00	0.0062178373
106	0x3e3ff9ba	0.18747607
107	0xbd122b38	-0.035685748
108	0xbe228c40	-0.15873814
109	0x3e006282	0.12537578
110	0x3e03838e	0.12843153
111	0x3ce12dd0	0.027487665
112	0x3db08a1c	0.08620092
113	0x3e1cc0ea	0.15307966
114	0x3d0b6380	0.034030437
115	0x3dfeef8c	0.12448034
116	0x3d559bc0	0.052150488
117	0x3e00f99a	0.12595215
118	0x3e9ca51d	0.3059472
119	0x3e29aa2a	0.16568819
120	0x3d157268	0.03648606
121	0x3dd9bab4	0.10631314
122	0xbd8ba200	-0.068180084
123	0x3d984650	0.07435286
124	0x3de6fe3c	0.1127896
125	0x3da35d1c	0.079767436
126	0xbe6cb903	-0.23117451
127	0x3e54a5ca	0.20766369
128	0x3e1f4236	0.15552601
129	0xbc6f0ca0	-0.014590412
130	0x3e434c2a	0.19072023
131	0x3e360e46	0.17778882
132	0xbd5870f8	-0.05284211
133	0xbe0f1f56	-0.13976797
134	0x3e1b7d22	0.15184453
135	0xbe1f8138	-0.15576637
136	0xbe90285a	-0.28155786
137	0xbc288480	-0.010285497
138	0xbe83bc1a	-0.25729448
139	0xbb43be00	-0.0029867887
140	0x3d653ee0	0.055968165
141	0x3ea8b3df	0.3294973
142	0x3ddf60c4	0.109071285
143	0x3e819cd1	0.25314954
144	0x3e04a64a	0.12954059
145	0x3eaa69a5	0.33283725
146	0x3de8a664	0.113598615
147	0xbe9943f3	-0.29934654
148	0xbe3cd478	-0.18440425
149	0x3e954c13	0.29159603
150	0xbd4496f8	-0.047995538
151	0xbea84ddb	-0.328719
152	0xbcc7dd30	-0.024397463
153	0xbe995984	-0.29951108
154	0x3e9c1e89	0.30492046
155	0xbe9be417	-0.30447456
156	0x3e3e46d2	0.18581703
157	0x3e0d771e	0.13814971
158	0x3e8e23f9	0.2776182
159	0xbe8eb3ac	-0.27871454
160	0x3cc24c70	0.023718089
161	0xbe84fcec	-0.25974214
162	0xbcfc2d90	-0.030783445
163	0x3df4d4d0	0.11954653
164	0x3d7aac98	0.061199754
165	0x3e5455ba	0.20735827
166	0x3dccf780	0.100081444
167	0xbe4f4506	-0.20241174
168	0x3ea9e753	0.331843
169	0x3e82f4f9	0.25577524
170	0x3d5ec098	0.05438289
171	0xbe0f2fdb	-0.13983099
172	0xbe43b296	-0.19111094
173	0xbe7e515b	-0.24835722
174	0x3d6c1dc0	0.05764556
175	0x3e8f5317	0.2799308
176	0xbe5cb4cb	-0.21553342
177	0x3d8281fc	0.06372449
178	0xbe9e97cf	-0.30975196
179	0xbc8702d0	-0.016480833
180	0x3e421e32	0.18956831
181	0xbe6b791b	-0.22995417
182	0xbe8da8f0	-0.27667952
183	0x3e820279	0.2539251
184	0x3d928770	0.07154739
185	0xbe29d258	-0.16584146
186	0x3e2d3aba	0.16916934
187	0x3e9fb277	0.31190845
188	0x3ea5b899	0.323674
189	0xbdfd7736	-0.12376253
190	0xbe0e0d9b	-0.13872378
191	0x3e807d25	0.25095478
192	0x3e0b02e0	0.13575315
193	0x3e0e2f5a	0.1388525
194	0x3e583782	0.21114925
195	0xbd3e7e28	-0.04650703
196	0x3e7db34a	0.24775425
197	0x3d47ebb8	0.048808783
198	0x3d959f20	0.07305741
199	0x3e59e00a	0.2127687
200	0x3daa4080	0.08313084
201	0xbb9a52c0	-0.0047095716
202	0x3e875dd5	0.26438776
203	0x3dda362c	0.10654864
204	0xbe8e9507	-0.27848074
205	0xbda9db60	-0.082937956
206	0x3ea37b39	0.3192995
207	0x3e0caa68	0.1373688
208	0x3de1942c	0.1101459
209	0xbdc7e20c	-0.09759912
210	0x3e5aeb46	0.21378812
211	0xbd930544	-0.07178739
212	0x3ea7d7c3	0.327818
213	0x3e985241	0.29750255
214	0xbe2a69b3	-0.16641884
215	0x3d23ec98	0.040020555
216	0xbdcf45f0	-0.101207614
217	0xbe9fb7ac	-0.31194818
218	0xbe930746	-0.28716487
219	0x3ea1e5fd	0.3162078
220	0x3ea86571	0.32889894
221	0x3e40e4ea	0.18837324
222	0x3e865afd	0.26241294
223	0xbd57ebe0	-0.052715182
224	0xbe89f9a3	-0.2694827
225	0xbe72f923	-0.2372785
226	0xbe3a3688	-0.18184865
227	0x3d91c984	0.07118514
228	0x3d0a8cc0	0.033825636
229	0x3ddd3ef4	0.10803023
230	0xbea165cc	-0.31522977
231	0x3d99e154	0.07513681
232	0x3e181152	0.14850357
233	0xbdd0c696	-0.10194127
234	0x3e7aa732	0.24477842
235	0x3dff0734	0.12452546
236	0x3e65779a	0.22408906
237	0xbe701793	-0.23446493
238	0xbd85bb9c	-0.06529924
239	0xbea44e8c	-0.32091177
240	0xbe1eee80	-0.15520668
241	0x3e3ac772	0.18240145
242	0x3ea3523d	0.3189868
243	0x3e448222	0.19190267
244	0x3db9301c	0.09042379
245	0x3e3093be	0.17243859
246	0xbe766ffe	-0.24066159
247	0xbe84ef7a	-0.25963956
248	0x3db3786c	0.08763203
249	0x3e293062	0.16522363
250	0xbcab4d90	-0.020911008
251	0x3e577d0e	0.21043798
252	0x3e5ea22a	0.21741548
253	0xbe67f8bb	-0.22653477
254	0x3e5efa6a	0.21775213
255	0x3db85894	0.0900127

conv_layer1.bias f4 [64]
0	0x3e92d301	0.28676608
1	0x3c8d1dd0	0.01722613
2	0xbe905df4	-0.2819668
3	0x3ea033b5	0.3128945
4	0xbca3c310	-0.019990474
5	0x3e708816	0.23489413
6	0xbd8be8e4	-0.0683153
7	0x3e084fd0	0.13311696
8	0xbe1566f3	-0.14590053
9	0x3e08cbe8	0.13359034
10	0xbe729b18	-0.23691976
11	0x3db807bc	0.0898585
12	0xbcb57df0	-0.022154778
13	0x3e9f7407	0.3114321
14	0xbded6096	-0.11590688
15	0x3db25d30	0.0870918
16	0x3e9fc055	0.31201425
17	0x3e275c9a	0.16343918
18	0xbea2178e	-0.31658596
19	0xbc64e4e0	-0.013970584
20	0x3db750fc	0.089509934
21	0x3cf446d0	0.029818922
22	0x3d163420	0.036670804
23	0x3ddfe194	0.109316975
24	0x3e1c9ef0	0.15295005
25	0xbe7e3580	-0.24825096
26	0xbe31b216	-0.1735309
27	0x3d8e9e00	0.0696373
28	0x3e999489	0.29996136
29	0xbdc9f5e6	-0.098613545
30	0x3d60e200	0.05490303
31	0xbe2f0240	-0.17090702
32	0xbde778cc	-0.11302337
33	0xbd53e760	-0.05173433
34	0x3e21af2e	0.15789482
35	0xbe9ac448	-0.30227876
36	0x3e00d5b8	0.12581527
37	0x3e0ba808	0.13638318
38	0xbea96884	-0.33087552
39	0x3e7a5222	0.24445394
40	0xbd354588	-0.044255763
41	0xbe2edbe3	-0.17076068
42	0x3e5f3bbe	0.21800134
43	0xbd0b6a00	-0.034036636
44	0xbe9abe84	-0.30223477
45	0x3d309c28	0.043117672
46	0x3e247268	0.16059268
47	0x3d2f7978	0.04284045
48	0x3e9d856d	0.30765858
49	0x3d6f4400	0.05841446
50	0x3de62c34	0.112389
51	0xbca525d0	-0.020159632
52	0xbe139e80	-0.14415932
53	0x3e9ce789	0.30645397
54	0x3e7ef29e	0.24897239
55	0xbe6933a3	-0.22773604
56	0x3e8c696f	0.2742419
57	0x3e06dc98	0.13170087
58	0xbe935d00	-0.2878189
59	0xbe7884ee	-0.24269459
60	0x3e1f4b4e	0.1555607
61	0x3d647a20	0.05578053
62	0x3e6f73b2	0.23383978
63	0xbe15f06e	-0.14642498

norm1.weight f4 [64]
0	0x3f800000	1.0
1	0x3f800000	1.0
2	0x3f800000	1.0
3	0x3f800000	1.0
4	0x3f800000	1.0
5	0x3f800000	1.0
6	0x3f800000	1.0
7	0x3f800000	1.0
8	0x3f800000	1.0
9	0x3f800000	1.0
10	0x3f800000	1.0
11	0x3f800000	1.0
12	0x3f800000	1.0
13	0x3f800000	1.0
14	0x3f800000	1.0
15	0x3f800000	1.0
16	0x3f800000	1.0
17	0x3f800000	1.0
18	0x3f800000	1.0
19	0x3f800000	1.0
20	0x3f800000	1.0
21	0x3f800000	1.0
22	0x3f800000	1.0
23	0x3f800000	1.0
24	0x3f800000	1.0
25	0x3f800000	1.0
26	0x3f800000	1.0
27	0x3f800000	1.0
28	0x3f800000	1.0
29	0x3f800000	1.0
30	0x3f800000	1.0
31	0x3f800000	1.0
32	0x3f800000	1.0
33	0x3f800000	1.0
34	0x3f800000	1.0
35	0x3f800000	1.0
36	0x3f800000	1.0
37	0x3f800000	1.0
38	0x3f800000	1.0
39	0x3f800000	1.0
40	0x3f800000	1.0
41	0x3f800000	1.0
42	0x3f800000	1.0
43	0x3f800000	1.0
44	0x3f800000	1.0
45	0x3f800000	1.0
46	0x3f800000	1.0
47	0x3f800000	1.0
48	0x3f800000	1.0
49	0x3f800000	1.0
50	0x3f800000	1.0
51	0x3f800000	1.0
52	0x3f800000	1.0
53	0x3f800000	1.0
54	0x3f800000	1.0
55	0x3f800000	1.0
56	0x3f800000	1.0
57	0x3f800000	1.0
58	0x3f800000	1.0
59	0x3f800000	1.0
60	0x3f800000	1.0
61	0x3f800000	1.0
62	0x3f800000	1.0
63	0x3f800000	1.0

norm1.bias f4 [64]
0	0x00000000	0.0
1	0x00000000	0.0
2	0x00000000	0.0
3	0x00000000	0.0
4	0x00000000	0.0
5	0x00000000	0.0
6	0x00000000	0.0
7	0x00000000	0.0
8	0x00000000	0.0
9	0x00000000	0.0
10	0x00000000	0.0
11	0x00000000	0.0
12	0x00000000	0.0
13	0x00000000	0.0
14	0x00000000	0.0
15	0x00000000	0.0
16	0x00000000	0.0
17	0x00000000	0.0
18	0x00000000	0.0
19	0x00000000	0.0
20	0x00000000	0.0
21	0x00000000	0.0
22	0x00000000	0.0
23	0x00000000	0.0
24	0x00000000	0.0
25	0x00000000	0.0
26	0x00000000	0.0
27	0x00000000	0.0
28	0x00000000	0.0
29	0x00000000	0.0
30	0x00000000	0.0
31	0x00000000	0.0
32	0x00000000	0.0
33	0x00000000	0.0
34	0x00000000	0.0
35	0x00000000	0.0
36	0x00000000	0.0
37	0x00000000	0.0
38	0x00000000	0.0
39	0x00000000	0.0
40	0x00000000	0.0
41	0x00000000	0.0
42	0x00000000	0.0
43	0x00000000	0.0
44	0x00000000	0.0
45	0x00000000	0.0
46	0x00000000	0.0
47	0x00000000	0.0
48	0x00000000	0.0
49	0x00000000	0.0
50	0x00000000	0.0
51	0x00000000	0.0
52	0x00000000	0.0
53	0x00000000	0.0
54	0x00000000	0.0
55	0x00000000	0.0
56	0x00000000	0.0
57	0x00000000	0.0
58	0x00000000	0.0
59	0x00000000	0.0
60	0x00000000	0.0
61	0x00000000	0.0
62	0x00000000	0.0
63	0x00000000	0.0

norm1.running_mean f4 [64]
0	0x00000000	0.0
1	0x00000000	0.0
2	0x00000000	0.0
3	0x00000000	0.0
4	0x00000000	0.0
5	0x00000000	0.0
6	0x00000000	0.0
7	0x00000000	0.0
8	0x00000000	0.0
9	0x00000000	0.0
10	0x00000000	0.0
11	0x00000000	0.0
12	0x00000000	0.0
13	0x00000000	0.0
14	0x00000000	0.0
15	0x00000000	0.0
16	0x00000000	0.0
17	0x00000000	0.0
18	0x00000000	0.0
19	0x00000000	0.0
20	0x00000000	0.0
21	0x00000000	0.0
22	0x00000000	0.0
23	0x00000000	0.0
24	0x00000000	0.0
25	0x00000000	0.0
26	0x00000000	0.0
27	0x00000000	0.0
28	0x00000000	0.0
29	0x00000000	0.0
30	0x00000000	0.0
31	0x00000000	0.0
32	0x00000000	0.0
33	0x00000000	0.0
34	0x00000000	0.0
35	0x00000000	0.0
36	0x00000000	0.0
37	0x00000000	0.0
38	0x00000000	0.0
39	0x00000000	0.0
40	0x00000000	0.0
41	0x00000000	0.0
42	0x00000000	0.0
43	0x00000000	0.0
44	0x00000000	0.0
45	0x00000000	0.0
46	0x00000000	0.0
47	0x00000000	0.0
48	0x00000000	0.0
49	0x00000000	0.0
50	0x00000000	0.0
51	0x00000000	0.0
52	0x00000000	0.0
53	0x00000000	0.0
54	0x00000000	0.0
55	0x00000000	0.0
56	0x00000000	0.0
57	0x00000000	0.0
58	0x00000000	0.0
59	0x00000000	0.0
60	0x00000000	0.0
61	0x00000000	0.0
62	0x00000000	0.0
63	0x00000000	0.0

norm1.running_var f4 [64]
0	0x3f800000	1.0
1	0x3f800000	1.0
2	0x3f800000	1.0
3	0x3f800000	1.0
4	0x3f800000	1.0
5	0x3f800000	1.0
6	0x3f800000	1.0
7	0x3f800000	1.0
8	0x3f800000	1.0
9	0x3f800000	1.0
10	0x3f800000	1.0
11	0x3f800000	1.0
12	0x3f800000	1.0
13	0x3f800000	1.0
14	0x3f800000	1.0
15	0x3f800000	1.0
16	0x3f800000	1.0
17	0x3f800000	1.0
18	0x3f800000	1.0
19	0x3f800000	1.0
20	0x3f800000	1.0
21	0x3f800000	1.0
22	0x3f800000	1.0
23	0x3f800000	1.0
24	0x3f800000	1.0
25	0x3f800000	1.0
26	0x3f800000	1.0
27	0x3f800000	1.0
28	0x3f800000	1.0
29	0x3f800000	1.0
30	0x3f800000	1.0
31	0x3f800000	1.0
32	0x3f800000	1.0
33	0x3f800000	1.0
34	0x3f800000	1.0
35	0x3f800000	1.0
36	0x3f800000	1.0
37	0x3f800000	1.0
38	0x3f800000	1.0
39	0x3f800000	1.0
40	0x3f800000	1.0
41	0x3f800000	1.0
42	0x3f800000	1.0
43	0x3f800000	1.0
44	0x3f800000	1.0
45	0x3f800000	1.0
46	0x3f800000	1.0
47	0x3f800000	1.0
48	0x3f800000	1.0
49	0x3f800000	1.0
50	0x3f800000	1.0
51	0x3f800000	1.0
52	0x3f800000	1.0
53	0x3f800000	1.0
54	0x3f800000	1.0
55	0x3f800000	1.0
56	0x3f800000	1.0
57	0x3f800000	1.0
58	0x3f800000	1.0
59	0x3f800000	1.0
60	0x3f800000	1.0
61	0x3f800000	1.0
62	0x3f800000	1.0
63	0x3f800000	1.0

conv_layer2.weight f4 [64, 64, 3, 3]
0	0xbc9ae3be	-0.018907424
1	0x39d5cc80	0.0004077889
2	0x3d21cd05	0.039502162
3	0x3d11746d	0.035511423
4	0xbc845df0	-0.016158074
5	0x3d099849	0.033592496
6	0x3c8200e2	0.015869562
7	0x3b4e4a90	0.0031477548
8	0xbc1fe82c	-0.009759944
9	0x3c839bb2	0.016065452
10	0x3d098d2d	0.0335819
11	0x3c96bd58	0.018400833
12	0xbb412750	-0.0029472895
13	0x3c7985e0	0.015229672
14	0xbd0c10bc	-0.034195647
15	0xbcec62fe	-0.028855797
16	0xbcbe9150	-0.02326265
17	0x3ccfd0de	0.02536815
18	0x3ca82950	0.020527512
19	0x3ccfb8ce	0.025356676
20	0x3c53e604	0.012933258
21	0xbc81575b	-0.015788725
22	0xbc2dcc00	-0.010607719
23	0x3cf64b3a	0.030065168
24	0x3c9a130a	0.018807907
25	0x3ce98972	0.028507922
26	0xbc84c0e6	-0.016205262
27	0x3c4efa0c	0.012632858
28	0x3c99c0c0	0.018768668
29	0x3aa851e0	0.0012841783
30	0xbd06e9c2	-0.032937773
31	0x3c6fd910	0.014639154
32	0x3cd14b22	0.025548521
33	0x3afdbb00	0.0019358099
34	0x3cb91782	0.022594217
35	0x3c2bf840	0.010496199
36	0xbcd997ab	-0.026561579
37	0xbc6233a6	-0.013806259
38	0x3bee1898	0.0072661154
39	0x3d0e0e4d	0.034681607
40	0xbcf8fc88	-0.030393854
41	0xbcf8ecce	-0.030386355
42	0x3d201f21	0.039092187
43	0x3d1c7d6d	0.038205553
44	0xbd21ef87	-0.03953507
45	0x3bfbab08	0.0076803006
46	0xbc8abc68	-0.016935542
47	0x3c2c59dc	0.010519471
48	0x3d26051d	0.04053222
49	0x3ad5b300	0.0016303957
50	0x3cb44a52	0.022008095
51	0xbaa0cfa0	-0.0012268908
52	0x3d244cd5	0.040112335
53	0x3b7f2980	0.0038934648
54	0x3b37ceb0	0.002804678
55	0x3d25767d	0.040396202
56	0x3c7d39b4	0.015455652
57	0x3ce376fa	0.027766693
58	0x3b9f7b68	0.004867006
59	0x3cac1b16	0.02100901
60	0x3c932360	0.017961204
61	0xbbfc8a40	-0.0077069104
62	0xbcdbeff6	-0.02684782
63	0x3b25f240	0.0025321394
64	0x3b183940	0.0023227483
65	0xbb38e0f0	-0.0028210245
66	0x3c0f46a4	0.008744869
67	0x3cdedf32	0.027206037
68	0x3c620b0c	0.013796579
69	0x3cca2d22	0.024679724
70	0x3c55a0d0	0.013038829
71	0x3c6de7f0	0.01452063
72	0xbd0ed13e	-0.034867518
73	0x3b2a9170	0.002602663
74	0xbd2618b8	-0.040550917
75	0x3cac489a	0.021030713
76	0x3cbfc85e	0.023410972
77	0x3d0a58dd	0.033776153
78	0xbcc3a3ae	-0.02388176
79	0xbc7c1af0	-0.015387282
80	0x3aa2ce80	0.0012421161
81	0x399d9c80	0.00030061975
82	0x3b9dbfe8	0.004814137
83	0x3d12b2eb	0.03581516
84	0x3d05c54f	0.03265887
85	0xbd085934	-0.033288196
86	0xbd06beac	-0.032896683
87	0x3c1d2e90	0.009593621
88	0x3d01f4ed	0.03172772
89	0xbce4ba10	-0.027920753
90	0xbcca3e50	-0.024687916
91	0xbcac1883	-0.021007782
92	0x3d14486d	0.036201883
93	0xbce4dc03	-0.027936941
94	0x3d230a9b	0.039805036
95	0x3d22b57d	0.039723862
96	0x3c6b0d30	0.014346406
97	0xbc1e7fd0	-0.009674028
98	0xbd1f912a	-0.0389568
99	0x3ba7f9a8	0.005126197
100	0x3d14bb71	0.03631157
101	0x3d12dbdd	0.03585421
102	0xbbba6fa8	-0.00568958
103	0x3b6127f0	0.003435608
104	0x3c1c34a4	0.009534035
105	0xbcc9ea18	-0.024647757
106	0xbca31460	-0.019907176
107	0xbd19f744	-0.037589327
108	0xbcb9891b	-0.022648385
109	0xbcb9d5f3	-0.022685027
110	0x3cb2e672	0.0218384
111	0xbbf745f8	-0.0075461827
112	0xba78e2c0	-0.00094942376
113	0xbd159d42	-0.036526926
114	0xbd103022	-0.035202153
115	0xbc0636dc	-0.00819179
116	0xbd1207a7	-0.03565183
117	0xbd27863b	-0.040899497
118	0xbb8164a8	-0.0039487667
119	0x3cf89642	0.030345086
120	0xbca6ef4b	-0.020377776
121	0x3bcc1cb8	0.0062290095
122	0x3c5e63f4	0.013573635
123	0x3cb313a2	0.021859948
124	0xbc367a10	-0.0111375
125	0x3cc2ffa2	0.023803536
126	0x3c704050	0.014663771
127	0xbca4cf76	-0.020118456
128	0x3b884a80	0.0041592717
129	0xbca12053	-0.019668734
130	0xbc8e6fe8	-0.017387345
131	0xbca3a6b3	-0.01997695
132	0x3b295e10	0.002584342
133	0xbd05dc37	-0.032680716
134	0x3d12200d	0.035675097
135	0xbab7e060	-0.0014028661
136	0x3c560c94	0.013064522
137	0x3b5f9650	0.0034116693
138	0x3cfd46ba	0.030917514
139	0xbd138083	-0.03601123
140	0x3d1c34cb	0.038136285
141	0xbc48bf86	-0.012252694
142	0x3cd3e266	0.025864791
143	0x3cef6702	0.029223923
144	0x3c057320	0.008145124
145	0x3bf51878	0.0074797235
146	0x3d0b1589	0.033956084
147	0x3d25439b	0.040347677
148	0xb9c3d380	-0.00037350878
149	0xbcaf2d0e	-0.021383788
150	0x3d0ab889	0.033867393
151	0x3be69ac8	0.0070374943
152	0xbb311dc0	-0.002702579
153	0xbc2febe0	-0.010737389
154	0x3d110dad	0.035413433
155	0xbcd361c6	-0.025803458
156	0x3d0d0e5b	0.03443752
157	0x3c8c2bb8	0.01711069
158	0x3cb1e3ca	0.021715064
159	0xbc82f7e0	-0.015987337
160	0x3d1d0999	0.03833923
161	0xbd14b9f6	-0.03631016
162	0xbd086182	-0.033296116
163	0x3ca99ece	0.020705607
164	0x3ccefa86	0.025265943
165	0x3c88cc62	0.01669902
166	0x3d116dc7	0.035505082
167	0x3ccf7c3e	0.025327798
168	0xbcee10be	-0.029060718
169	0xbc3a35d0	-0.011365369
170	0x3ce044ca	0.027376551
171	0x3c970da0	0.018439114
172	0xbc1d4f9c	-0.0096015
173	0x3c9c4a5e	0.01907843
174	0xbc09fc24	-0.008421931
175	0xbd0480b8	-0.03234932
176	0xbb8046e8	-0.0039147027
177	0x3c973376	0.018457156
178	0xbc5ca836	-0.013467839
179	0x3c3157bc	0.01082414
180	0xbbb3ada0	-0.005483344
181	0x3d05d59d	0.03267442
182	0x3b95e6e8	0.0045746453
183	0x3b640230	0.0034791343
184	0xbb6c7970	-0.0036083125
185	0x3c72cb2c	0.014818948
186	0xbd0a5376	-0.033771
187	0xbc47c040	-0.012191832
188	0xbbef9548	-0.007311497
189	0xbbb0f668	-0.0054004677
190	0x3bc8f5a0	0.0061327964
191	0xbc896013	-0.016769445
192	0xbc640aa0	-0.013918549
193	0x3c652104	0.013984922
194	0xbc73600c	-0.014854442
195	0x3a92bee0	0.0011195801
196	0x3c6aed30	0.0143387765
197	0xbd22e88a	-0.039772548
198	0x3d0bc17d	0.03412007
199	0x3c9f13a2	0.019418541
200	0xbd29830a	-0.041384734
201	0xbcc6075e	-0.024173435
202	0x3cf37e7a	0.029723395
203	0xbc7f67fc	-0.015588757
204	0xbb710fd0	-0.0036783107
205	0x3d142403	0.036167156
206	0xbbdfece8	-0.0068336613
207	0x3be64d18	0.0070282333
208	0x3cd85582	0.02640796
209	0x3d145ef9	0.036223385
210	0xbcddf763	-0.027095502
211	0x3c222ebc	0.009898838
212	0xbc418d50	-0.011813477
213	0x3d28c407	0.04120257
214	0xbc93d436	-0.018045526
215	0x3a3bb8c0	0.0007161014
216	0x3c868c90	0.016424447
217	0xbcc0bc90	-0.023527414
218	0x3cb7d21a	0.022439051
219	0x3bdbe778	0.006710943
220	0xbd0a80d2	-0.03381426
221	0x3d0d7979	0.034539673
222	0x3ce4212e	0.027847853
223	0x3abe6480	0.0014525801
224	0x3a3d63c0	0.0007224642
225	0xbc71327c	-0.014721509
226	0xbc17fe80	-0.009276986
227	0xbd1fa73a	-0.03897784
228	0xbce81063	-0.028328126
229	0xbc96b6a8	-0.018397644
230	0xbd294960	-0.04132974
231	0x3c4abf90	0.012374774
232	0xbb697030	-0.0035619847
233	0x3c4477dc	0.011991467
234	0xbb30b4b0	-0.0026963167
235	0xbd19118b	-0.037370246
236	0xbcfb88ae	-0.030704822
237	0xbc647d0c	-0.013945829
238	0x3ccc43ba	0.024934638
239	0xbc9902e3	-0.018678134
240	0xbccf0c36	-0.025274377
241	0x3b8c9b08	0.004290942
242	0x3d1070ad	0.035263706
243	0x3d020f4d	0.031752873
244	0xbc2e8ab0	-0.010653183
245	0xbc366936	-0.011133483
246	0x3d16493b	0.03669093
247	0xbba89dc0	-0.0051457584
248	0x3bdb9a00	0.006701708
249	0x3cd8325a	0.026391197
250	0x3b85cd18	0.004083287
251	0x3c7285cc	0.0148024075
252	0x3bd8e3f8	0.006618973
253	0x3c4a5f00	0.012351751
254	0x3aa1ec60	0.001235377
255	0xbcc53cd3	-0.024076855

conv_layer2.bias f4 [64]
0	0xbceb3de0	-0.028716028
1	0xbcdda258	-0.02705495
2	0x3c5e6fd0	0.013576463
3	0x3c1a9cbc	0.009436782
4	0xbb9fbad8	-0.0048745684
5	0xbc50616c	-0.01271854
6	0xbd00d56f	-0.031453546
7	0xbc6b251c	-0.014352109
8	0x3ccc794a	0.024960179
9	0xbd19b3ba	-0.037524916
10	0xbbf43d20	-0.0074535757
11	0x3cd36e2e	0.025809374
12	0x3c872ef6	0.016501885
13	0x3bf6b120	0.007528439
14	0xbc7178c0	-0.014738262
15	0xbc3e033c	-0.011597451
16	0x3d018181	0.031617645
17	0x3c9c01d8	0.019043848
18	0x3cc80bea	0.024419744
19	0xbd29710f	-0.041367587
20	0xbccdb80e	-0.025112178
21	0x3b309ac0	0.0026947707
22	0xba82f7e0	-0.0009992085
23	0x3af84460	0.0018941276
24	0x3c71cb84	0.014757995
25	0x3d231ec5	0.039824266
26	0xbc921570	-0.017832488
27	0xbc411600	-0.01178503
28	0x3b841728	0.0040310808
29	0xbd0d82ba	-0.0345485
30	0x3b11e010	0.0022258796
31	0xbcba4840	-0.02273953
32	0xbd15b1f2	-0.036546655
33	0x3bed7400	0.0072464943
34	0xbccfb703	-0.025355821
35	0xbd176657	-0.036962833
36	0xbd1c132a	-0.038104214
37	0x3b80a338	0.003925707
38	0xbce5f858	-0.028072521
39	0x3cbf59f2	0.023358319
40	0xbca489bb	-0.020085206
41	0x3d086af9	0.033305142
42	0x3cec2b96	0.028829377
43	0xbcba6b20	-0.02275616
44	0x3d25e763	0.04050387
45	0x3cc18202	0.023621563
46	0xbd0f9a60	-0.035059333
47	0x3c8df400	0.017328262
48	0x3c3b073c	0.011415299
49	0x3d0132b9	0.031542514
50	0xbbc48348	-0.0059970953
51	0xbca0c196	-0.019623559
52	0x3cfc9dfa	0.030837048
53	0xbd116e17	-0.03550538
54	0x3c8e2432	0.017351244
55	0xbcc8f0e6	-0.024528932
56	0xbc44b036	-0.012004903
57	0x3d05a195	0.0326248
58	0x3d15c1d9	0.03656182
59	0x3d083181	0.033250336
60	0xbd1ddcaa	-0.03854052
61	0xbc688a2c	-0.014193099
62	0x3c8fa7c8	0.017536059
63	0x3d00ddc9	0.03146151

norm2.weight f4 [64]
0	0x3f800000	1.0
1	0x3f800000	1.0
2	0x3f800000	1.0
3	0x3f800000	1.0
4	0x3f800000	1.0
5	0x3f800000	1.0
6	0x3f800000	1.0
7	0x3f800000	1.0
8	0x3f800000	1.0
9	0x3f800000	1.0
10	0x3f800000	1.0
11	0x3f800000	1.0
12	0x3f800000	1.0
13	0x3f800000	1.0
14	0x3f800000	1.0
15	0x3f800000	1.0
16	0x3f800000	1.0
17	0x3f800000	1.0
18	0x3f800000	1.0
19	0x3f800000	1.0
20	0x3f800000	1.0
21	0x3f800000	1.0
22	0x3f800000	1.0
23	0x3f800000	1.0
24	0x3f800000	1.0
25	0x3f800000	1.0
26	0x3f800000	1.0
27	0x3f800000	1.0
28	0x3f800000	1.0
29	0x3f800000	1.0
30	0x3f800000	1.0
31	0x3f800000	1.0
32	0x3f800000	1.0
33	0x3f800000	1.0
34	0x3f800000	1.0
35	0x3f800000	1.0
36	0x3f800000	1.0
37	0x3f800000	1.0
38	0x3f800000	1.0
39	0x3f800000	1.0
40	0x3f800000	1.0
41	0x3f800000	1.0
42	0x3f800000	1.0
43	0x3f800000	1.0
44	0x3f800000	1.0
45	0x3f800000	1.0
46	0x3f800000	1.0
47	0x3f800000	1.0
48	0x3f800000	1.0
49	0x3f800000	1.0
50	0x3f800000	1.0
51	0x3f800000	1.0
52	0x3f800000	1.0
53	0x3f800000	1.0
54	0x3f800000	1.0
55	0x3f800000	1.0
56	0x3f800000	1.0
57	0x3f800000	1.0
58	0x3f800000	1.0
59	0x3f800000	1.0
60	0x3f800000	1.0
61	0x3f800000	1.0
62	0x3f800000	1.0
63	0x3f800000	1.0

norm2.bias f4 [64]
0	0x00000000	0.0
1	0x00000000	0.0
2	0x00000000	0.0
3	0x00000000	0.0
4	0x00000000	0.0
5	0x00000000	0.0
6	0x00000000	0.0
7	0x00000000	0.0
8	0x00000000	0.0
9	0x00000000	0.0
10	0x00000000	0.0
11	0x00000000	0.0
12	0x00000000	0.0
13	0x00000000	0.0
14	0x00000000	0.0
15	0x00000000	0.0
16	0x00000000	0.0
17	0x00000000	0.0
18	0x00000000	0.0
19	0x00000000	0.0
20	0x00000000	0.0
21	0x00000000	0.0
22	0x00000000	0.0
23	0x00000000	0.0
24	0x00000000	0.0
25	0x00000000	0.0
26	0x00000000	0.0
27	0x00000000	0.0
28	0x00000000	0.0
29	0x00000000	0.0
30	0x00000000	0.0
31	0x00000000	0.0
32	0x00000000	0.0
33	0x00000000	0.0
34	0x00000000	0.0
35	0x00000000	0.0
36	0x00000000	0.0
37	0x00000000	0.0
38	0x00000000	0.0
39	0x00000000	0.0
40	0x00000000	0.0
41	0x00000000	0.0
42	0x00000000	0.0
43	0x00000000	0.0
44	0x00000000	0.0
45	0x00000000	0.0
46	0x00000000	0.0
47	0x00000000	0.0
48	0x00000000	0.0
49	0x00000000	0.0
50	0x00000000	0.0
51	0x00000000	0.0
52	0x00000000	0.0
53	0x00000000	0.0
54	0x00000000	0.0
55	0x00000000	0.0
56	0x00000000	0.0
57	0x00000000	0.0
58	0x00000000	0.0
59	0x00000000	0.0
60	0x00000000	0.0
61	0x00000000	0.0
62	0x00000000	0.0
63	0x00000000	0.0

norm2.running_mean f4 [64]
0	0x00000000	0.0
1	0x00000000	0.0
2	0x00000000	0.0
3	0x00000000	0.0
4	0x00000000	0.0
5	0x00000000	0.0
6	0x00000000	0.0
7	0x00000000	0.0
8	0x00000000	0.0
9	0x00000000	0.0
10	0x00000000	0.0
11	0x00000000	0.0
12	0x00000000	0.0
13	0x00000000	0.0
14	0x00000000	0.0
15	0x00000000	0.0
16	0x00000000	0.0
17	0x00000000	0.0
18	0x00000000	0.0
19	0x00000000	0.0
20	0x00000000	0.0
21	0x00000000	0.0
22	0x00000000	0.0
23	0x00000000	0.0
24	0x00000000	0.0
25	0x00000000	0.0
26	0x00000000	0.0
27	0x00000000	0.0
28	0x00000000	0.0
29	0x00000000	0.0
30	0x00000000	0.0
31	0x00000000	0.0
32	0x00000000	0.0
33	0x00000000	0.0
34	0x00000000	0.0
35	0x00000000	0.0
36	0x00000000	0.0
37	0x00000000	0.0
38	0x00000000	0.0
39	0x00000000	0.0
40	0x00000000	0.0
41	0x00000000	0.0
42	0x00000000	0.0
43	0x00000000	0.0
44	0x00000000	0.0
45	0x00000000	0.0
46	0x00000000	0.0
47	0x00000000	0.0
48	0x00000000	0.0
49	0x00000000	0.0
50	0x00000000	0.0
51	0x00000000	0.0
52	0x00000000	0.0
53	0x00000000	0.0
54	0x00000000	0.0
55	0x00000000	0.0
56	0x00000000	0.0
57	0x00000000	0.0
58	0x00000000	0.0
59	0x00000000	0.0
60	0x00000000	0.0
61	0x00000000	0.0
62	0x00000000	0.0
63	0x00000000	0.0

norm2.running_var f4 [64]
0	0x3f800000	1.0
1	0x3f800000	1.0
2	0x3f800000	1.0
3	0x3f800000	1.0
4	0x3f800000	1.0
5	0x3f800000	1.0
6	0x3f800000	1.0
7	0x3f800000	1.0
8	0x3f800000	1.0
9	0x3f800000	1.0
10	0x3f800000	1.0
11	0x3f800000	1.0
12	0x3f800000	1.0
13	0x3f800000	1.0
14	0x3f800000	1.0
15	0x3f800000	1.0
16	0x3f800000	1.0
17	0x3f800000	1.0
18	0x3f800000	1.0
19	0x3f800000	1.0
20	0x3f800000	1.0
21	0x3f800000	1.0
22	0x3f800000	1.0
23	0x3f800000	1.0
24	0x3f800000	1.0
25	0x3f800000	1.0
26	0x3f800000	1.0
27	0x3f800000	1.0
28	0x3f800000	1.0
29	0x3f800000	1.0
30	0x3f800000	1.0
31	0x3f800000	1.0
32	0x3f800000	1.0
33	0x3f800000	1.0
34	0x3f800000	1.0
35	0x3f800000	1.0
36	0x3f800000	1.0
37	0x3f800000	1.0
38	0x3f800000	1.0
39	0x3f800000	1.0
40	0x3f800000	1.0
41	0x3f800000	1.0
42	0x3f800000	1.0
43	0x3f800000	1.0
44	0x3f800000	1.0
45	0x3f800000	1.0
46	0x3f800000	1.0
47	0x3f800000	1.0
48	0x3f800000	1.0
49	0x3f800000	1.0
50	0x3f800000	1.0
51	0x3f800000	1.0
52	0x3f800000	1.0
53	0x3f800000	1.0
54	0x3f800000	1.0
55	0x3f800000	1.0
56	0x3f800000	1.0
57	0x3f800000	1.0
58	0x3f800000	1.0
59	0x3f800000	1.0
60	0x3f800000	1.0
61	0x3f800000	1.0
62	0x3f800000	1.0
63	0x3f800000	1.0

conv_layer3.weight f4 [64, 64, 3, 3]
0	0x3caa455e	0.02078503
1	0xbc39a6c6	-0.011331266
2	0xbcbcef0b	-0.023063203
3	0xbbd7c900	-0.0065852404
4	0x3d1ef20b	0.03880505
5	0x3c1fbe94	0.009750027
6	0x3ceea88a	0.0291331
7	0x3cf6fb26	0.030149054
8	0x3b589f00	0.0033053756
9	0x3cf94756	0.030429523
10	0x3ccdfc16	0.025144618
11	0x3cbe5856	0.023235481
12	0xbbc56518	-0.006024014
13	0xbd0f7e67	-0.035032656
14	0xbb1b26f0	-0.0023674332
15	0x3a006a00	0.0004898608
16	0xbd1159ef	-0.035486158
17	0xbc2ee6f0	-0.010675177
18	0xbc5f369c	-0.01362386
19	0xbc4dd08c	-0.0125619285
20	0x3d1c38df	0.038140174
21	0x3c99f052	0.018791351
22	0x3cfdec32	0.030996416
23	0xbbc01ce0	-0.005862817
24	0x3be89ba0	0.00709863
25	0x3c95b0fa	0.018272866
26	0x3a9e85a0	0.0012094267
27	0xbca299be	-0.0198487
28	0x3afa7160	0.0019107275
29	0x3cdc9db6	0.026930671
30	0x3d166731	0.036719505
31	0xbd10d61a	-0.035360433
32	0xbd11ff50	-0.035643876
33	0x3ba9b860	0.00517945
34	0x3c0b99fc	0.008520599
35	0xbcdd3718	-0.02700381
36	0xbcf39a43	-0.029736644
37	0xbd00dc1b	-0.03145991
38	0x3c5797b0	0.013158724
39	0xbc744706	-0.014909511
40	0x3d28c5f9	0.041204426
41	0xbaadf480	-0.0013271719
42	0x3ba29800	0.0049619675
43	0x3d0d1fd9	0.0344542
44	0x3c64ee40	0.013972819
45	0x3cc0e82e	0.023548212
46	0x3a5f5dc0	0.0008520745
47	0x3d0998b9	0.033592913
48	0x3d14d081	0.036331657
49	0xbcf94833	-0.030429935
50	0x3ca80368	0.020509437
51	0xba96eea0	-0.0011515208
52	0x3c174a50	0.009234026
53	0x3d2455a1	0.040120725
54	0x3c13a344	0.0090110935
55	0xbc52a24c	-0.012856077
56	0xbcfb7e76	-0.03069995
57	0xbd1aa4b4	-0.03775473
58	0x3c56db7c	0.013113853
59	0x3d2500a1	0.040283803
60	0x3ccbc7c6	0.024875533
61	0x3c857e9a	0.01629572
62	0xbb70c400	-0.003673792
63	0xbb219900	-0.0024657845
64	0x3d1f681d	0.03891765
65	0xbad69760	-0.0016372018
66	0x3d051b4f	0.032496747
67	0x3c6c99d0	0.014440969
68	0xbcecdb5e	-0.028913196
69	0xbd0d6030	-0.03451556
70	0x3bf52468	0.0074811466
71	0x3bf07268	0.007337857
72	0x3d1e1025	0.038589615
73	0xbd1fdf3b	-0.03903125
74	0xbd12d4ba	-0.035847403
75	0x3d16ee35	0.036848266
76	0x3a00d540	0.0004914589
77	0xbd2552ce	-0.04036217
78	0x3c0557e4	0.008138631
79	0xbc16d814	-0.0092067905
80	0x3c5bda40	0.013418734
81	0x3c7f6e4c	0.015590262
82	0xbd23330f	-0.039843615
83	0xbc9960b3	-0.018722868
84	0xbc8e346b	-0.01735898
85	0xbbf25728	-0.0073956437
86	0xbcd82cd6	-0.026388567
87	0xbc921086	-0.017830145
88	0x3d231f1d	0.039824594
89	0x3ccb5e86	0.024825346
90	0x3d208e45	0.03919818
91	0xbc222324	-0.0098960735
92	0xbc14f280	-0.00909102
93	0x3c9d2358	0.019181892
94	0x3b9eb198	0.004842948
95	0x3bd8ffe0	0.0066222996
96	0xbbe1f5a0	-0.006895736
97	0xbc5a8130	-0.013336465
98	0xbd16110f	-0.036637362
99	0xbd1b954e	-0.037984185
100	0xbc93f3bb	-0.018060556
101	0xbd13e8f4	-0.036110833
102	0x3d25a513	0.04044063
103	0x3ca5c630	0.020236105
104	0xbc05f9dc	-0.008177247
105	0xbc077a70	-0.0082689375
106	0xbae93980	-0.0017793626
107	0x3cbf1f02	0.023330215
108	0xbce6566b	-0.02811738
109	0xbbb9d4f8	-0.00567114
110	0x3bbd5c80	0.005778849
111	0xbcb1c9e6	-0.021702718
112	0xbd10c782	-0.035346515
113	0x3d21b75b	0.039481502
114	0xbc31978c	-0.010839354
115	0x3cf9c002	0.030487064
116	0x3d27b029	0.040939484
117	0xbd19c567	-0.037541773
118	0x3d2595f1	0.0404262
119	0xbbb7b020	-0.0056057125
120	0xbbeb87c0	-0.0071878135
121	0x3ceb6846	0.028736245
122	0x3ca389c2	0.019963149
123	0xbc9c03b8	-0.019044742
124	0x3d23372f	0.03984755
125	0xbbea5da8	-0.007152278
126	0xbc33c81c	-0.010973003
127	0x3b55d430	0.0032627694
128	0x3cad49c2	0.021153335
129	0x3c21f384	0.009884719
130	0xbb39b1b0	-0.002833467
131	0xbc9a9488	-0.018869653
132	0xbcd311a3	-0.025765246
133	0x3d215c89	0.03939489
134	0x3b4b81f0	0.003105279
135	0x3cf59746	0.02997936
136	0xbd0f6e97	-0.035017576
137	0xbd0b488e	-0.03400474
138	0xbc85af38	-0.016318902
139	0x3d1729c7	0.036905076
140	0x3c9bc1ee	0.019013371
141	0xbca2ce50	-0.019873768
142	0x3c650e30	0.013980433
143	0x3ae81820	0.0017707385
144	0x3c10e88c	0.008844506
145	0x3d086ceb	0.033306997
146	0x3cd12642	0.025530938
147	0xbceb9123	-0.02875573
148	0x3d13c829	0.03607956
149	0x3c8c4afa	0.017125595
150	0xbc65a7dc	-0.014017072
151	0xbc41a27c	-0.011818524
152	0x3d0b4cdd	0.03400885
153	0x3c592b40	0.0132549405
154	0xbc711d4c	-0.014716458
155	0xbcbdf358	-0.023187324
156	0x3d0808a3	0.03321136
157	0xbc9d0c06	-0.019170772
158	0x3b3a3450	0.0028412528
159	0xbc0a6154	-0.008446056
160	0x3ca67412	0.020319019
161	0xbc8d9bb6	-0.017286163
162	0x3c3a23fc	0.011361118
163	0xbac99300	-0.0015378892
164	0x3c912a88	0.017720476
165	0x3c8b106e	0.016975608
166	0xbcd4f12b	-0.025993904
167	0x3c4cd19c	0.012501147
168	0xbcdfeaee	-0.027333703
169	0xbc83f46b	-0.016107759
170	0x3bf51708	0.007479552
171	0x3d1b9f15	0.03799351
172	0xbd1c545c	-0.03816639
173	0xbd126c40	-0.035747766
174	0xbcb80cdb	-0.022467067
175	0x3cc0cc1a	0.023534823
176	0xbd0166a7	-0.031592038
177	0xbcc70533	-0.024294471
178	0xbca668c0	-0.02031362
179	0x3d06e23d	0.0329306
180	0xbd1a8ab7	-0.037729945
181	0x3d1d8ba1	0.03846324
182	0xbc091634	-0.00836711
183	0xbbb32700	-0.0054672956
184	0x3b6a75f0	0.0035775863
185	0xbcf076f8	-0.029353604
186	0xbc581ec0	-0.013190925
187	0x3d0dec41	0.034649137
188	0xbcab631b	-0.02092128
189	0x3cd3ed6e	0.025870051
190	0x3cf7f8a2	0.030269925
191	0x3ca44986	0.02005459
192	0x3c7c972c	0.015416902
193	0x3d174073	0.036926698
194	0xbc78af30	-0.015178487
195	0xbc810ceb	-0.01575323
196	0x3d169c69	0.036770258
197	0x3cd7423a	0.026276696
198	0xbd080b90	-0.03321415
199	0xbcb02ccb	-0.021505734
200	0xbd09d556	-0.03365072
201	0xbd0e1fb8	-0.034698218
202	0xbca2473e	-0.019809362
203	0xbc9f6c2e	-0.019460764
204	0xbc0cdbdc	-0.00859734
205	0xbc264b24	-0.010149751
206	0xbcd4f1bb	-0.025994172
207	0x3c70d1fc	0.014698502
208	0xbce56240	-0.02800095
209	0x3c49dbd0	0.012320474
210	0x3c668674	0.014070142
211	0xbc576c06	-0.013148313
212	0x3c94c3b8	0.018159732
213	0xbc2c0916	-0.010500213
214	0x3ca04dc8	0.019568339
215	0xbcbc4733	-0.02298317
216	0x3bc0b188	0.0058805384
217	0xbd23ef02	-0.040022857
218	0x3a9ca4e0	0.0011950992
219	0xbd1f12fe	-0.03883647
220	0xbc24243c	-0.010018405
221	0xbd176c2b	-0.03696839
222	0xbcd48a68	-0.025944903
223	0x3d14b093	0.036301207
224	0xbd29f126	-0.041489743
225	0xbc59ff80	-0.013305545
226	0x3d0ac025	0.03387465
227	0x3cfe7f7e	0.031066652
228	0x3d21aa73	0.039469194
229	0xbc890c08	-0.01672937
230	0xbcc1afb6	-0.023643356
231	0xbcdc1346	-0.026864659
232	0x3cd7ae42	0.02632821
233	0xbcc670f8	-0.02422379
234	0x3c841a82	0.016125921
235	0xbc980fbe	-0.018562194
236	0x3c087874	0.0083294995
237	0xbd1f4013	-0.038879465
238	0x3d17a009	0.037017856
239	0x3d006fe1	0.031356696
240	0x3c10de94	0.008842129
241	0x3c95adca	0.018271346
242	0x3cc898be	0.024486896
243	0xbd1df697	-0.038565245
244	0x3c0a8ee4	0.008456919
245	0xbcfa35ab	-0.030543169
246	0xbc3bd59c	-0.011464503
247	0xbc541dbc	-0.012946542
248	0x3ca0bace	0.019620325
249	0xbc80c5e3	-0.01571936
250	0xbd156ee7	-0.036482718
251	0xbbeed678	-0.0072887503
252	0xbcf68fbe	-0.030097838
253	0x3c509594	0.012730975
254	0xbcda1afb	-0.026624193
255	0xbd19ea3e	-0.037576906

conv_layer3.bias f4 [64]
0	0xbca1a36e	-0.01973125
1	0x3c6937f0	0.014234528
2	0xbcacb333	-0.021081543
3	0xbba22228	-0.0049479194
4	0xba710d00	-0.00091953576
5	0xbcac7263	-0.021050638
6	0xbc88129b	-0.016610434
7	0x3cc14f22	0.023597304
8	0xbd03f450	-0.032215416
9	0x3c8fe616	0.017565768
10	0xbca9f623	-0.02074725
11	0xbd096e27	-0.033552315
12	0xbcf23388	-0.029565588
13	0xbcc8064b	-0.024417063
14	0xbceb4cb3	-0.028723096
15	0xbd1867f3	-0.03720851
16	0x3d278871	0.040901605
17	0xbcf90be3	-0.030401176
18	0xbc4d0c8c	-0.012515198
19	0x3c8f60c8	0.017502204
20	0xbbc25600	-0.005930662
21	0x3d1407e5	0.03614034
22	0x3b732290	0.0037099458
23	0x3d240fc5	0.0400541
24	0x3c646660	0.013940424
25	0x3d2a6def	0.041608747
26	0x3addeea0	0.0016932078
27	0x3c4c7994	0.012480158
28	0x3b7a2270	0.00381675
29	0x3d25d851	0.0404895
30	0x3b022c00	0.0019862652
31	0xbbeb1d28	-0.0071751066
32	0x3bb0e898	0.005398821
33	0x3c92366e	0.01784822
34	0x3bdf8d88	0.0068222918
35	0xbcb945c3	-0.022616273
36	0x3bd989c0	0.0066387355
37	0xbca99b30	-0.020703882
38	0xba1e1b00	-0.0006031245
39	0x3c39c270	0.011337861
40	0x3c89e456	0.016832512
41	0xbc3be35c	-0.011467781
42	0x3cb641ba	0.022248138
43	0xbcf715c6	-0.03016175
44	0xbd0d71b3	-0.03453226
45	0x3d11c713	0.035590243
46	0xbd0dce0f	-0.03462034
47	0xbd0d2862	-0.03446234
48	0xbc2425c4	-0.01001877
49	0x3d12425d	0.03570782
50	0x3ca71686	0.020396482
51	0x3d0ba209	0.034090076
52	0xba815fa0	-0.0009870417
53	0xbbe46ba0	-0.0069708377
54	0x3ce64162	0.028107349
55	0x3c57c164	0.0131686665
56	0xbcf91253	-0.030404245
57	0xbca6cb5b	-0.02036064
58	0xbd1594ce	-0.036518864
59	0x3cb7e9c6	0.022450339
60	0x3cecec76	0.028921347
61	0xbd2729e7	-0.040811446
62	0xbc8c67fe	-0.017139431
63	0x3ce669a2	0.028126542

norm3.weight f4 [64]
0	0x3f800000	1.0
1	0x3f800000	1.0
2	0x3f800000	1.0
3	0x3f800000	1.0
4	0x3f800000	1.0
5	0x3f800000	1.0
6	0x3f800000	1.0
7	0x3f800000	1.0
8	0x3f800000	1.0
9	0x3f800000	1.0
10	0x3f800000	1.0
11	0x3f800000	1.0
12	0x3f800000	1.0
13	0x3f800000	1.0
14	0x3f800000	1.0
15	0x3f800000	1.0
16	0x3f800000	1.0
17	0x3f800000	1.0
18	0x3f800000	1.0
19	0x3f800000	1.0
20	0x3f800000	1.0
21	0x3f800000	1.0
22	0x3f800000	1.0
23	0x3f800000	1.0
24	0x3f800000	1.0
25	0x3f800000	1.0
26	0x3f800000	1.0
27	0x3f800000	1.0
28	0x3f800000	1.0
29	0x3f800000	1.0
30	0x3f800000	1.0
31	0x3f800000	1.0
32	0x3f800000	1.0
33	0x3f800000	1.0
34	0x3f800000	1.0
35	0x3f800000	1.0
36	0x3f800000	1.0
37	0x3f800000	1.0
38	0x3f800000	1.0
39	0x3f800000	1.0
40	0x3f800000	1.0
41	0x3f800000	1.0
42	0x3f800000	1.0
43	0x3f800000	1.0
44	0x3f800000	1.0
45	0x3f800000	1.0
46	0x3f800000	1.0
47	0x3f800000	1.0
48	0x3f800000	1.0
49	0x3f800000	1.0
50	0x3f800000	1.0
51	0x3f800000	1.0
52	0x3f800000	1.0
53	0x3f800000	1.0
54	0x3f800000	1.0
55	0x3f800000	1.0
56	0x3f800000	1.0
57	0x3f800000	1.0
58	0x3f800000	1.0
59	0x3f800000	1.0
60	0x3f800000	1.0
61	0x3f800000	1.0
62	0x3f800000	1.0
63	0x3f800000	1.0

norm3.bias f4 [64]
0	0x00000000	0.0
1	0x00000000	0.0
2	0x00000000	0.0
3	0x00000000	0.0
4	0x00000000	0.0
5	0x00000000	0.0
6	0x00000000	0.0
7	0x00000000	0.0
8	0x00000000	0.0
9	0x00000000	0.0
10	0x00000000	0.0
11	0x00000000	0.0
12	0x00000000	0.0
13	0x00000000	0.0
14	0x00000000	0.0
15	0x00000000	0.0
16	0x00000000	0.0
17	0x00000000	0.0
18	0x00000000	0.0
19	0x00000000	0.0
20	0x00000000	0.0
21	0x00000000	0.0
22	0x00000000	0.0
23	0x00000000	0.0
24	0x00000000	0.0
25	0x00000000	0.0
26	0x00000000	0.0
27	0x00000000	0.0
28	0x00000000	0.0
29	0x00000000	0.0
30	0x00000000	0.0
31	0x00000000	0.0
32	0x00000000	0.0
33	0x00000000	0.0
34	0x00000000	0.0
35	0x00000000	0.0
36	0x00000000	0.0
37	0x00000000	0.0
38	0x00000000	0.0
39	0x00000000	0.0
40	0x00000000	0.0
41	0x00000000	0.0
42	0x00000000	0.0
43	0x00000000	0.0
44	0x00000000	0.0
45	0x00000000	0.0
46	0x00000000	0.0
47	0x00000000	0.0
48	0x00000000	0.0
49	0x00000000	0.0
50	0x00000000	0.0
51	0x00000000	0.0
52	0x00000000	0.0
53	0x00000000	0.0
54	0x00000000	0.0
55	0x00000000	0.0
56	0x00000000	0.0
57	0x00000000	0.0
58	0x00000000	0.0
59	0x00000000	0.0
60	0x00000000	0.0
61	0x00000000	0.0
62	0x00000000	0.0
63	0x00000000	0.0

norm3.running_mean f4 [64]
0	0x00000000	0.0
1	0x00000000	0.0
2	0x00000000	0.0
3	0x00000000	0.0
4	0x00000000	0.0
5	0x00000000	0.0
6	0x00000000	0.0
7	0x00000000	0.0
8	0x00000000	0.0
9	0x00000000	0.0
10	0x00000000	0.0
11	0x00000000	0.0
12	0x00000000	0.0
13	0x00000000	0.0
14	0x00000000	0.0
15	0x00000000	0.0
16	0x00000000	0.0
17	0x00000000	0.0
18	0x00000000	0.0
19	0x00000000	0.0
20	0x00000000	0.0
21	0x00000000	0.0
22	0x00000000	0.0
23	0x00000000	0.0
24	0x00000000	0.0
25	0x00000000	0.0
26	0x00000000	0.0
27	0x00000000	0.0
28	0x00000000	0.0
29	0x00000000	0.0
30	0x00000000	0.0
31	0x00000000	0.0
32	0x00000000	0.0
33	0x00000000	0.0
34	0x00000000	0.0
35	0x00000000	0.0
36	0x00000000	0.0
37	0x00000000	0.0
38	0x00000000	0.0
39	0x00000000	0.0
40	0x00000000	0.0
41	0x00000000	0.0
42	0x00000000	0.0
43	0x00000000	0.0
44	0x00000000	0.0
45	0x00000000	0.0
46	0x00000000	0.0
47	0x00000000	0.0
48	0x00000000	0.0
49	0x00000000	0.0
50	0x00000000	0.0
51	0x00000000	0.0
52	0x00000000	0.0
53	0x00000000	0.0
54	0x00000000	0.0
55	0x00000000	0.0
56	0x00000000	0.0
57	0x00000000	0.0
58	0x00000000	0.0
59	0x00000000	0.0
60	0x00000000	0.0
61	0x00000000	0.0
62	0x00000000	0.0
63	0x00000000	0.0

norm3.running_var f4 [64]
0	0x3f800000	1.0
1	0x3f800000	1.0
2	0x3f800000	1.0
3	0x3f800000	1.0
4	0x3f800000	1.0
5	0x3f800000	1.0
6	0x3f800000	1.0
7	0x3f800000	1.0
8	0x3f800000	1.0
9	0x3f800000	1.0
10	0x3f800000	1.0
11	0x3f800000	1.0
12	0x3f800000	1.0
13	0x3f800000	1.0
14	0x3f800000	1.0
15	0x3f800000	1.0
16	0x3f800000	1.0
17	0x3f800000	1.0
18	0x3f800000	1.0
19	0x3f800000	1.0
20	0x3f800000	1.0
21	0x3f800000	1.0
22	0x3f800000	1.0
23	0x3f800000	1.0
24	0x3f800000	1.0
25	0x3f800000	1.0
26	0x3f800000	1.0
27	0x3f800000	1.0
28	0x3f800000	1.0
29	0x3f800000	1.0
30	0x3f800000	1.0
31	0x3f800000	1.0
32	0x3f800000	1.0
33	0x3f800000	1.0
34	0x3f800000	1.0
35	0x3f800000	1.0
36	0x3f800000	1.0
37	0x3f800000	1.0
38	0x3f800000	1.0
39	0x3f800000	1.0
40	0x3f800000	1.0
41	0x3f800000	1.0
42	0x3f800000	1.0
43	0x3f800000	1.0
44	0x3f800000	1.0
45	0x3f800000	1.0
46	0x3f800000	1.0
47	0x3f800000	1.0
48	0x3f800000	1.0
49	0x3f800000	1.0
50	0x3f800000	1.0
51	0x3f800000	1.0
52	0x3f800000	1.0
53	0x3f800000	1.0
54	0x3f800000	1.0
55	0x3f800000	1.0
56	0x3f800000	1.0
57	0x3f800000	1.0
58	0x3f800000	1.0
59	0x3f800000	1.0
60	0x3f800000	1.0
61	0x3f800000	1.0
62	0x3f800000	1.0
63	0x3f800000	1.0

last_conv.weight f4 [9, 64, 1, 1]
0	0x3c21bd90	0.009871855
1	0x3dec40b2	0.11535777
2	0x3d5e0d5c	0.05421196
3	0x3d4fdaec	0.05074589
4	0x3d864de6	0.06557827
5	0x3da54dd6	0.08071487
6	0xbdb94c48	-0.090477526
7	0xbd742edc	-0.059615
8	0xbc8b9ab8	-0.01704155
9	0xbdff3dcc	-0.12462959
10	0xbd6ff0ac	-0.058579132
11	0x3d671d74	0.056424573
12	0xbd4ef4f8	-0.05052659
13	0x3dc3a9b2	0.09553851
14	0x3cc2ab88	0.023763433
15	0x3dda650e	0.10663806
16	0x3d48cb14	0.049021795
17	0xbd845ef0	-0.064634204
18	0xbde1cba4	-0.110251695
19	0x3c2c55d0	0.010518506
20	0xbdff05ac	-0.12452254
21	0x3d7f0d48	0.062268525
22	0x3dae1502	0.08500101
23	0x3dc76eda	0.0973794
24	0xbd8148fe	-0.0631275
25	0x3de917d8	0.11381501
26	0xbda942d2	-0.08264698
27	0x3dba516a	0.0909756
28	0xbd35be24	-0.044370785
29	0xbdbf5a7a	-0.09343429
30	0x3de9b04c	0.11410579
31	0xbdcfd2ac	-0.10147604
32	0xbdd740da	-0.10510416
33	0xbc11f030	-0.008907363
34	0x3def2410	0.116768
35	0x3d96b0f2	0.073579684
36	0xbdd2a6a2	-0.10285689
37	0xbd938f74	-0.07205096
38	0x3cfd6630	0.030932516
39	0xbdfbb090	-0.12289536
40	0x3d81cc86	0.06337838
41	0xbcc427e0	-0.023944795
42	0x3dfd4c24	0.12368038
43	0x3daeaa54	0.08528581
44	0x3ba37400	0.0049881935
45	0x3abfbe80	0.0014628917
46	0x3c870f00	0.016486645
47	0x3d9eeba6	0.0775979
48	0x3cc7d1d8	0.024392053
49	0xbd44744c	-0.04796247
50	0x3d76193c	0.06008266
51	0x3c64c650	0.013963297
52	0xbd6f4f38	-0.05842516
53	0xbccc4d68	-0.024939254
54	0x3d587b10	0.052851737
55	0x3d344e98	0.044020265
56	0xbcfc3f00	-0.03079176
57	0x3dd9486c	0.106095165
58	0x3da74908	0.081682265
59	0x3da141da	0.07873888
60	0xbd16a994	-0.036782816
61	0x3dcf4e9c	0.101224154
62	0xbd5b9cd0	-0.053616345
63	0xbd2ade1c	-0.041715726
64	0xbd5b7ac8	-0.05358389
65	0xbd186f10	-0.037215292
66	0x3d9150b8	0.07095474
67	0x3d8ee9a8	0.0697816
68	0xbcc6cd70	-0.024267882
69	0xbd2c3ef8	-0.04205224
70	0x3d2a9a24	0.041650906
71	0x3dabea8e	0.08394347
72	0xbc626a60	-0.013819307
73	0xbd12a160	-0.03579843
74	0xbac05000	-0.0014672279
75	0x3d825e12	0.06365599
76	0xbd47859c	-0.048711404
77	0xbd7ea304	-0.062167183
78	0x3d4a2ad4	0.04935725
79	0x3db19234	0.08670464
80	0x3d81daa8	0.063405335
81	0xbd528f90	-0.051406443
82	0xbdf11e4c	-0.11773357
83	0xbdf9cea4	-0.12197617
84	0xbceb5488	-0.028726831
85	0xbd618268	-0.055056006
86	0x3cce4420	0.025178969
87	0x3c6a96b0	0.014318153
88	0xbb5d5580	-0.0033772886
89	0xbcacd340	-0.021096826
90	0xbc14f400	-0.009091377
91	0xbd7559b8	-0.059900016
92	0x3b365980	0.0027824342
93	0xbd94d47c	-0.07267091
94	0x3c7cda20	0.015432864
95	0x3dfce8a8	0.12349063
96	0xbc08d4b0	-0.00835149
97	0xbb703ec0	-0.0036658496
98	0x3d5ba45c	0.053623542
99	0x3d7705c8	0.060308248
100	0xbc1934c0	-0.0093509555
101	0xbdad057c	-0.08448312
102	0xbda5e88a	-0.08100994
103	0x3c0bd040	0.008533537
104	0xbdafee5c	-0.08590385
105	0x3c7331c0	0.014843404
106	0xbde15f46	-0.110045
107	0x3d827496	0.06369893
108	0xbdb50a18	-0.08839816
109	0x3db1e08e	0.086854085
110	0xbdf25c04	-0.11833957
111	0x3db82420	0.08991265
112	0x3ca6f610	0.020381004
113	0x3d81903e	0.0632634
114	0xbd73b5ac	-0.059499428
115	0xbdeb2148	-0.11480957
116	0x3d57da84	0.052698627
117	0xbdc2de90	-0.09515107
118	0xbc7cb960	-0.015425056
119	0xbdedf95e	-0.11619829
120	0xbdf81920	-0.12114167
121	0xbdc105ca	-0.09424932
122	0xbdf61cce	-0.12017213
123	0x3db9eb1a	0.09078045
124	0x3d0fff80	0.035155773
125	0xbc479060	-0.012180418
126	0xbdec236e	-0.11530195
127	0xbc92d540	-0.017923951
128	0xbceddd40	-0.029036164
129	0xbccb5560	-0.024820983
130	0x3d08e464	0.033420935
131	0xbd458b90	-0.0482288
132	0x3deb4ce6	0.114892766
133	0xbc97abd8	-0.018514559
134	0xbdb793e2	-0.08963753
135	0xbd39fcc4	-0.04540707
136	0x3c9bb1e0	0.019005716
137	0x3d9d1086	0.07669167
138	0xbccdeeb8	-0.025138244
139	0x3d905200	0.0704689
140	0xbd63e01c	-0.05563365
141	0x3dc50e38	0.09621853
142	0xbd262ed8	-0.040572017
143	0xbd26de08	-0.04073909
144	0xbc83f310	-0.016107112
145	0x3d8c7f5e	0.06860231
146	0x3dffce90	0.124905705
147	0x3d595730	0.053061664
148	0x3c30f800	0.010801315
149	0xbc6caaa0	-0.014444977
150	0xbd8ddb88	-0.06926638
151	0xbd1508ec	-0.03638546
152	0xbd1573b4	-0.036487296
153	0x3d57d0c0	0.052689314
154	0xbd9333c4	-0.07187608
155	0x3de0c23a	0.10974546
156	0xbd3dde80	-0.04635477
157	0xbc7554a0	-0.014973789
158	0x3d4dfee8	0.050291926
159	0x3d6b6518	0.057469457
160	0xbdd4d6c0	-0.10392523
161	0x3def4f2a	0.11685021
162	0xbc8c1d18	-0.017103717
163	0x3d21f3c0	0.0395391
164	0x3d86980c	0.065719694
165	0xbc872540	-0.016497254
166	0x3c15b9e0	0.009138554
167	0x3ce55770	0.027995795
168	0x3cd28bb8	0.025701389
169	0xbddd5694	-0.10807529
170	0xbda92698	-0.08259314
171	0x3d51f3d8	0.05125794
172	0x3da7349c	0.08164331
173	0xbdd5ce3e	-0.10439728
174	0x3d8fbc3a	0.07018323
175	0xbbaba020	-0.0052375942
176	0xbb68d640	-0.0035528094
177	0xbd400894	-0.04688318
178	0x3ba01240	0.004884988
179	0x3bf590e0	0.007494077
180	0xbd9ee434	-0.0775837
181	0xbc4ae4f0	-0.0123836845
182	0xbddb3f38	-0.107054174
183	0x3a950b00	0.0011371076
184	0x3bdf87e0	0.0068216175
185	0x3b32ac40	0.0027263314
186	0xbc60f740	-0.013730824
187	0xbd44d234	-0.048052028
188	0xbde74ee6	-0.112943456
189	0xbdf6be4c	-0.12048015
190	0x3cf5b698	0.029994294
191	0x3db327a4	0.08747795
192	0x3d87fce8	0.06640035
193	0xbca618e0	-0.020275533
194	0x3cac6ab0	0.021046966
195	0xbdb7aef8	-0.089689195
196	0xbc5d1e60	-0.0134960115
197	0x3df235fe	0.118267044
198	0x3d50b1cc	0.05095081
199	0xbdfcb4aa	-0.123391464
200	0x3dd3189c	0.10307428
201	0xbd98b3e8	-0.074561894
202	0xbde90dde	-0.11379598
203	0xbd9ef04e	-0.07760678
204	0x3da42f46	0.08016829
205	0xbc9cd0d8	-0.019142553
206	0x3d180a48	0.03711918
207	0x3df84b98	0.12123793
208	0x3dd92e2a	0.10604508
209	0x3c0a0200	0.008423328
210	0xbcf090c8	-0.029365912
211	0x3dba7eb8	0.09106201
212	0x3d287f74	0.041137174
213	0xbdf6a432	-0.120430365
214	0x3dd11f72	0.10211076
215	0xbddc6fb6	-0.10763495
216	0x3d131ea0	0.03591788
217	0xbdc7c984	-0.09755233
218	0x3da0807a	0.07837005
219	0xbd71d29c	-0.059038743
220	0xbda5b492	-0.08091082
221	0xbcb12238	-0.021622762
222	0xbd635668	-0.055502325
223	0x3cd1f198	0.025627896
224	0xbdf11eb2	-0.11773433
225	0x3d09fdd0	0.03368932
226	0x3dc7641c	0.09735891
227	0x3af41980	0.0018623322
228	0x3d9d9072	0.076935664
229	0xbdbfc22e	-0.09363209
230	0xbd2212d8	-0.039568752
231	0x3d8739a4	0.06602791
232	0x3df77d42	0.12084438
233	0x3d236120	0.039887547
234	0xbd26bb74	-0.040706113
235	0x3df95876	0.12175076
236	0xbc97a858	-0.01851289
237	0xbd34422c	-0.04400842
238	0x3c4f2d50	0.012645081
239	0x3c520310	0.012818113
240	0x3dfda648	0.12385231
241	0x3d64b844	0.055839792
242	0xbdc6cf10	-0.09707463
243	0xbca52340	-0.02015841
244	0x3d9fd334	0.07803956
245	0x3dddf770	0.108382106
246	0xbde3d360	-0.11124301
247	0xbd241808	-0.04006198
248	0xbcc79218	-0.024361655
249	0x3dc28aec	0.094991535
250	0x3d8e2022	0.069397226
251	0xbdcbf896	-0.099595234
252	0x3ccd7370	0.025079459
253	0xbd2029ac	-0.03910224
254	0xbc4b7be0	-0.012419671
255	0xbd9b7e1e	-0.07592414

last_conv.bias f4 [9]
0	0x3d8884f4	0.06665984
1	0x3dc0445c	0.093880385
2	0x3cf5fc80	0.030027628
3	0x3d9bae32	0.076015845
4	0xbdd9c1a0	-0.10632634
5	0x3d5aa334	0.0533783
6	0xbcda8420	-0.02667433
7	0x3d8d68e4	0.06904772
8	0x3dc9b428	0.09848815
