sudoku_dnn.pth (torch, 494114 bytes, 28 tensors)

conv_layer1.weight f4 [81, 1, 3, 3]
0	0xb8d0d288	-9.9574274e-05
1	0x39ce65de	0.0003936728
2	0x3a3d4ec3	0.0007221514
3	0xbadc42ea	-0.001680461
4	0xb9fe2c8c	-0.00048479845
5	0x3b6b303d	0.0035886907
6	0xbb0cc8fe	-0.0021482105
7	0x3df3326c	0.118748516
8	0x3a9dc9e8	0.0012038322
9	0xb99d35e5	-0.00029985528
10	0x3a14166a	0.0005649092
11	0xb9d3bae1	-0.00040384292
12	0xba03cd83	-0.0005027877
13	0xbe08e2d3	-0.13367777
14	0x3a792a24	0.00095048756
15	0xb95531ac	-0.00020331767
16	0x3aba460c	0.001421155
17	0x39b65265	0.00034775134
18	0xba968d60	-0.0011486225
19	0xba80a052	-0.0009813404
20	0x39494426	0.00019194241
21	0xb995495e	-0.00028474157
22	0x3dc2a12a	0.09503396
23	0xb9cfa4ce	-0.00039604906
24	0xba142972	-0.0005651928
25	0xba8f2adf	-0.0010922811
26	0x39ceb74a	0.00039427943
27	0x398d291d	0.00026924248
28	0xbadbcbee	-0.001676915
29	0xb95a819a	-0.0002083838
30	0xba702bac	-0.0009161781
31	0x39f08d51	0.00045881656
32	0x3a6b51a3	0.00089767034
33	0x3da8ee47	0.08248573
34	0xbb058728	-0.002037475
35	0xba86be94	-0.0010280185
36	0xb81bfe00	-3.7191436e-05
37	0xb8071150	-3.220263e-05
38	0x3d5e9643	0.05434252
39	0x3b4454f4	0.0029957863
40	0x3bc0e227	0.0058863345
41	0x3bbb9797	0.005724858
42	0x3b0f446c	0.002186085
43	0x3ad5fe4d	0.0016326398
44	0x3b051b7c	0.0020310571
45	0xb975eb00	-0.00023452565
46	0x369c4eb8	4.6583264e-06
47	0xb93d8d5b	-0.00018077104
48	0xb9300049	-0.00016784774
49	0xb851d39a	-5.0026552e-05
50	0x3927eb40	0.00016013999
51	0x3b3b0680	0.002853781
52	0x3942c973	0.00018576327
53	0x39a99d62	0.0003235145
54	0x38bf2ea1	9.116275e-05
55	0xb9b14cd0	-0.000338173
56	0xb8c895c4	-9.564639e-05
57	0xb8ed59a9	-0.00011317741
58	0x39790892	0.00023749683
59	0x38f66e3e	0.00011750728
60	0xb8196f7c	-3.658187e-05
61	0x388a9b7a	6.6093125e-05
62	0x393c695a	0.00017968324
63	0xb93867bc	-0.00017586251
64	0x38cf897f	9.89614e-05
65	0xb85642ed	-5.1083905e-05
66	0xb8401af5	-4.5801473e-05
67	0x389ced69	7.482881e-05
68	0x394e5dcc	0.00019680633
69	0x39b48bdd	0.00034436482
70	0xb789149a	-1.6341266e-05
71	0x3a8aed20	0.0010599233
72	0xbadc704a	-0.0016818133
73	0xba30225f	-0.0006718989
74	0xbb000839	-0.001953615
75	0x3987384c	0.0002579115
76	0x3a782883	0.0009466486
77	0xb87848ac	-5.919549e-05
78	0xbab77876	-0.0013997692
79	0xbdf14642	-0.11780979
80	0x396e1166	0.0002270393
81	0xb7ba3797	-2.2198814e-05
82	0xb727499c	-9.971114e-06
83	0x3787342b	1.6117547e-05
84	0x37e4bc11	2.7267293e-05
85	0xb7a5d987	-1.9770827e-05
86	0x384d6808	4.8972695e-05
87	0x3847cc6d	4.7635684e-05
88	0x3a74a2fb	0.00093321473
89	0xb8b80904	-8.775483e-05
90	0x3b047ced	0.0020216063
91	0x3b2b657f	0.0026153026
92	0x3b0b3c72	0.0021245745
93	0x3b4724d2	0.0030386937
94	0xbd21e5ec	-0.03952591
95	0x3b131ba6	0.00224469
96	0x3b2be9ce	0.0026231888
97	0x3b80a26c	0.003925612
98	0x3b22ade1	0.0024822878
99	0xb86da0fe	-5.665514e-05
100	0x38009dd8	3.066458e-05
101	0x38f14376	0.00011504341
102	0x38a5c289	7.904048e-05
103	0x3885be74	6.377409e-05
104	0x39e2faed	0.00043293033
105	0x38658697	5.47232e-05
106	0x38033663	3.1283485e-05
107	0x3800ab22	3.0676958e-05
108	0x3a6a24cb	0.0008931874
109	0x38c2d562	9.2903865e-05
110	0x39df4330	0.00042583933
111	0xb921e9a7	-0.00015441199
112	0x39e2b0c3	0.00043237777
113	0x39770e94	0.00023561186
114	0x3a59286c	0.00082839164
115	0xb90df57f	-0.00013538262
116	0x3ab742b2	0.0013981669
117	0xb9489a35	-0.00019130933
118	0x392dad20	0.0001656306
119	0x39ab8d42	0.00032720907
120	0x39398b3f	0.00017694848
121	0x389e1e8d	7.5397176e-05
122	0xb89f09a2	-7.583505e-05
123	0xb7cef6f3	-2.4672108e-05
124	0x39a65094	0.00031722023
125	0xb8f1c7fb	-0.00011529025
126	0x3ae878da	0.0017736212
127	0xb9e2ad28	-0.0004323509
128	0x3ab64aff	0.0013907849
129	0x398216a3	0.00024812398
130	0x3d9737b7	0.07383674
131	0x3b4c8a17	0.0031210238
132	0x3a4263b5	0.000741537
133	0x3aabaaa9	0.0013097125
134	0x39b30d17	0.00034151293
135	0x39dadb2b	0.00041743493
136	0x3b7a2443	0.0038168586
137	0xba06067f	-0.00051126623
138	0x39b72f1a	0.00034939573
139	0xba949af7	-0.0011337687
140	0xba90e1b7	-0.0011053596
141	0x3d17ea19	0.037088487
142	0xbacdc7ba	-0.0015699782
143	0xbb33a9f0	-0.0027414523
144	0x3b5a8de1	0.0033348727
145	0x3ab3f9ff	0.0013731121
146	0x3b4dcaa5	0.0031401303
147	0x3ba906e6	0.005158293
148	0x3af917af	0.0019004251
149	0xb9f676d3	-0.00047009307
150	0x3a92062c	0.0011140755
151	0x3ac6ed8f	0.0015176999
152	0x3b732287	0.0037099437
153	0xbab82e5a	-0.00140519
154	0xb9a4e99c	-0.0003145457
155	0x37e80928	2.7660819e-05
156	0xbab0d956	-0.0013492506
157	0xb9c7d769	-0.0003811673
158	0xbaad7d8b	-0.0013236267
159	0x3a6cc8e8	0.0009032623
160	0x39e07398	0.00042810733
161	0xbb2abc1f	-0.002605207
162	0x3d94a7fd	0.07258604
163	0xba7a3022	-0.00095439155
164	0x3bbf5720	0.0058392435
165	0xbaaa41da	-0.0012989596
166	0x3b1ccf05	0.0023927104
167	0x3ab871c1	0.0014071987
168	0x3aafcc26	0.0013412281
169	0x3b6cadaf	0.0036114266
170	0xbb25a738	-0.0025276672
171	0x3c061af2	0.008185135
172	0xbb70447d	-0.0036661916
173	0x3c047076	0.008083453
174	0x393c5b6e	0.00017963137
175	0x3b4d1f49	0.0031299165
176	0x3b1a0210	0.0023499765
177	0x3a27b70b	0.000639782
178	0x3a16eccc	0.00057573314
179	0x3bc75e94	0.0060842726
180	0xb99f76a8	-0.0003041525
181	0xbaa19b16	-0.0012329544
182	0xb9c870d6	-0.00038231042
183	0x3a17af34	0.00057863
184	0xba87b0a3	-0.0010352324
185	0xba085a1f	-0.00052014174
186	0x3aa0f336	0.0012279514
187	0x3da5e97e	0.08101176
188	0xba03bc76	-0.0005025336
189	0x3a98d758	0.0011660857
190	0x3b3247be	0.0027203406
191	0x39c508f7	0.00037581447
192	0xbbf81b7b	-0.0075716353
193	0xbbb27d41	-0.0054470603
194	0x39d6c8aa	0.00040966767
195	0xbba9fecf	-0.0051878463
196	0x3a4b608c	0.0007758222
197	0x3b22119d	0.0024729737
198	0xb74ba8af	-1.2139018e-05
199	0xb55c744f	-8.212564e-07
200	0x3794f491	1.775686e-05
201	0xb760c299	-1.3396749e-05
202	0x37a18d8d	1.925861e-05
203	0xb6854ab2	-3.9724046e-06
204	0xb8b08d32	-8.418634e-05
205	0x339feaa5	7.446696e-08
206	0xb783f70e	-1.573146e-05
207	0x3a3ede55	0.0007281055
208	0x3a0be1cb	0.0005336075
209	0x3a6032f9	0.00085525174
210	0x393a5617	0.00017770413
211	0x38f7ceff	0.00011816434
212	0x3acb2a56	0.0015500288
213	0x39f64243	0.00046970145
214	0x39c0c470	0.0003676745
215	0x3a11c595	0.0005560753
216	0xbb81d5ff	-0.003962278
217	0xbb703c3d	-0.0036656999
218	0xb8fa0cac	-0.00011923289
219	0xb7b7eeff	-2.1926591e-05
220	0xbb4e3369	-0.0031463748
221	0xba4875cc	-0.00076469476
222	0xbaf0b806	-0.001836539
223	0xbae058b5	-0.001711628
224	0xb6bcddae	-5.6286435e-06
225	0xbb32757a	-0.0027230666
226	0x3b9dc186	0.0048143296
227	0x3aae6427	0.0013304994
228	0x3ac1b9b0	0.0014780071
229	0x3c9b3d85	0.018950233
230	0x3a585789	0.000825279
231	0x3c3ef44b	0.011654924
232	0x3c632bb2	0.013865398
233	0x3c3b6673	0.011438
234	0xb9f06940	-0.00045854785
235	0xba00478f	-0.00048934756
236	0x3a8a20e5	0.0010538368
237	0x3ab7521e	0.0013986265
238	0x3a4622a5	0.0007558263
239	0x3d226c8d	0.039654303
240	0xb911d6be	-0.00013908275
241	0xba8a3cba	-0.0010546662
242	0x3b2c8af4	0.002632794
243	0xba438292	-0.0007458116
244	0x3acf2706	0.0015804477
245	0x3ab1238e	0.0013514624
246	0x3a1ff6b8	0.00061021326
247	0xb9a680e4	-0.00031758018
248	0x3b16c938	0.002300812
249	0x39a59fbc	0.00031590264
250	0xbcb9c45c	-0.02267664
251	0xba4507b5	-0.0007516102
252	0xb96112d1	-0.00021464682
253	0xb8f3795a	-0.000116097464
254	0x39a04541	0.00030569176
255	0x399de16c	0.00030113326

conv_layer1.bias f4 [81]
0	0xb55491a4	-7.918809e-07
1	0xb7075065	-8.065345e-06
2	0xb6a95c5a	-5.0473436e-06
3	0xb56e5124	-8.8779984e-07
4	0x34343065	1.6781412e-07
5	0xa7941ae3	-4.1107403e-15
6	0x256b993a	2.0434916e-16
7	0x23939db2	1.6004558e-17
8	0x35d5bdfb	1.5925028e-06
9	0x9d565778	-2.8367884e-21
10	0xb5088d85	-5.0869886e-07
11	0x18711ce8	3.1163114e-24
12	0xa4ad2434	-7.508812e-17
13	0x26877efe	9.401928e-16
14	0x358f80dd	1.0691834e-06
15	0x349158d3	2.7072983e-07
16	0xab8d3a00	-1.0034751e-12
17	0x29b44ccc	8.006928e-14
18	0xb574257e	-9.095164e-07
19	0x3185d6c2	3.8952246e-09
20	0x3441a8db	1.8035955e-07
21	0x33db4f3b	1.0212394e-07
22	0x1d58ed7c	2.8710139e-21
23	0x27a5eb92	4.6052106e-15
24	0xab989c4d	-1.0843632e-12
25	0x3306ae36	3.135775e-08
26	0xb4490eed	-1.8725014e-07
27	0x34a532fa	3.0770735e-07
28	0xb63e0436	-2.8314657e-06
29	0x22d4f28f	5.7719534e-18
30	0xb489f5ce	-2.5697085e-07
31	0xb3e78327	-1.0780632e-07
32	0x25999ef5	2.6648983e-16
33	0xb4109aac	-1.3467314e-07
34	0xb45aaf56	-2.0366619e-07
35	0x35c79ec2	1.487286e-06
36	0xb3af9b66	-8.177339e-08
37	0xb35321c1	-4.9157965e-08
38	0x318c4f2c	4.083537e-09
39	0x99cf228a	-2.1417249e-23
40	0xb20d4c82	-8.224676e-09
41	0x352568d4	6.1619835e-07
42	0x26f2f0d1	1.6857397e-15
43	0xa9ba2336	-8.2661674e-14
44	0xb0d85eb6	-1.5742987e-09
45	0x346697d3	2.1475653e-07
46	0x265b28d1	7.6036205e-16
47	0x33a018af	7.4550705e-08
48	0xb5ad09e8	-1.2892388e-06
49	0x355146ee	7.7961784e-07
50	0x23bb33b6	2.0296481e-17
51	0xb6363f7b	-2.7157064e-06
52	0xb2136751	-8.580018e-09
53	0x375ac470	1.3039549e-05
54	0x2f7814f5	2.2562914e-10
55	0x2ab571cd	3.2231024e-13
56	0x2f4f5893	1.8858008e-10
57	0xa03674f7	-1.54547e-19
58	0x34c33890	3.6362735e-07
59	0xa7003aba	-1.7795404e-15
60	0x22a1e5dc	4.388251e-18
61	0x26415592	6.7076296e-16
62	0xa39880ae	-1.6534371e-17
63	0x2520d019	1.3948294e-16
64	0x365b9417	3.2719743e-06
65	0x34e44d44	4.2524528e-07
66	0x1fa1eac7	6.857456e-20
67	0xa4937aa8	-6.3958876e-17
68	0xa51cfc18	-1.3616256e-16
69	0x1e83a870	1.3939829e-20
70	0xb1c72634	-5.7960055e-09
71	0xb3fffd07	-1.1920388e-07
72	0x35e0b7c6	1.6742786e-06
73	0x32144e1d	8.632495e-09
74	0xb53bfd11	-7.003119e-07
75	0x2909ce51	3.0599062e-14
76	0xa713e1b7	-2.0522708e-15
77	0x2284af3c	3.596421e-18
78	0x2a464d9b	1.7612858e-13
79	0xb554609c	-7.911674e-07
80	0xb6625226	-3.372444e-06

prelu1.weight f4 [81]
0	0xbdfa1736	-0.122114584
1	0xbe01e6bf	-0.12685679
2	0xbd8bbf70	-0.06823623
3	0xbd7d330c	-0.06181626
4	0xbcccbb8e	-0.024991777
5	0xb64030b8	-2.8638588e-06
6	0x34b43007	3.3562557e-07
7	0x32ee97ca	2.7775872e-08
8	0xbdce1dc3	-0.1006427
9	0xb17631e5	-3.5826073e-09
10	0xbd2017a6	-0.039085053
11	0xaec71f5b	-9.055042e-11
12	0x358dc78b	1.0563393e-06
13	0xb5eb5603	-1.7533897e-06
14	0xbde1dfb0	-0.11028993
15	0xbc015ca0	-0.007895619
16	0x38ad84ce	8.27402e-05
17	0x35983b41	1.1342128e-06
18	0xbd165d7a	-0.03671024
19	0xba04a85f	-0.00050604896
20	0xbce2473d	-0.02762186
21	0xb9f6c037	-0.00047063988
22	0x3018a2ce	5.552864e-10
23	0xb5b67233	-1.3593293e-06
24	0x383624be	4.34264e-05
25	0xbc0fcf42	-0.008777441
26	0xbc1e147e	-0.00964844
27	0xbc3e78b3	-0.011625457
28	0xbe508059	-0.20361461
29	0xb54d6fdf	-7.6531245e-07
30	0xbd54c2a3	-0.051943433
31	0xbbfd278c	-0.0077256616
32	0x3611a7e4	2.170441e-06
33	0xbccef3fc	-0.025262825
34	0xbe1cef18	-0.15325582
35	0xbe701f52	-0.23449448
36	0xbadf9d44	-0.0017060419
37	0xbb665022	-0.0035142978
38	0x3914c3e0	0.00014187349
39	0x2d9cadce	1.7812331e-11
40	0xb957b72d	-0.00020572236
41	0xbe50786d	-0.20358439
42	0xb5f957fe	-1.8577555e-06
43	0xb6c4bec0	-5.8634614e-06
44	0xb945f55c	-0.00018878788
45	0xbcf08d24	-0.029364176
46	0x34e53857	4.2695567e-07
47	0xbc88371b	-0.016627839
48	0xbc877d34	-0.016539194
49	0xbda8bbe4	-0.08238962
50	0xb2e0d622	-2.6174408e-08
51	0xbe01ae45	-0.12664135
52	0xb7ac3924	-2.0530606e-05
53	0xbd3a2322	-0.04544366
54	0xb9ef857a	-0.0004568508
55	0xb5f92b76	-1.8564594e-06
56	0x377e9446	1.5174102e-05
57	0xb04d37ba	-7.465776e-10
58	0xbbf87796	-0.007582615
59	0x34ca441f	3.7674997e-07
60	0x33e48056	1.06404215e-07
61	0xb4b965f8	-3.4533127e-07
62	0x33ffda77	1.1914101e-07
63	0xb58de704	-1.0572553e-06
64	0xbcee4530	-0.029085726
65	0xbc006e8e	-0.007838858
66	0xaf2b22a8	-1.5564672e-10
67	0xb52e9ba2	-6.5046527e-07
68	0xb5886455	-1.016199e-06
69	0xb16c8df3	-3.4423209e-09
70	0xbae9d71e	-0.0017840599
71	0xb998f7e9	-0.00029176407
72	0xbd662004	-0.056182876
73	0xb7767c52	-1.4691688e-05
74	0xbc49e356	-0.0123222675
75	0xb6bd9365	-5.649798e-06
76	0x3391ab5a	6.783257e-08
77	0x332f4ea9	4.0816904e-08
78	0xb78fc2f8	-1.7137718e-05
79	0xbcbb612d	-0.022873485
80	0xbe2c112d	-0.16803427

norm1.weight f4 [81]
0	0x3de5b638	0.11216396
1	0x3de6ebde	0.11275457
2	0x3d9a22a9	0.07526142
3	0x3d9e8bf6	0.07741539
4	0x3ce3d0cc	0.027809523
5	0x3b2e64dc	0.002661041
6	0x39b0a045	0.00033688746
7	0x399407cf	0.00028234578
8	0x3daf71d1	0.08566631
9	0x35c90849	1.4978078e-06
10	0x3d1701e8	0.036867052
11	0x36388d28	2.75003e-06
12	0x3a6b8672	0.00089845725
13	0x39e318a7	0.0004331518
14	0x3daf12a3	0.085484765
15	0x3c6e3bd5	0.014540632
16	0x3996cf3d	0.00028764634
17	0x3a4c18fa	0.0007785704
18	0x3d0cc7bb	0.034370165
19	0x3bf4d08a	0.007471149
20	0x3d7d7474	0.061878636
21	0x3b4cb657	0.0031236613
22	0x371a066a	9.180609e-06
23	0x3aa92343	0.0012904186
24	0x3b50ea85	0.0031878066
25	0x3ced6bfa	0.028982151
26	0x3cf3aeb4	0.02974639
27	0x3c0f69da	0.008753264
28	0x3e22944d	0.15876885
29	0x375785cb	1.284615e-05
30	0x3d634210	0.055482924
31	0x3c9eb959	0.01937549
32	0x3a5d58bf	0.0008443705
33	0x3d13427b	0.035952073
34	0x3e027c06	0.12742624
35	0x3e49a48f	0.1969168
36	0x3c35981e	0.011083631
37	0x3c2646ec	0.010148745
38	0x3b913cfd	0.004432319
39	0xb48fba2e	-2.677129e-07
40	0x3bafc5a2	0.005364136
41	0x3e1e6256	0.154672
42	0x3a5f1574	0.00085099717
43	0x3b159097	0.0022821778
44	0x3bfeb25b	0.0077727265
45	0x3d2881ef	0.04113954
46	0x3a014c0c	0.00049322913
47	0x3d380e9f	0.04493582
48	0x3cb63fcb	0.022247216
49	0x3d058533	0.03259773
50	0x39070652	0.00012876958
51	0x3de77985	0.11302475
52	0x3b7620e0	0.0037556216
53	0x3d84a572	0.06476869
54	0xba002e79	-0.00048897375
55	0x3bae47c5	0.005318614
56	0x3a68dc12	0.00088828907
57	0x385095e4	4.973066e-05
58	0x3c3e82d3	0.011627871
59	0x3b51c48a	0.0032008016
60	0x39e56e85	0.00043760627
61	0x37d2c7ba	2.5126956e-05
62	0x396ff682	0.00022884647
63	0x39f49863	0.00046652844
64	0x3d84edf9	0.06490702
65	0x3d03e016	0.032196127
66	0x37d6110c	2.5518726e-05
67	0x39b6ad41	0.0003484283
68	0x3acc0ef2	0.0015568419
69	0x38132e2e	3.509054e-05
70	0x3c536e38	0.012904696
71	0x3c3faf65	0.011699532
72	0x3d8ee005	0.06976322
73	0x3b32126d	0.0027171627
74	0x3d034dd5	0.03205665
75	0x3a241330	0.00062589627
76	0x3a827524	0.0009953124
77	0x390ce6b3	0.00013437383
78	0x3b924b83	0.004464568
79	0x3d102d13	0.035199236
80	0x3e2b651f	0.16737793

norm1.bias f4 [81]
0	0xbe134938	-0.143834
1	0x3d088187	0.033326652
2	0xbe008210	-0.12549615
3	0xbdfe54b4	-0.124184996
4	0xbc630cb9	-0.013858014
5	0xbb3c5df6	-0.0028742529
6	0xba9af866	-0.0011823296
7	0xba0a6f65	-0.00052808813
8	0xbd3bab53	-0.045817684
9	0xb64b8afd	-3.033026e-06
10	0xbc9186ec	-0.017764531
11	0xb579729f	-9.2926524e-07
12	0xbaf1b4c5	-0.0018440714
13	0xba5b5b89	-0.0008367827
14	0xbde696bc	-0.11259219
15	0xbc395354	-0.011311371
16	0xbbf229ec	-0.0073902514
17	0xbaf9bff4	-0.0019054399
18	0xbc99c00d	-0.018768335
19	0xbc29855b	-0.010346736
20	0xbdf5396f	-0.11973845
21	0xbaa2b36a	-0.0012413089
22	0xb6fa20b7	-7.454389e-06
23	0xbb29793e	-0.002585962
24	0xbc221d1f	-0.009894638
25	0xbd2e1789	-0.042502914
26	0xbd5f7905	-0.054558773
27	0xbb040c1e	-0.0020148824
28	0xbbefc1cb	-0.007316803
29	0xba6e6981	-0.0009094701
30	0xbdbfa130	-0.09356916
31	0xbcaf3815	-0.021389047
32	0xbb125b06	-0.0022332086
33	0xbd75fc20	-0.0600549
34	0xbe2becd5	-0.16789563
35	0xbe4583e7	-0.19288598
36	0xbc9346ec	-0.017978154
37	0xbcb5ae23	-0.022177761
38	0xbc29e7ea	-0.010370234
39	0xb3a79de6	-7.805265e-08
40	0xba5ced68	-0.000842771
41	0xbd53cf1f	-0.051711198
42	0xbb2f7465	-0.0026772257
43	0xbb7406da	-0.003723553
44	0xbca3726b	-0.01995202
45	0xbd7d78f8	-0.061882943
46	0xba9d5e30	-0.001200622
47	0xbdae91f2	-0.085239306
48	0x3a832e5c	0.0010008323
49	0xbb8cc3c2	-0.004295797
50	0xb9500a45	-0.00019840251
51	0xbd6b8c6a	-0.057506956
52	0xbb01d561	-0.0019811022
53	0xbdd919c8	-0.106006205
54	0xbba602cd	-0.005066252
55	0xbbd970fb	-0.006635783
56	0xba086fde	-0.0005204658
57	0xb86c542c	-5.6345176e-05
58	0x3c84718c	0.016167425
59	0xbbb402ae	-0.0054934835
60	0xba468c2d	-0.00075739884
61	0xbb42fdcb	-0.0029753323
62	0xba30d3fb	-0.0006745455
63	0xba6cc8ad	-0.00090325886
64	0xbdfd258a	-0.12360676
65	0xbd7b95dc	-0.061422214
66	0xb74a037e	-1.2040951e-05
67	0xba81594d	-0.0009868533
68	0xbb24bebb	-0.0025138098
69	0xb794b2ba	-1.77262e-05
70	0xbca1d3ed	-0.019754374
71	0xbc57c1d0	-0.013168767
72	0xbdeefd4b	-0.116694055
73	0xbace88ef	-0.0015757362
74	0x392e3434	0.0001661338
75	0xbb1f55e8	-0.0024312679
76	0xbb126eb7	-0.0022343823
77	0xb82612bf	-3.9594943e-05
78	0xbbd4de2c	-0.0064962115
79	0xbd6fa37b	-0.058505516
80	0xbda93e89	-0.08263881

norm1.running_mean f4 [81]
0	0xbceb5804	-0.028728493
1	0x3d0dbb7c	0.034602627
2	0xbcd013d5	-0.025400082
3	0xbc848e0c	-0.016181014
4	0xbc7c637d	-0.015404579
5	0xba26eb45	-0.00063674554
6	0xb7edaef3	-2.8334069e-05
7	0xb9b04af9	-0.00033625195
8	0x3cea09a1	0.028569045
9	0xb96ef86b	-0.00022789992
10	0x3bd23fd5	0.006416301
11	0xb946e3c1	-0.00018967596
12	0xba6d8760	-0.0009061005
13	0xb9285474	-0.0001605319
14	0xbcb320bf	-0.0218662
15	0xbbf53093	-0.007482597
16	0xbba0207f	-0.0048866863
17	0x3ab7af25	0.0014013989
18	0xbc914095	-0.01773099
19	0xbbacccf0	-0.005273454
20	0xbc9f70a6	-0.019462895
21	0x3b40cf31	0.002942037
22	0x37a91536	2.0156247e-05
23	0xbaa43fab	-0.0012531182
24	0x3b6da361	0.0036260711
25	0xbc7461b7	-0.014915875
26	0xbc2c6d70	-0.010524139
27	0x3b9d9518	0.004809033
28	0x3d46c676	0.04852911
29	0xbafafd57	-0.0019148987
30	0xbcaf4e87	-0.02139975
31	0xbca13bda	-0.01968186
32	0xba6306dc	-0.0008660385
33	0xbc629967	-0.013830519
34	0xbcdebe2c	-0.02719029
35	0xbd2b68ef	-0.04184812
36	0xbcbafc7e	-0.022825476
37	0xbc47e6ec	-0.012201052
38	0xbbb2a19d	-0.0054513947
39	0xb9a8dd90	-0.00032208534
40	0x3b29d0da	0.0025911839
41	0xbd0eaa1c	-0.034830198
42	0xb910917a	-0.00013787104
43	0x3a235b83	0.0006231593
44	0xbb1875a2	-0.0023263474
45	0xbc5679d1	-0.013090567
46	0x38da8c96	0.00010421236
47	0xbc70433c	-0.014664467
48	0xbc9f3978	-0.019436583
49	0x3c5fcf59	0.013660275
50	0xb9ffeefc	-0.00048815447
51	0x3d12324e	0.035692506
52	0xba0beb1c	-0.0005337463
53	0xbc725367	-0.0147903925
54	0x3b5991df	0.0033198518
55	0x3a40f4c9	0.00073606946
56	0xba2d9bc9	-0.000662264
57	0xb84fc9d7	-4.9540624e-05
58	0x3b2cfd93	0.002639626
59	0x3982a06e	0.00024915062
60	0xb915c7ed	-0.00014284225
61	0x3a38f4a9	0.00070555
62	0x3950450a	0.00019862145
63	0x39250232	0.00015736444
64	0xbca32942	-0.019917134
65	0xbc006d69	-0.007838585
66	0xb8b72c41	-8.734363e-05
67	0xba64f977	-0.0008734683
68	0x39b6784f	0.00034803382
69	0xb733f179	-1.0725454e-05
70	0xba21da49	-0.00061741896
71	0x3aaaca0a	0.0013030183
72	0xbc81a93d	-0.01582777
73	0xb9ff4423	-0.00048688156
74	0xbcc0181b	-0.023448994
75	0x3a3bc9b0	0.00071635377
76	0xba567a3e	-0.00081816677
77	0x38963602	7.162617e-05
78	0xba92b433	-0.001119262
79	0xbc580f4e	-0.013187243
80	0x3d2d834c	0.042361543

norm1.running_var f4 [81]
0	0x3abf4c40	0.0014594868
1	0x3af2afcf	0.001851553
2	0x3a806cd3	0.0009798057
3	0x3a2fc2ee	0.0006704767
4	0x399cfa32	0.0002994105
5	0x356d9b18	8.851507e-07
6	0x32fbeef5	2.932891e-08
7	0x3416574f	1.4001601e-07
8	0x3ac1d2fd	0.0014787611
9	0x33cfb525	9.672139e-08
10	0x394f489f	0.00019768112
11	0x32c181e4	2.2527225e-08
12	0x34d90361	4.0421858e-07
13	0x3310bbb9	3.3698345e-08
14	0x3a1c6633	0.00059661566
15	0x3911084e	0.00013831371
16	0x36ebf3f1	7.0319443e-06
17	0x35b4e82a	1.3478614e-06
18	0x3a050d43	0.00050755235
19	0x37aef00c	2.0854197e-05
20	0x3a33b7b6	0.0006855683
21	0x376afbfd	1.40061575e-05
22	0x307e4ab4	9.251082e-10
23	0x34fafcab	4.674997e-07
24	0x368f1881	4.2645847e-06
25	0x38acffe2	8.249261e-05
26	0x392cd2f5	0.00016481786
27	0x387932e9	5.941364e-05
28	0x3b6f5b05	0.0036522758
29	0x36a651a6	4.9566906e-06
30	0x3a3a83c6	0.00071149727
31	0x394d8295	0.00019598969
32	0x349901eb	2.8499866e-07
33	0x39921ff1	0.00027871088
34	0x3ac114e6	0.001473096
35	0x3b2f4e91	0.002674971
36	0x39010e39	0.00012307697
37	0x388452d0	6.3096755e-05
38	0x372efc30	1.0429925e-05
39	0x349bb16f	2.90001e-07
40	0x376f226d	1.42535255e-05
41	0x3ae3f9d3	0.0017393179
42	0x3409867c	1.2808044e-07
43	0x34b70a56	3.4093927e-07
44	0x3764c66e	1.36360595e-05
45	0x396ad852	0.00022396565
46	0x35386226	6.8688166e-07
47	0x39cf412c	0.00039530674
48	0x39c96911	0.00038415988
49	0x39b16383	0.00033834213
50	0x34a741a4	3.1153934e-07
51	0x3b18a677	0.002329258
52	0x35c19d65	1.4425428e-06
53	0x3a00dcae	0.00049156963
54	0x37b58fc9	2.1643837e-05
55	0x344fd988	1.9357515e-07
56	0x355f5fff	8.3213666e-07
57	0x32961688	1.7472544e-08
58	0x3945e5fe	0.00018873063
59	0x3475f8cf	2.2907919e-07
60	0x33cc3ac1	9.5101775e-08
61	0x354fb44c	7.7375876e-07
62	0x33d9e6d3	1.01468366e-07
63	0x33c842da	9.325386e-08
64	0x3a56a42f	0.00081879174
65	0x393dca7f	0.0001809988
66	0x318746bd	3.937059e-09
67	0x351845e8	5.672614e-07
68	0x3441a30e	1.8033845e-07
69	0x308f7214	1.0437042e-09
70	0x381732d3	3.604854e-05
71	0x371dc585	9.403918e-06
72	0x3a12280e	0.00055754266
73	0x3571de9b	9.010343e-07
74	0x3a161e78	0.0005726586
75	0x355b6f4e	8.174583e-07
76	0x348f2157	2.6660084e-07
77	0x32e754db	2.6930527e-08
78	0x363661ec	2.7177111e-06
79	0x397ceb35	0.00024120214
80	0x3b47349b	0.0030396346

conv_layer2.weight f4 [81, 81, 3, 3]
0	0x9b79c024	-2.0658881e-22
1	0x1b2bcf3b	1.4211748e-22
2	0x9ce958a7	-1.5441563e-21
3	0x9aec9460	-9.7847025e-23
4	0x9a5be814	-4.547561e-23
5	0x9bccbaf9	-3.3869797e-22
6	0x1b184083	1.259399e-22
7	0x9bff3a3b	-4.2223842e-22
8	0x9b86380f	-2.2204667e-22
9	0x9be8ad23	-3.8493067e-22
10	0x9adc617b	-9.1147356e-23
11	0x9b242976	-1.3579159e-22
12	0x1b642622	1.8872039e-22
13	0x1c09cfb7	4.5597963e-22
14	0x9b07741b	-1.1204454e-22
15	0x99b6a3a4	-1.8884453e-23
16	0x9c8dc5c6	-9.381721e-22
17	0x9abe6496	-7.8744664e-23
18	0x9ad066d9	-8.619294e-23
19	0x9aadfb02	-7.195665e-23
20	0x1abfdc40	7.935158e-23
21	0x9a340e80	-3.723484e-23
22	0x1aa3de69	6.777454e-23
23	0x9c0c8cc9	-4.6504075e-22
24	0x9add9e87	-9.165957e-23
25	0x1a5a6cb3	4.516915e-23
26	0x9b15996a	-1.2374562e-22
27	0x9a93e959	-6.117477e-23
28	0x9acd100a	-8.4811925e-23
29	0x1a89ac09	5.693981e-23
30	0x9a41b9b3	-4.006147e-23
31	0x9b122bcc	-1.2090988e-22
32	0x989abf10	-4.000099e-24
33	0x1a8995f3	5.690413e-23
34	0x1a3db7c7	3.9232738e-23
35	0x9b553c4a	-1.7638427e-22
36	0x99168623	-7.781907e-24
37	0x1a7b8127	5.2009912e-23
38	0x9a628bbc	-4.684858e-23
39	0x9aa1c827	-6.69114e-23
40	0x1affb9c7	1.0576567e-22
41	0x9ad79932	-8.9169416e-23
42	0x19ed84ec	2.4558912e-23
43	0x9bb13e48	-2.9322442e-22
44	0x9af02246	-9.9317045e-23
45	0x10c614fd	7.812957e-29
46	0x106bda8c	4.651394e-29
47	0x90a57430	-6.526004e-29
48	0x8f856999	-1.3155487e-29
49	0x8f50c349	-1.0292802e-29
50	0x91053794	-1.0508976e-28
51	0x1010d9e5	2.8566852e-29
52	0x8f7af624	-1.23733566e-29
53	0x90b0db4b	-6.9757634e-29
54	0x8d85fc68	-8.257522e-31
55	0x8cfc891a	-3.8909263e-31
56	0x0d905db2	8.8972415e-31
57	0x8c57ac22	-1.6614797e-31
58	0x0ab63b8f	1.7548366e-32
59	0x0e914d92	3.5819957e-30
60	0x0d5a216c	6.7216667e-31
61	0x0cbd0f73	2.912936e-31
62	0x0eb715f8	4.513414e-30
63	0x094bd63c	2.4535969e-33
64	0x0b4554b0	3.8004532e-32
65	0x09986baa	3.6693916e-33
66	0x8ba8660e	-6.48648e-32
67	0x8a108a75	-6.959389e-33
68	0x8c06b8d9	-1.037861e-31
69	0x8c4f2f50	-1.5960938e-31
70	0x8b937d93	-5.6811283e-32
71	0x8c08141c	-1.048311e-31
72	0x9abdaf58	-7.845185e-23
73	0x1ac8fc24	8.3125416e-23
74	0x1b2db417	1.4368415e-22
75	0x18f4e1ea	6.3300637e-24
76	0x9aaa508d	-7.044049e-23
77	0x9bca3f71	-3.3459095e-22
78	0x9971e069	-1.2504727e-23
79	0x9b18a4cc	-1.2626394e-22
80	0x9b12fa82	-1.215778e-22
81	0x04a2c76f	3.8269168e-36
82	0x050781dc	6.371521e-36
83	0x872585bd	-1.2452522e-34
84	0x83ce2ba0	-1.2117608e-36
85	0x858063d8	-1.2073739e-35
86	0x86aa3bcf	-6.4034774e-35
87	0x8521fb52	-7.616344e-36
88	0x82a4a910	-2.4194671e-37
89	0x86e2e84f	-8.53531e-35
90	0x9ab4830c	-7.465797e-23
91	0x1a837435	5.436807e-23
92	0x9a1b657b	-3.2135224e-23
93	0x1901f2ce	6.718178e-24
94	0x1b1ed9d4	1.3139838e-22
95	0x19839264	1.360421e-23
96	0x9af694e3	-1.01983755e-22
97	0x99933039	-1.521892e-23
98	0x9ad7ce97	-8.925568e-23
99	0x8290cab8	-2.1275253e-37
100	0x823cf178	-1.3881357e-37
101	0x02f0121a	3.527522e-37
102	0x82e7f620	-3.4083668e-37
103	0x0009dc0c	9.05457e-40
104	0x80db9340	-2.0164797e-38
105	0x839859e5	-8.954396e-37
106	0x02109993	1.0623523e-37
107	0x81c47695	-7.2169186e-38
108	0x8e6f7a58	-2.951793e-30
109	0x8ed19cae	-5.1673355e-30
110	0x0f6b1396	1.1590167e-29
111	0x8eebe79b	-5.8155e-30
112	0x0e4bf460	2.5139344e-30
113	0x0e8132c4	3.184984e-30
114	0x0f86cc5c	1.3292137e-29
115	0x0ea4ccb5	4.0626247e-30
116	0x0ef231be	5.9705506e-30
117	0x0c427ecc	1.4983373e-31
118	0x0cec5dc4	3.641799e-31
119	0x8e185a1e	-1.8778836e-30
120	0x0d9c13a3	9.61897e-31
121	0x8c5682ba	-1.65253e-31
122	0x8ee7ed41	-5.7174364e-30
123	0x8dfcd8e2	-1.5582912e-30
124	0x8e02a91e	-1.6105164e-30
125	0x8f1add95	-7.635461e-30
126	0x9b50bfb3	-1.7267298e-22
127	0x9b338b54	-1.4851552e-22
128	0x1b3fa62e	1.5852845e-22
129	0x9b5df62f	-1.8360238e-22
130	0x1ad33280	8.734914e-23
131	0x9c89cbe1	-9.118601e-22
132	0x9a6b4491	-4.865225e-23
133	0x1ad14fe7	8.6569463e-23
134	0x9b8d39cc	-2.3363844e-22
135	0x9b66bde6	-1.9086514e-22
136	0x9b292438	-1.3991055e-22
137	0x9a190946	-3.164715e-23
138	0x1aa1a1a8	6.684921e-23
139	0x9a543267	-4.3881287e-23
140	0x1adf4ec0	9.2357866e-23
141	0x9a94789a	-6.140621e-23
142	0x9a523fb9	-4.3478457e-23
143	0x9b4d7715	-1.699568e-22
144	0x9379a835	-3.151115e-27
145	0x92611978	-7.1028874e-28
146	0x1418971a	7.7038384e-27
147	0x9367c70f	-2.9254443e-27
148	0x916c5fd2	-1.8646644e-28
149	0x147560ae	1.2388406e-26
150	0x1295006f	9.403329e-28
151	0x12ae0450	1.0982007e-27
152	0x14d40e0c	2.141207e-26
153	0x8f91f8a1	-1.4393872e-29
154	0x8fcb2fc2	-2.0035741e-29
155	0x0fff9de3	2.5205757e-29
156	0x8f2d10ab	-8.532769e-30
157	0x0f28e969	8.327993e-30
158	0x10b57058	7.1565005e-29
159	0x0f78c82a	1.2265894e-29
160	0x0fe07c9f	2.2136108e-29
161	0x10b459d9	7.1135914e-29
162	0x9be0afde	-3.7171343e-22
163	0x1c04d7bb	4.395396e-22
164	0x9a6340f8	-4.699498e-23
165	0x1b3d4eb4	1.5659144e-22
166	0x999657f4	-1.554516e-23
167	0x9b41952b	-1.6012785e-22
168	0x9c2fac84	-5.8125614e-22
169	0x9b938255	-2.4403335e-22
170	0x9a004d14	-2.6532043e-23
171	0x99675d66	-1.1961282e-23
172	0x19cea3fe	2.1366137e-23
173	0x99b07630	-1.8245709e-23
174	0x1a20778e	3.31838e-23
175	0x19985b11	1.5753213e-23
176	0x99cfcaf3	-2.1485269e-23
177	0x99575952	-1.11332776e-23
178	0x19ead7c2	2.4282177e-23
179	0x19f79e96	2.5603254e-23
180	0x9a4bbd5a	-4.2132373e-23
181	0x1a0662e8	2.7790446e-23
182	0x9b025c0b	-1.0783089e-22
183	0x9a3d7d75	-3.9185627e-23
184	0x1a7843b0	5.1339876e-23
185	0x9a42cc2a	-4.0283182e-23
186	0x1a20716b	3.3178843e-23
187	0x9adc0472	-9.099705e-23
188	0x9a503f19	-4.3064362e-23
189	0x190be57c	7.2324756e-24
190	0x197e29b2	1.31399125e-23
191	0x98fe0404	-6.5661516e-24
192	0x1a047e8b	2.739918e-23
193	0x198d4fef	1.4611343e-23
194	0x9a50c6f8	-4.3174118e-23
195	0x9a5fb378	-4.6260293e-23
196	0x98df65fc	-5.7747127e-24
197	0x997a5eca	-1.29438396e-23
198	0x0617ee69	2.85751e-35
199	0x84c792e6	-4.691958e-36
200	0x86b07217	-6.637148e-35
201	0x053b9d30	8.8215685e-36
202	0x0328a6b6	4.9562138e-37
203	0x06b2cd90	6.7258205e-35
204	0x85e52cae	-2.1551469e-35
205	0x049e1f00	3.717409e-36
206	0x0735471f	1.3637827e-34
207	0x0ec8fa2e	4.954472e-30
208	0x8f1187a7	-7.175178e-30
209	0x8e371d77	-2.2570678e-30
210	0x8d9da344	-9.715177e-31
211	0x8ea4670d	-4.0528356e-30
212	0x8fa38c15	-1.6126999e-29
213	0x0dbee362	1.17643945e-30
214	0x8d91f788	-8.995906e-31
215	0x902cd9fd	-3.408895e-29
216	0x1265fab0	7.2568655e-28
217	0x92ace0f5	-1.0910182e-27
218	0x12142c44	4.6755127e-28
219	0x11d6ce60	3.3890435e-28
220	0x11e9166a	3.6774732e-28
221	0x13743e96	3.0827987e-27
222	0x13773c7e	3.1205608e-27
223	0x12a120e7	1.01686395e-27
224	0x13bada16	4.716805e-27
225	0x9a1a4e7e	-3.190986e-23
226	0x9a1edb26	-3.285066e-23
227	0x9a04a0ca	-2.7426845e-23
228	0x19c0250c	1.9867298e-23
229	0x97cea032	-1.3352877e-24
230	0x9a090e50	-2.8342498e-23
231	0x19e06be9	2.3204642e-23
232	0x187b1864	3.2453304e-24
233	0x9a995b8f	-6.342724e-23
234	0x99e0c28e	-2.3239637e-23
235	0x1a16a662	3.1153676e-23
236	0x99a9f13b	-1.7571623e-23
237	0x195f54a7	1.1545925e-23
238	0x9937dfe2	-9.506091e-24
239	0x9b11905a	-1.2040761e-22
240	0x1a418c4b	4.0024792e-23
241	0x99a188d9	-1.6702282e-23
242	0x979cb80c	-1.0127724e-24
243	0x1987ddc0	1.4048237e-23
244	0x1a1ad099	3.2014957e-23
245	0x18cc00f0	5.273371e-24
246	0x99350a27	-9.359531e-24
247	0x9ae917b6	-9.640485e-23
248	0x18dfb326	5.7825043e-24
249	0x1a305715	3.646629e-23
250	0x174fe374	6.7172394e-25
251	0x198c0e42	1.448142e-23
252	0x9ac3849a	-8.086434e-23
253	0x1acc6adb	8.4545057e-23
254	0x9bb30a59	-2.9619753e-22
255	0x1c19cdf4	5.088964e-22

conv_layer2.bias f4 [81]
0	0x14d8a8af	2.187696e-26
1	0x0009dfab	9.06756e-40
2	0x8028eaa8	-3.757599e-39
3	0x35033311	4.8875614e-07
4	0x946423ea	-1.1518141e-26
5	0x125bc610	6.9348346e-28
6	0x37b43a98	2.1484957e-05
7	0xa5a4f8ea	-2.8618136e-16
8	0x0005148d	4.6655e-40
9	0x36222f0c	2.4167266e-06
10	0xb6804c12	-3.823553e-06
11	0x370faa4f	8.563117e-06
12	0x92eb9972	-1.4868412e-27
13	0xb87de296	-6.0530925e-05
14	0x0010fe3d	1.560571e-39
15	0x80015ef9	-1.25905e-40
16	0x80016120	-1.26677e-40
17	0x13cb22c4	5.1278686e-27
18	0x37111ebc	8.649829e-06
19	0x374c453c	1.2175467e-05
20	0xb7b380ba	-2.1398406e-05
21	0x35493f28	7.497024e-07
22	0x36b5940c	5.4114553e-06
23	0x0c0037c4	9.877543e-32
24	0xb5767300	-9.180949e-07
25	0x0e195494	1.8899429e-30
26	0x360242e8	1.9410454e-06
27	0x384175f8	4.6124653e-05
28	0x93db83e7	-5.5413438e-27
29	0xb714a5ef	-8.860122e-06
30	0x80007e49	-4.5303e-41
31	0xb77a27df	-1.4910444e-05
32	0x9b007849	-1.0626778e-22
33	0xb57f1fc0	-9.5041105e-07
34	0xaeafb747	-7.990635e-11
35	0x0002ffb5	2.75401e-40
36	0xb71682bf	-8.971138e-06
37	0x375d7c5d	1.3201582e-05
38	0x3703dd20	7.859693e-06
39	0x83a32a0b	-9.5899316e-37
40	0x0004c4a1	4.37879e-40
41	0xb6504620	-3.1035233e-06
42	0x030e6433	4.1845073e-37
43	0x37dbd518	2.6206064e-05
44	0x95640ec6	-4.6055888e-26
45	0x8001784c	-1.3499e-40
46	0xb82e4fd8	-4.1559193e-05
47	0x30614262	8.194886e-10
48	0x80053b3e	-4.8043e-40
49	0x000213df	1.908e-40
50	0x33dc257a	1.0251365e-07
51	0x35ab4d8e	1.2763064e-06
52	0x31b17110	5.1642317e-09
53	0xb5515120	-7.797662e-07
54	0x883580f2	-5.461928e-34
55	0x80472d6b	-6.536613e-39
56	0x3732535e	1.0629037e-05
57	0x33173700	3.520745e-08
58	0xb87bc302	-6.002468e-05
59	0xb7e4d350	-2.7278118e-05
60	0x08f76388	1.4889171e-33
61	0xb76fa588	-1.4284051e-05
62	0x000351d4	3.04861e-40
63	0x800027d5	-1.4289e-41
64	0xb807b544	-3.2355325e-05
65	0x386a1aa4	5.581476e-05
66	0xb7c01a0d	-2.2900314e-05
67	0x378f5d2d	1.7090317e-05
68	0x80016c5e	-1.3071e-40
69	0x322e0c8b	1.0130985e-08
70	0xb1c21822	-5.6488867e-09
71	0x2c0f7b26	2.0389883e-12
72	0x1408b320	6.9015715e-27
73	0x0872a2f6	7.3015786e-34
74	0xb6ed0f80	-7.064955e-06
75	0x34826d5d	2.429396e-07
76	0x0014237f	1.849444e-39
77	0xb70a2734	-8.234569e-06
78	0x133e1af7	2.3994666e-27
79	0x16c08515	3.110326e-25
80	0x99a5018d	-1.7061226e-23

prelu2.weight f4 [81]
0	0x801e5be0	-2.788023e-39
1	0x8139e090	-3.414025e-38
2	0x02d69d5d	3.1534796e-37
3	0xb835efb4	-4.3377004e-05
4	0x831f40cf	-4.6800297e-37
5	0x860c3a55	-2.637393e-35
6	0xbde8c468	-0.113655865
7	0xa82a6b19	-9.460119e-15
8	0x83ad06c8	-1.0169583e-36
9	0xba8bc05c	-0.0010662186
10	0xbd1c559c	-0.03816758
11	0xbdad6709	-0.08466918
12	0x801f0ade	-2.850799e-39
13	0xbd12991c	-0.035790548
14	0x007cf4b6	1.1475387e-38
15	0x02a5ba7d	2.435161e-37
16	0x85f5039a	-2.3041012e-35
17	0x833d7bbe	-5.5684157e-37
18	0xba86101d	-0.0010228191
19	0xbdc4e5bf	-0.09614133
20	0x02f6e92b	3.6280283e-37
21	0xbc630b9b	-0.013857747
22	0xbc8597a0	-0.016307652
23	0x9188d107	-2.158584e-28
24	0xbd91ba4f	-0.07115614
25	0x80004135	-2.3392e-41
26	0xbcfd5fe9	-0.030929523
27	0xbb612023	-0.003435143
28	0x854a907e	-9.5245334e-36
29	0xbb635e95	-0.0034693826
30	0x0e1c77bf	1.928614e-30
31	0x3c1c8ecc	0.00955553
32	0x2a86dad5	2.3955027e-13
33	0xbcf2c911	-0.029636892
34	0xad563460	-1.2176121e-11
35	0x93f60a3b	-6.210922e-27
36	0xbe13581c	-0.1438908
37	0x3bc9adef	0.0061547677
38	0xbdb443a8	-0.08801967
39	0x91d64f6d	-3.3812197e-28
40	0x8002e01f	-2.6407e-40
41	0xbd70fbac	-0.058833763
42	0x9f3b91a3	-3.9719258e-20
43	0x3baf32d4	0.0053466354
44	0x04b6eb4e	4.3004088e-36
45	0x858eb08e	-1.3418472e-35
46	0xbe03f81d	-0.12887616
47	0xb177e8ab	-3.6075487e-09
48	0x945d18de	-1.1162553e-26
49	0x800fc12d	-1.446831e-39
50	0x2b9a4a5d	1.0962998e-12
51	0xbd69aacf	-0.05704766
52	0x0040a994	5.938305e-39
53	0x3a28a179	0.00064327527
54	0x1c48103e	6.619544e-22
55	0x04176d49	1.7800146e-36
56	0xbb449912	-0.0029998464
57	0xbc45332c	-0.012036126
58	0xbd077d1b	-0.033078294
59	0xbc5082de	-0.012726514
60	0x9934518b	-9.322249e-24
61	0xbd9d6814	-0.07685867
62	0x8bf0b051	-9.270993e-32
63	0x844682d5	-2.3334863e-36
64	0xbd0a8d67	-0.033826258
65	0xbd78d8a1	-0.06075347
66	0xbc68eea4	-0.014217053
67	0xbcf6c5f6	-0.030123692
68	0x8b02c2a0	-2.518351e-32
69	0x302a677b	6.1992694e-10
70	0x2ca189ae	4.5911807e-12
71	0xb0e56e04	-1.6693211e-09
72	0x842d9b4c	-2.0407361e-36
73	0x166c7558	1.9100955e-25
74	0xbcd3c461	-0.025850477
75	0x38134e38	3.5120378e-05
76	0x80164f0a	-2.048735e-39
77	0xbbb11b1a	-0.005404842
78	0x024c3919	1.5003939e-37
79	0x282c506d	9.5653576e-15
80	0x230686c3	7.2926915e-18

norm2.weight f4 [81]
0	0x3431b699	1.6550838e-07
1	0x34390c55	1.7233954e-07
2	0x34481505	1.8634098e-07
3	0x3ca0c3a4	0.019624539
4	0x3431cc93	1.6558833e-07
5	0x340a4415	1.287702e-07
6	0x3e947458	0.28995013
7	0x38b85754	8.79007e-05
8	0x3472e4ea	2.2621285e-07
9	0x3d7cdefb	0.06173609
10	0x3daa179f	0.083052866
11	0x3df6e3dc	0.120551795
12	0x341a5fb9	1.4377191e-07
13	0x3e27689a	0.16348496
14	0x347a02af	2.328404e-07
15	0x34567849	1.9974063e-07
16	0x344f29c5	1.9293573e-07
17	0x340c8388	1.3086367e-07
18	0x3d07b512	0.033131666
19	0x3df8feac	0.1215795
20	0x34436546	1.8197633e-07
21	0x3e0afbd4	0.13572627
22	0x3e17e2ec	0.14832658
23	0x34be7afb	3.5479738e-07
24	0x3df852de	0.12125181
25	0x3426072d	1.5462565e-07
26	0x3d902b48	0.07039505
27	0x3e398af2	0.1811941
28	0x342c0b21	1.6022797e-07
29	0x3d5c704f	0.053818043
30	0x34e20240	4.2097417e-07
31	0x3e841e64	0.25804436
32	0x39cded3d	0.00039277403
33	0x3dd24986	0.1026793
34	0x3ac63250	0.0015121195
35	0x358bee15	1.0425598e-06
36	0x3e66ca05	0.22538002
37	0x3e086ffc	0.13323969
38	0x3ec6534a	0.3873542
39	0x3563e24e	8.4893406e-07
40	0x3431c4e8	1.6556044e-07
41	0x3dd9e494	0.10639301
42	0x3810544b	3.441078e-05
43	0x3d998c08	0.07497412
44	0x34384de5	1.7164673e-07
45	0x345d4f20	2.0611014e-07
46	0x3df5020e	0.119632825
47	0x3a9c6ea4	0.0011934829
48	0x3509d878	5.135148e-07
49	0x34444275	1.82781e-07
50	0x39a4efe4	0.0003145925
51	0x3dd88800	0.10572815
52	0x34485022	1.8655604e-07
53	0x3d2ad400	0.041706085
54	0x37141589	8.8265015e-06
55	0x3497e75e	2.8294284e-07
56	0x3da9401e	0.082641825
57	0x3d98bad6	0.07457511
58	0x3e1b37b0	0.15157962
59	0x3dc83b2d	0.09776912
60	0x36c0ad9b	5.7422562e-06
61	0x3e281319	0.16413535
62	0x34e70c14	4.303589e-07
63	0x346ecf33	2.2240856e-07
64	0x3ddfdc65	0.10930709
65	0x3e6af7d1	0.22946097
66	0x3d91ddca	0.07122381
67	0x3dabbb08	0.08385283
68	0x34cf6d07	3.8636082e-07
69	0x3a93d221	0.0011277833
70	0x3a047d13	0.0005054038
71	0x3a3dbb92	0.0007237728
72	0x33e5dcb8	1.0703792e-07
73	0x35afaf7c	1.3089589e-06
74	0x3dc2a0b9	0.09503312
75	0x3c4269e6	0.0118660685
76	0x3435c055	1.6926909e-07
77	0x3d082fd4	0.033248737
78	0x342606fe	1.5462498e-07
79	0x38c220eb	9.256772e-05
80	0x381febfa	3.8128324e-05

norm2.bias f4 [81]
0	0x9f88ec75	-5.7989426e-20
1	0x983f5ca0	-2.4732935e-24
2	0x9b268c78	-1.3776586e-22
3	0xbbf95018	-0.007608425
4	0xa206fa84	-1.8293008e-18
5	0x9f9c44af	-6.61822e-20
6	0xbe43d3b0	-0.19123721
7	0xb5b04f1e	-1.3136048e-06
8	0x9c2ab555	-5.648265e-22
9	0xbc088909	-0.008333453
10	0xbcc0d47b	-0.023538819
11	0xbe020bac	-0.12699765
12	0x9c5bbf6a	-7.270842e-22
13	0xbdc6d5ff	-0.09708785
14	0x9ed19a8a	-2.2192652e-20
15	0x9ee3cd45	-2.4119457e-20
16	0x9b256a8b	-1.3682906e-22
17	0x9f3ee323	-4.0421948e-20
18	0xbc7d16dc	-0.015447345
19	0xbe02e998	-0.12784421
20	0x9ce8f2eb	-1.5415265e-21
21	0xbd9577e5	-0.07298259
22	0xbd9f0c98	-0.07766074
23	0xa976c88b	-5.4796916e-14
24	0xbdecc4f0	-0.11561
25	0x9c4c3a33	-6.757316e-22
26	0xbccb6177	-0.024826748
27	0xbcb66491	-0.02226475
28	0x9da8e834	-4.4709322e-21
29	0xbc512e00	-0.012767315
30	0xa8c45dd3	-2.1801061e-14
31	0xbe014659	-0.12624492
32	0xb8164e9e	-3.5836005e-05
33	0xbd81d6bc	-0.063397855
34	0xb886e165	-6.431601e-05
35	0xaae95d3b	-4.1453806e-13
36	0xbde9adfb	-0.11410137
37	0x3bc70646	0.006073746
38	0xbea98fa9	-0.33117417
39	0xa9ec6a6a	-1.0498965e-13
40	0x99652c62	-1.18479856e-23
41	0x3c302024	0.01074985
42	0xb2ba4a92	-2.168716e-08
43	0x3c94ae64	0.018149562
44	0xa12099f8	-5.4413885e-19
45	0xa20466ac	-1.794369e-18
46	0xbe358cfa	-0.1772956
47	0xb7e8b1c1	-2.7739328e-05
48	0xa9b234cc	-7.913947e-14
49	0x981c2895	-2.0183016e-24
50	0xb717f742	-9.057871e-06
51	0xbc92a343	-0.017900115
52	0x9886d81c	-3.4856403e-24
53	0xbc4782e8	-0.012177207
54	0xb41bd52f	-1.4513056e-07
55	0x9ce5ea7e	-1.5214564e-21
56	0xbd10ae05	-0.035322208
57	0x3d30c0fa	0.043152787
58	0xbd9f001d	-0.077636935
59	0xbc0db0d1	-0.008648113
60	0xae1abb82	-3.5182086e-11
61	0xbde47620	-0.11155343
62	0xa45a291e	-4.7306042e-17
63	0x9c3e6a83	-6.300339e-22
64	0xbc2d4024	-0.010574374
65	0xbe120ae8	-0.14261973
66	0x3b75797d	0.0037456446
67	0xbcb03471	-0.021509381
68	0xa5272d49	-1.4500284e-16
69	0x3677c66e	3.692137e-06
70	0xb6a95395	-5.0463227e-06
71	0xb89fdce0	-7.622852e-05
72	0x2061f1de	1.9138268e-19
73	0xac8dd553	-4.0311448e-12
74	0xbd766a72	-0.060160108
75	0xbb886ad8	-0.0041631274
76	0x9917c1da	-7.845665e-24
77	0xbc6c9ccc	-0.01444168
78	0x9fd70c24	-9.107613e-20
79	0xb67ad51c	-3.737695e-06
80	0xb3e006bf	-1.043204e-07

norm2.running_mean f4 [81]
0	0x9b1da5cc	-1.3040307e-22
1	0x8e6dd379	-2.9314326e-30
2	0x12eb9f41	1.4869844e-27
3	0xbbe1cfe8	-0.0068912394
4	0x986829ec	-3.0006462e-24
5	0x18f27fdc	6.268464e-24
6	0xbc4c3d1b	-0.012465741
7	0xb722f3a2	-9.712678e-06
8	0x932f72f7	-2.2144787e-27
9	0x3ba59496	0.005053113
10	0xbb21359a	-0.00245986
11	0xbbfb293d	-0.007664828
12	0x1a01f535	2.687465e-23
13	0xb9762b36	-0.00023476486
14	0x1f110d6a	3.071604e-20
15	0x1c904a8b	9.54839e-22
16	0x8e8ce24b	-3.4730577e-30
17	0x1989d56a	1.4251665e-23
18	0x3c4d398b	0.012525926
19	0x3b00d887	0.001966031
20	0x3582abb1	9.735724e-07
21	0x3bcd7a97	0.0062707174
22	0x3bd02fe1	0.006353364
23	0xa60f0249	-4.961619e-16
24	0xbb965135	-0.0045873174
25	0x160af270	1.1224051e-25
26	0xbbc6a352	-0.00606195
27	0xbca76d4b	-0.020437857
28	0x97ba5994	-1.2042581e-24
29	0x3c70ce12	0.0146975685
30	0xa653f884	-7.354213e-16
31	0xbb8d1147	-0.004305038
32	0xb42bd8e4	-1.600452e-07
33	0xbbf2389b	-0.007392002
34	0x382d54b8	4.1325315e-05
35	0xa252cd5b	-2.8569021e-18
36	0x3cb35506	0.021891128
37	0xbbc8e022	-0.0061302343
38	0x3cb898e3	0.02253384
39	0xa7123954	-2.0292648e-15
40	0x11eea54c	3.765165e-28
41	0xb9a015c9	-0.0003053381
42	0x2a0006c6	1.1371034e-13
43	0xbb59d6da	-0.0033239634
44	0x9c24247b	-5.43102e-22
45	0x16c86412	3.2374896e-25
46	0x3b08b07f	0.0020857153
47	0xb9732f6e	-0.00023191955
48	0xa6236a61	-5.6696156e-16
49	0x0722f147	1.225843e-34
50	0xb4c8620f	-3.732425e-07
51	0xbb204370	-0.0024454258
52	0xb0c7ce22	-1.4537742e-09
53	0xbc1f085b	-0.009706582
54	0xb2bf0781	-2.2238739e-08
55	0x0a3aa342	8.9862796e-33
56	0xbc6f0e3a	-0.014590794
57	0xbb3d877d	-0.0028919869
58	0xbc37faf5	-0.011229266
59	0xb965d0d8	-0.00021916942
60	0x2b0859f5	4.8441746e-13
61	0x3c662a86	0.014048224
62	0x9b184070	-1.2593966e-22
63	0x94b30168	-1.8074936e-26
64	0xbb2490ce	-0.0025110724
65	0x3b0663aa	0.0020506182
66	0x3c468f3e	0.012119113
67	0xb9c11c2f	-0.00036832827
68	0x21448096	6.6577565e-19
69	0x37a941fb	2.0177094e-05
70	0xb6ce3808	-6.1458013e-06
71	0x357dcb76	9.454592e-07
72	0x1996fc8b	1.5611638e-23
73	0x2b7334f4	8.640443e-13
74	0xbbdbd952	-0.006709256
75	0xbb43c988	-0.002987476
76	0x0dde2913	1.3691695e-30
77	0xbc266c9a	-0.010157729
78	0x9a835290	-5.431372e-23
79	0xb41b216c	-1.4447659e-07
80	0xb16efbbd	-3.4776655e-09

norm2.running_var f4 [81]
0	0x00000127	4.13e-43
1	0x00000004	6e-45
2	0x00000004	6e-45
3	0x36f8a5c2	7.4102727e-06
4	0x00000004	6e-45
5	0x00000004	6e-45
6	0x382e9c47	4.1630377e-05
7	0x2e263b77	3.7796846e-11
8	0x00000004	6e-45
9	0x3788abdf	1.6292497e-05
10	0x37b47ed9	2.151674e-05
11	0x37c3c24e	2.3336292e-05
12	0x00000004	6e-45
13	0x37e0115f	2.671097e-05
14	0x00181c59	2.214221e-39
15	0x000005e6	2.116e-42
16	0x00000004	6e-45
17	0x00000009	1.3e-44
18	0x38107ac0	3.4446595e-05
19	0x377e3f6e	1.5154348e-05
20	0x00000004	6e-45
21	0x37c2e27d	2.3232069e-05
22	0x37b38b29	2.1403264e-05
23	0x0c3d5b29	1.4587463e-31
24	0x379c5fcb	1.8641256e-05
25	0x00000004	6e-45
26	0x37d7adba	2.5710895e-05
27	0x38c99c44	9.6135336e-05
28	0x00000008	1.1e-44
29	0x382d16fd	4.1267824e-05
30	0x0ff17077	2.3807755e-29
31	0x3712d4aa	8.751793e-06
32	0x295f7b20	4.962274e-14
33	0x382b391d	4.0822768e-05
34	0x30857e06	9.712842e-10
35	0x059b2757	1.4590581e-35
36	0x390511db	0.0001269052
37	0x3806047c	3.1952266e-05
38	0x3900efa9	0.00012296312
39	0x0eeef897	5.8910913e-30
40	0x00000004	6e-45
41	0x388c3bb6	6.686842e-05
42	0x15277705	3.381927e-26
43	0x3723b75f	9.7582515e-06
44	0x0000084b	2.975e-42
45	0x00000004	6e-45
46	0x37911e14	1.7299353e-05
47	0x32695a87	1.35829685e-08
48	0x11b04478	2.78101e-28
49	0x00000004	6e-45
50	0x2e81777a	5.887464e-11
51	0x381207de	3.481644e-05
52	0x00000004	6e-45
53	0x37c5f744	2.3599372e-05
54	0x268278a7	9.053265e-16
55	0x00000004	6e-45
56	0x37e32f60	2.708257e-05
57	0x37e963b1	2.7822187e-05
58	0x3805f136	3.1934316e-05
59	0x37f089aa	2.8674334e-05
60	0x169a68d5	2.49462e-25
61	0x3826872b	3.970337e-05
62	0x0000002e	6.4e-44
63	0x00000004	6e-45
64	0x380a3063	3.2946828e-05
65	0x37607590	1.3378813e-05
66	0x38520cfb	5.007999e-05
67	0x3801c221	3.0936793e-05
68	0x03810a4f	7.584305e-37
69	0x2f8b7319	2.5365735e-10
70	0x2e0d8539	3.2178014e-11
71	0x2ebd4cc4	8.608361e-11
72	0x00000007	1e-44
73	0x17cb81c6	1.3151327e-24
74	0x3807379b	3.2238295e-05
75	0x362267ce	2.4200303e-06
76	0x00000004	6e-45
77	0x378e7e67	1.698658e-05
78	0x00000009	1.3e-44
79	0x28cbaeb1	2.2613288e-14
80	0x228fa1e2	3.8931628e-18

conv_layer3.weight f4 [81, 81, 3, 3]
0	0x1c72c16f	8.032109e-22
1	0x9cd5a248	-1.4137106e-21
2	0x9c91d747	-9.650943e-22
3	0x1d1965f2	2.0302086e-21
4	0x14060ffe	6.768425e-27
5	0x1cb62808	1.2054098e-21
6	0x1d9c7006	4.1408686e-21
7	0x1d142a83	1.9609615e-21
8	0x1d7726ee	3.2710304e-21
9	0x0001475d	1.17436e-40
10	0x0000c070	6.9034e-41
11	0x80008872	-4.8947e-41
12	0x80016b3f	-1.30308e-40
13	0x00091210	8.32999e-40
14	0x800057fd	-3.1564e-41
15	0x00013253	1.09888e-40
16	0x8000d5d6	-7.671e-41
17	0x00003de0	2.2197e-41
18	0x000107b2	9.4596e-41
19	0x000118ff	1.00802e-40
20	0x8000183d	-8.695e-42
21	0x0000c79c	7.1606e-41
22	0x00005b03	3.2649e-41
23	0x8000f0ed	-8.6428e-41
24	0x80000999	-3.443e-42
25	0x80006a21	-3.8072e-41
26	0x800170df	-1.32326e-40
27	0x3a5ca036	0.0008416207
28	0xb9856c3c	-0.00025448378
29	0x388b4848	6.6415e-05
30	0xb8b03c05	-8.4035135e-05
31	0x376cbdb0	1.4110861e-05
32	0x3ad1b61d	0.0015999709
33	0x38ebe50c	0.000112483365
34	0xb9c0f048	-0.00036800117
35	0x3a03e591	0.00050314615
36	0x1f498cbc	4.2679818e-20
37	0x9c314164	-5.8648903e-22
38	0x1f7cc108	5.3522747e-20
39	0x1ee1ef69	2.392182e-20
40	0x148a3537	1.3955429e-26
41	0x1f58aa2a	4.5880536e-20
42	0x1fe9c068	9.899765e-20
43	0x1fa470ea	6.96435e-20
44	0x1fa69bd2	7.056152e-20
45	0x0e7cd4fa	3.1163943e-30
46	0x0b7ea89c	4.9045468e-32
47	0x0e5f0721	2.7490305e-30
48	0x0dc1c8fe	1.194293e-30
49	0x0413827d	1.7339684e-36
50	0x0d96f135	9.302532e-31
51	0x0e5366d6	2.6057272e-30
52	0x0c00bfb8	9.918455e-32
53	0x0e12ca98	1.8093435e-30
54	0xbc3aed24	-0.011409078
55	0xbcab47a6	-0.020908188
56	0xbc639066	-0.013889408
57	0xbc192e4a	-0.009349415
58	0x3d945952	0.07243599
59	0xbc36c3e2	-0.011155101
60	0xbc4868db	-0.012232031
61	0xbca09824	-0.019603796
62	0xbc3c6e38	-0.011500888
63	0x2c96dffd	4.288124e-12
64	0x2b46a80b	7.057694e-13
65	0x2bec3528	1.6783562e-12
66	0xacbb225c	-5.3186743e-12
67	0xab8ae8c8	-9.8701e-13
68	0xac884a08	-3.8735716e-12
69	0x2c135ac5	2.0940344e-12
70	0xaaa10880	-2.8605243e-13
71	0x2a351ebf	1.6086697e-13
72	0x0000cf0c	7.4274e-41
73	0x000910bb	8.32521e-40
74	0x00012552	1.05224e-40
75	0x800192b8	-1.44468e-40
76	0x83438bc3	-5.746579e-37
77	0x800b97ae	-1.064603e-39
78	0x80010f90	-9.7418e-41
79	0x8000063d	-2.238e-42
80	0x0000d7c5	7.7404e-41
81	0x3ac8302c	0.0015273145
82	0x3b99d368	0.004694391
83	0x3bac47aa	0.0052575665
84	0x3b910677	0.0044258195
85	0xbb56f30b	-0.0032798673
86	0x3bbc36c6	0.005743834
87	0x3b5a6c6a	0.003332878
88	0x3bdef789	0.006804411
89	0x3b0fb802	0.0021929746
90	0x3ab640fb	0.0013904864
91	0x3ba0beb2	0.004905545
92	0xbb19f9f8	-0.002349494
93	0x3ab3b7cd	0.0013711393
94	0x3a5a5ea7	0.00083301443
95	0x3b8ddafc	0.0043290835
96	0x39e0568c	0.00042789092
97	0xb95a2bb8	-0.00020806387
98	0xbb24ed9a	-0.0025166036
99	0xb91d5a0a	-0.00015006229
100	0x3c5da205	0.013527398
101	0xb9aca0d3	-0.0003292622
102	0xbb8ca6b4	-0.0042923335
103	0xbb2cda97	-0.0026375407
104	0xbb3aa1e3	-0.002847784
105	0xbbb1a9b8	-0.0054218434
106	0xbcb406dc	-0.021975927
107	0xbbfc5853	-0.0077009588
108	0x95548e12	-4.2925133e-26
109	0x9542af79	-3.931641e-26
110	0x1417f9bf	7.6728055e-27
111	0x9224f568	-5.205176e-28
112	0x8fadafc2	-1.7126817e-29
113	0x159d56ff	6.354905e-26
114	0x14bd732a	1.9129547e-26
115	0x134d05eb	2.5877555e-27
116	0x158cd2e9	5.687831e-26
117	0x39cbdd50	0.00038884068
118	0xba1b2059	-0.0005917601
119	0xb9ff2b00	-0.00048669428
120	0xbb286a59	-0.0025698154
121	0xbadace15	-0.0016693497
122	0x3ac4d038	0.0015015667
123	0x3b5cf913	0.0033717796
124	0x39e48522	0.0004358674
125	0xba7d0468	-0.00096518407
126	0x0009842e	8.73937e-40
127	0x0005c8c3	5.31197e-40
128	0x80045825	-3.98962e-40
129	0x00091755	8.3489e-40
130	0x8012b53b	-1.718052e-39
131	0x000a4981	9.44723e-40
132	0x001913fa	2.303054e-39
133	0x0001e130	1.72618e-40
134	0x0002f952	2.7311e-40
135	0x00004350	2.4147e-41
136	0x80002a45	-1.5163e-41
137	0x800006cf	-2.442e-42
138	0x00012497	1.04961e-40
139	0x000140dd	1.15104e-40
140	0x80001f20	-1.1166e-41
141	0x000153c7	1.21889e-40
142	0x80003678	-1.954e-41
143	0x80007ebb	-4.5462e-41
144	0x00001492	7.379e-42
145	0x800064db	-3.618e-41
146	0x00008dc5	5.0857e-41
147	0x002c9ca9	4.096961e-39
148	0x812ac3e1	-3.1364605e-38
149	0x8009643f	-8.62481e-40
150	0x00000e10	5.045e-42
151	0x800046cc	-2.5397e-41
152	0x000072ee	4.1229e-41
153	0x9c2429c1	-5.4317014e-22
154	0x9ac7af7a	-8.258797e-23
155	0x9cd5d02b	-1.4148968e-21
156	0x1a1aa747	3.198158e-23
157	0x926a6ab3	-7.39689e-28
158	0x9c12873d	-4.848214e-22
159	0x1c192ea7	5.068375e-22
160	0x1c827577	8.633042e-22
161	0x9b7a03e1	-2.0680769e-22
162	0x3b53458f	0.0032237505
163	0x3b038902	0.0020070677
164	0xbb01daf1	-0.0019814337
165	0x3b3db5a0	0.0028947368
166	0x39c3e6d8	0.0003736529
167	0x3a2258ae	0.0006193024
168	0xbaca327a	-0.001542642
169	0x3a5a95b9	0.00083383505
170	0x3ba3964f	0.0049922834
171	0x3a9f838f	0.0012169945
172	0x38e223c8	0.000107831846
173	0x3b08f3a6	0.002089718
174	0x3a95b486	0.0011421598
175	0x3aa3cab7	0.0012496327
176	0x3a3d9bb6	0.00072329806
177	0x3b0547f4	0.0020337077
178	0x3bd341ce	0.0064470535
179	0xba4e6d49	-0.0007874561
180	0x8000e200	-8.1074e-41
181	0x00004071	2.3117e-41
182	0x80003d7d	-2.2058e-41
183	0x80000e5c	-5.151e-42
184	0x0003a620	3.35101e-40
185	0x80000cb1	-4.553e-42
186	0x00001727	8.305e-42
187	0x80006665	-3.6732e-41
188	0x0000ecf5	8.5004e-41
189	0xba67c190	-0.0008840794
190	0x3ad593b2	0.0016294627
191	0x397790c2	0.00023609682
192	0x3a4a8a81	0.0007726327
193	0xbb9fd875	-0.0048780986
194	0xba0d4ca1	-0.0005390142
195	0xb90e1310	-0.00013549277
196	0xb976f332	-0.00023550985
197	0xb9eb7e91	-0.00044916992
198	0xba917504	-0.0011097495
199	0x39b4202c	0.00034356245
200	0x3a9441d7	0.0011311126
201	0x3a248601	0.00062760717
202	0xbaf6617e	-0.0018797365
203	0x38f48200	0.00011659041
204	0x3aa46680	0.0012542754
205	0x3a8046ef	0.0009786765
206	0xba1e478c	-0.0006037883
207	0x955a62ce	-4.4102693e-26
208	0x9487dd73	-1.3718863e-26
209	0x93c53018	-4.9777216e-27
210	0x15d5037f	8.603553e-26
211	0x91818717	-2.0435867e-28
212	0x15035576	2.6522656e-26
213	0x14e875bc	2.3472451e-26
214	0x94571863	-1.08595355e-26
215	0x95e40828	-9.2101335e-26
216	0x3a92e150	0.0011206064
217	0xbca3fefc	-0.020019047
218	0x3aca1cd2	0.0015419966
219	0xbaca7308	-0.0015445659
220	0xbb3611e9	-0.0027781671
221	0xbb445156	-0.0029955707
222	0xb996d5f6	-0.00028769643
223	0x3c31f4a3	0.010861549
224	0x3aed26e4	0.0018093255
225	0x9489a8a2	-1.3899979e-26
226	0x12666cdc	7.2709383e-28
227	0x92969625	-9.503344e-28
228	0x9420ee06	-8.1248775e-27
229	0x8baf605b	-6.755253e-32
230	0x939e7e9a	-4.0009646e-27
231	0x951812eb	-3.071108e-26
232	0x941ad270	-7.8165146e-27
233	0x93f754b7	-6.24351e-27
234	0xbb680d1e	-0.003540821
235	0xba39ffec	-0.0007095325
236	0x3ad032b6	0.0015884254
237	0xbb3c68ae	-0.0028748917
238	0x39fdb2ba	0.00048389082
239	0xba99a179	-0.0011721096
240	0x39c92ea2	0.00038372452
241	0xbb1ac979	-0.0023618622
242	0x3b636a38	0.0034700762
243	0x3b651bad	0.0034959123
244	0x3b928762	0.0044717053
245	0x3b67e3e2	0.0035383631
246	0x3b6aee17	0.003584748
247	0xbcc7d205	-0.024392137
248	0x3ba58d06	0.0050522117
249	0x3b1de56c	0.0024093045
250	0x3bf52d0a	0.0074821757
251	0x3b08fd54	0.0020902948
252	0x8cf88016	-3.828754e-31
253	0x0c83f640	2.0331952e-31
254	0x8c4a8fbc	-1.5604767e-31
255	0x8daf73b8	-1.0813066e-30
