sudoku_cnn.pth (torch, 310754 bytes, 20 tensors)

conv_layer1.weight f4 [64, 1, 3, 3]
0	0x3a5a57c3	0.00083291176
1	0x39980a17	0.00028999217
2	0xb862488e	-5.395017e-05
3	0x39e2c546	0.0004325306
4	0x3df7b2ad	0.120946266
5	0x3a616c28	0.00085991854
6	0x3925deac	0.00015818578
7	0x3a49bf1a	0.0007696018
8	0xba04a34e	-0.00050597347
9	0x39b80dfa	0.00035105628
10	0xbdab97ef	-0.083785884
11	0x3a0df8ba	0.0005415786
12	0xb9054300	-0.00012708828
13	0xbe00e08d	-0.1258566
14	0xb991dcc5	-0.0002782104
15	0x3abaa6cf	0.0014240387
16	0xba474d76	-0.000760279
17	0x3aec730a	0.0018039655
18	0x3a2dd122	0.00066305895
19	0xba88bf17	-0.0010432926
20	0x3b92b7be	0.00447747
21	0xbc272581	-0.010201813
22	0x3de40390	0.11133492
23	0xbc2b0089	-0.010437139
24	0x3c1e04f2	0.009644734
25	0xbb876c39	-0.004132774
26	0x389e6a70	7.5538526e-05
27	0x38077b84	3.230154e-05
28	0x3a87184f	0.0010306927
29	0xb8730ec7	-5.7949477e-05
30	0x38c95f26	9.60215e-05
31	0x3df2399d	0.11827395
32	0x3a59abea	0.000830351
33	0xba086bf8	-0.0005204077
34	0x39eb362b	0.0004486305
35	0xb9974664	-0.0002885341
36	0x38ec9672	0.000112813796
37	0xbaed0e3a	-0.0018085905
38	0xb96c1cc2	-0.00022517427
39	0xba4b04b3	-0.00077445357
40	0xbe04e2e1	-0.12977172
41	0x38dd39f8	0.00010548899
42	0x39a018ba	0.00030536
43	0x389ac20a	7.379435e-05
44	0x3a466063	0.00075674633
45	0xbc629894	-0.013830323
46	0xbb2d0366	-0.002639973
47	0xb9c54c98	-0.00037631835
48	0xbd3acc20	-0.045604825
49	0x3be99344	0.007128151
50	0x3b5848f3	0.0033002465
51	0xbc8dc02a	-0.017303545
52	0x3a019ab3	0.00049440115
53	0x3b48088a	0.0030522668
54	0x3be351ea	0.006937255
55	0xbcf34838	-0.029697523
56	0x3c42e7cc	0.011896085
57	0x3d1a6ba7	0.03770032
58	0x3b831cbd	0.0040012286
59	0xbd29f8b1	-0.041496936
60	0x3c0b9125	0.008518492
61	0x3b8f4b7e	0.004373013
62	0x3bfbfd2b	0.007690092
63	0x3b5de87d	0.0033860498
64	0x3ad3c1fe	0.0016155837
65	0x3a928624	0.0011178893
66	0x3a16696b	0.00057377544
67	0xbb4dde84	-0.0031413147
68	0x3b172eea	0.0023068734
69	0x3a9de215	0.0012045527
70	0x3d968490	0.07349503
71	0x3da1fe51	0.07909835
72	0x3a80f1f0	0.0009837728
73	0x3d87fc23	0.06639888
74	0xbbc2e06c	-0.0059471633
75	0xbb9816ae	-0.0046413755
76	0x3b120fd1	0.002228726
77	0xbbfbbfa0	-0.0076827556
78	0xbbefb501	-0.0073152785
79	0x3bb0a8e4	0.005391227
80	0xbba555df	-0.005045637
81	0x3dba4fe0	0.09097266
82	0x3b470ac2	0.0030371402
83	0x3c605eb3	0.013694453
84	0x3c61ee5e	0.013789741
85	0x3d14fda3	0.0363747
86	0x3ab4ec74	0.0013803379
87	0x3c989359	0.018624948
88	0x3c4f0000	0.012634277
89	0x3b04b318	0.002024835
90	0x3c5d9230	0.013523623
91	0x3bc32f52	0.0059565688
92	0x3c854b8c	0.016271375
93	0x3d59e337	0.053195205
94	0xbd7bc24e	-0.0614646
95	0x3c3e8d3d	0.0116303535
96	0xbc7380cb	-0.01486225
97	0xbc0abd16	-0.008467933
98	0xbbeb6717	-0.00718392
99	0x3b3acc69	0.0028503186
100	0xbda84299	-0.082158275
101	0x3afc3bd2	0.0019243902
102	0x3b2d4f20	0.0026444867
103	0xbcd8e3d6	-0.026475828
104	0x3a702e9e	0.000916222
105	0x3a506107	0.00079490285
106	0x39a55ab8	0.00031538843
107	0xba4ba72f	-0.0007768748
108	0x3a0f067e	0.00054559845
109	0x3a83d856	0.001005898
110	0x3a5d3296	0.0008438019
111	0x3b5f6e7b	0.003409295
112	0x3c99f733	0.018794632
113	0x3b30612c	0.0026913388
114	0xbc3a59b7	-0.011373929
115	0xbdc826c9	-0.09773023
116	0xbb35d308	-0.0027744193
117	0x3a041c9e	0.00050396647
118	0x3b6b9126	0.003594467
119	0x394cd0a1	0.00019532676
120	0xbde61f12	-0.11236395
121	0x3b89e83c	0.0042085927
122	0x3b550c83	0.0032508678
123	0xbc1b68ce	-0.009485437
124	0x3aca4393	0.0015431516
125	0x3a92e316	0.0011206593
126	0x39e3fd3d	0.0004348549
127	0x3accabd1	0.001561517
128	0xbb27441d	-0.0025522776
129	0xba3e2005	-0.0007252696
130	0x392ff4e8	0.00016780535
131	0x3aab0198	0.001304674
132	0xba310128	-0.00067521865
133	0xbdfd4e40	-0.12368441
134	0x39c7bd7e	0.0003809742
135	0x3b0eae96	0.0021771542
136	0x39a4ecbd	0.000314569
137	0xb98a48f6	-0.0002637577
138	0x39c2d8ce	0.00037164096
139	0x39a17786	0.00030797365
140	0xbdfaa57b	-0.12238594
141	0xba7ec3dc	-0.00097185164
142	0x3a28d6ec	0.0006440717
143	0x3a143ecb	0.0005655109
144	0x3b9f605b	0.0048637814
145	0x3ae9cf92	0.001783835
146	0x3a835eb4	0.001002273
147	0xbab7d2e0	-0.0014024638
148	0x3d8d2459	0.068916984
149	0x3965db8a	0.00021920927
150	0xbb3fd0d1	-0.0029268751
151	0x3d979f68	0.07403451
152	0xbc32266c	-0.010873418
153	0x3ab20a30	0.0013583358
154	0x3a15e6cf	0.0005718292
155	0x3a0f71e6	0.0005471989
156	0xb982666d	-0.00024871845
157	0xbdbb6b32	-0.09151305
158	0xbdbe41b4	-0.092898756
159	0xb9a2286a	-0.0003092916
160	0x39518ad0	0.00019983505
161	0x3a5a5528	0.00083287293
162	0x3c07f832	0.0082989205
163	0xbbd52acf	-0.0065053473
164	0x3b040d61	0.0020149576
165	0x3c28239a	0.010262394
166	0x3b71c8e0	0.0036893412
167	0x3c1836cf	0.009290411
168	0x3b661c35	0.0035112028
169	0xbb1b8403	-0.0023729808
170	0xbd9f89dd	-0.07789967
171	0x3aaaeb0b	0.0013040019
172	0x3a2b89a0	0.000654364
173	0x3b058678	0.002037434
174	0xb98053df	-0.0002447655
175	0xbdd4d71b	-0.103925906
176	0xbd92680e	-0.07148753
177	0x389379fa	7.032226e-05
178	0x39e0f4c0	0.00042906962
179	0x3abb0103	0.0014267269
180	0x3b93cb1d	0.004510297
181	0x3bc87672	0.0061176354
182	0x3ada3d98	0.0016650436
183	0x3b5c0a7d	0.0033575587
184	0xbaa797d8	-0.0012786342
185	0xbda77d87	-0.08178239
186	0x3bb31db3	0.005466187
187	0x3b778e5c	0.0037774062
188	0x3bbd244a	0.0057721483
189	0x3a8c16f5	0.0010687994
190	0x3a08615d	0.00052024965
191	0x3ba037e7	0.0048894766
192	0xbdd532af	-0.10410058
193	0xbaf8047c	-0.0018922235
194	0x3b78288b	0.0037865962
195	0x3c15c760	0.009141773
196	0x3b01e8e7	0.0019822659
197	0x3b8f9298	0.004381489
198	0x39ec007c	0.0004501379
199	0xb9f925cd	-0.00047521145
200	0xb99ae390	-0.00029542716
201	0x3dd19637	0.10233729
202	0x3dd0e1ab	0.10199293
203	0xba98b5f2	-0.0011650904
204	0xb9580ba1	-0.00020603697
205	0x3a2c20a7	0.0006566145
206	0xbac0889c	-0.001468915
207	0x3a5cb7e7	0.00084197376
208	0x39894307	0.00026180616
209	0xb9a05443	-0.00030580358
210	0xbaefdc35	-0.001829988
211	0x3a38a943	0.0007044265
212	0xba80f77c	-0.0009839381
213	0x3aeba2bc	0.0017977576
214	0x3e0dd05e	0.13849017
215	0x3797295b	1.801986e-05
216	0x3b883abd	0.004157393
217	0x3da01113	0.07815757
218	0x3c129b5e	0.008948175
219	0xbb5a9a28	-0.0033356044
220	0xbd0115dc	-0.031514987
221	0xba0e151f	-0.00054200174
222	0x3affa396	0.0019503708
223	0xbb548fcb	-0.003243434
224	0x3b8c5f74	0.00428384
225	0x3b46c059	0.003032705
226	0xbaf60d5e	-0.0018772294
227	0xba430a65	-0.00074402086
228	0xbd5f17f3	-0.0544662
229	0x3b8c94b3	0.0042901873
230	0x3a180fe1	0.0005800706
231	0x3aa44e78	0.0012535593
232	0x3b2cbd61	0.0026357996
233	0xbd821ebe	-0.0635352
234	0x387f0d4f	6.0809132e-05
235	0xba8c56ea	-0.0010707055
236	0x384a602c	4.825012e-05
237	0xb9c174b1	-0.0003689877
238	0xbe2ec819	-0.17068519
239	0xb9ad0ec7	-0.0003300814
240	0x3aa0737e	0.0012241451
241	0xb86b5c1c	-5.611415e-05
242	0x3a894aa1	0.0010474512
243	0x3abee399	0.0014563679
244	0x3c1d5bb2	0.009604381
245	0x3c16cfbd	0.009204802
246	0xbb2de62f	-0.0026534905
247	0xbe0b500f	-0.13604759
248	0x3ce26b83	0.027639156
249	0xba6a4fe7	-0.0008938298
250	0x3b620e50	0.0034493394
251	0x3d16359e	0.036672227
252	0x39d366a4	0.0004032153
253	0x3a4611e4	0.00075557665
254	0xba19893b	-0.0005856936
255	0xb83feddb	-4.575947e-05

conv_layer1.bias f4 [64]
0	0xb46f8185	-2.2305728e-07
1	0xb66d9804	-3.5404237e-06
2	0xb3092ebb	-3.19403e-08
3	0xb6617620	-3.359637e-06
4	0xb60168f2	-1.9283584e-06
5	0x341eb368	1.4780164e-07
6	0xb41e3415	-1.4733844e-07
7	0x3584b530	9.887499e-07
8	0xb4893ae8	-2.5561098e-07
9	0x35eb7a30	1.7544426e-06
10	0x31335b7c	2.609993e-09
11	0x358a9ddd	1.0327745e-06
12	0x34165275	1.3999836e-07
13	0xb5e7638e	-1.7239815e-06
14	0x343244de	1.6602596e-07
15	0x35e6f2ba	1.7206978e-06
16	0x345b4696	2.0421643e-07
17	0x3320ea8c	3.7466222e-08
18	0x34c2c599	3.6279087e-07
19	0x3508a63d	5.0905857e-07
20	0xb54509b1	-7.340232e-07
21	0x3502782b	4.860364e-07
22	0xb4d88c6c	-4.0335306e-07
23	0xb594debe	-1.1091686e-06
24	0xb580e9b9	-9.604765e-07
25	0xb4f30354	-4.52647e-07
26	0xb461b405	-2.1020249e-07
27	0x3421db5a	1.5074093e-07
28	0x34a0dfd3	2.9965176e-07
29	0x3604e4a3	1.9802617e-06
30	0xb481eaa3	-2.4198843e-07
31	0xb528407d	-6.267872e-07
32	0x3334fb02	4.2137806e-08
33	0x34dca32e	4.1096922e-07
34	0xb53d6e21	-7.0568245e-07
35	0x356e8616	8.885703e-07
36	0xb24175de	-1.12608785e-08
37	0x33e1b84f	1.05109045e-07
38	0xb4d439f8	-3.9530255e-07
39	0x344d7f57	1.9138439e-07
40	0xb3093326	-3.1944317e-08
41	0x351ad1b3	5.7674623e-07
42	0x3493b9c6	2.7516052e-07
43	0x358f6377	1.0683278e-06
44	0xb34a05c9	-4.703705e-08
45	0x367c1cf6	3.7567784e-06
46	0xb2030899	-7.6271585e-09
47	0xb4230c84	-1.5185111e-07
48	0x340463a3	1.2329706e-07
49	0x35512582	7.791315e-07
50	0x34e092fe	4.1830202e-07
51	0x350c77e6	5.232854e-07
52	0xb6a8d069	-5.0310523e-06
53	0x339c5f1a	7.281615e-08
54	0x353d30c3	7.0478944e-07
55	0x349d2b17	2.927488e-07
56	0x35bee86e	1.4223749e-06
57	0x32ba32ce	2.1676353e-08
58	0x35f26475	1.8059642e-06
59	0x359e845c	1.1810439e-06
60	0xb5306dac	-6.57247e-07
61	0x35e9714e	1.7392829e-06
62	0x35200f79	5.962716e-07
63	0x33a40e21	7.639415e-08

norm1.weight f4 [64]
0	0x3e941236	0.28920144
1	0x3e8696f9	0.26287058
2	0x3e367359	0.17817439
3	0x3e92a128	0.28638577
4	0x3e8077de	0.2509145
5	0x3d899525	0.067179
6	0x3da35a6d	0.07976232
7	0x3e055c00	0.13023376
8	0x3da19218	0.07889193
9	0x3e058931	0.13040616
10	0x3dcaee0c	0.09908685
11	0x3e04dd55	0.12975056
12	0x3df6f62c	0.12058672
13	0x3e2c7825	0.16842707
14	0x3e6160c8	0.22009575
15	0x3e7b15a0	0.24519968
16	0x3e067d5c	0.13133758
17	0x3e567b4f	0.20945476
18	0x3db8c7dd	0.09022496
19	0x3e3e88eb	0.18606918
20	0x3df27a56	0.1183974
21	0x3e1d5b73	0.15366916
22	0x3e834668	0.25639653
23	0x3e926d0d	0.28598824
24	0x3df8ecdb	0.121545516
25	0x3de2ef67	0.110808186
26	0x3eb53cc9	0.35397938
27	0x3e2cf505	0.16890343
28	0x3ea4c029	0.32177857
29	0x3dd16726	0.10224752
30	0x3eaef13a	0.34168416
31	0x3dda82a1	0.10669447
32	0x3df08366	0.11743812
33	0x3d892ee1	0.066983946
34	0x3db78d08	0.089624465
35	0x3e60d942	0.21957877
36	0x3df65450	0.120278
37	0x3e0d603c	0.13806242
38	0x3e2f9de6	0.17150077
39	0x3dddda26	0.10832624
40	0x3daf6556	0.0856425
41	0x3e36cecd	0.17852326
42	0x3e052b27	0.13004743
43	0x3e2ebc2d	0.17063971
44	0x3dff511d	0.12466643
45	0x3e7a0f70	0.24419951
46	0x3e8f4d70	0.27988768
47	0x3e0b4240	0.13599491
48	0x3d980beb	0.07424148
49	0x3e69f4c9	0.22847284
50	0x3deb18d3	0.11479344
51	0x3dbf8324	0.09351185
52	0x3f0e1cf9	0.5551296
53	0x3e07cf33	0.13262634
54	0x3eb3c013	0.35107478
55	0x3ddc8388	0.10767275
56	0x3e3aa9bf	0.18228815
57	0x3e8705e7	0.2637169
58	0x3eecedfd	0.4627532
59	0x3e22dd71	0.15904786
60	0x3e4a7200	0.1977005
61	0x3e45b5eb	0.19307677
62	0x3eaf4fdc	0.34240615
63	0x3e1abfc9	0.15112223

norm1.bias f4 [64]
0	0xbdcc797e	-0.0998411
1	0x3cd7d9b2	0.026348922
2	0xbe4b027e	-0.1982517
3	0xbdc7669f	-0.0973637
4	0xbc37f429	-0.011227646
5	0xbd21dbc2	-0.039516218
6	0xbd5c2d4b	-0.053754132
7	0xbd437b9f	-0.047725316
8	0xbde1e734	-0.110304266
9	0xbdf0a42a	-0.11750062
10	0xbd2dc0bb	-0.04242013
11	0xbd472b44	-0.048625246
12	0xbd02e855	-0.03195985
13	0xbd4fc8f2	-0.050728746
14	0xbd05644e	-0.03256636
15	0x3d578ca0	0.052624345
16	0xbdcd9732	-0.10038604
17	0x3d9d986f	0.0769509
18	0xbd0e3def	-0.034727033
19	0x3c857823	0.016292637
20	0xbd2d19d1	-0.04226095
21	0xbd4a140f	-0.049335536
22	0xbdd402b3	-0.10352077
23	0xbe2c38eb	-0.16818587
24	0xbdb3b3d9	-0.087745376
25	0x3c9dbd12	0.019255195
26	0x3dd7f2d4	0.10544363
27	0x3b25ecd3	0.002531816
28	0xbdddb0e0	-0.10824752
29	0xbd507fc2	-0.05090309
30	0x3dcfaede	0.10140775
31	0xbc9b2aff	-0.0189414
32	0xbe277ec8	-0.16356957
33	0xbd1a933e	-0.037738077
34	0xbd0a1f9e	-0.03372156
35	0xbda1fc89	-0.079094954
36	0xbd757fcf	-0.05993634
37	0xbdf68ded	-0.12038789
38	0xbe1ae90d	-0.15127964
39	0xbcbbbe34	-0.022917844
40	0xbd2222de	-0.039584033
41	0xbd2ef766	-0.042716406
42	0xbdbf9911	-0.09355367
43	0x3c87f7fe	0.016597744
44	0xbda68d34	-0.08132401
45	0x3d6b8220	0.057497144
46	0xbe28d059	-0.16485728
47	0xbdc9a6e3	-0.09846284
48	0xbd264729	-0.040595207
49	0x3d8c1eaa	0.06841786
50	0xbd96923f	-0.07352113
51	0xbd826736	-0.06367342
52	0x3e2ba12b	0.167607
53	0xbe39479d	-0.18093725
54	0xbdf05b70	-0.1173619
55	0xbb8fd231	-0.0043890704
56	0xbdf3e7cc	-0.11909446
57	0xbe5b8fe1	-0.21441604
58	0x3c324b27	0.0108821755
59	0xbda2cc38	-0.07949108
60	0x3d0ca369	0.034335528
61	0x3d5c7d5c	0.05383049
62	0xbdeb8258	-0.114994705
63	0xbde34b36	-0.1109833

norm1.running_mean f4 [64]
0	0xbd07f615	-0.033193666
1	0x3d5b7f25	0.05358805
2	0xbce1815c	-0.027527504
3	0xbd03abe1	-0.03214634
4	0x3d0de52b	0.03464238
5	0x3c5de20c	0.013542663
6	0xba9608a0	-0.0011446662
7	0xbd115f67	-0.035491373
8	0xbc338d75	-0.010959019
9	0xbd34ee55	-0.044172604
10	0xb998648d	-0.00029066615
11	0x3cd373a3	0.025811976
12	0x3c9ac0af	0.018890707
13	0x3ccea880	0.025226831
14	0x3ce90e66	0.028449249
15	0x3cedcaf8	0.029027447
16	0xbd0f3abc	-0.034968123
17	0x3d39b3bf	0.045337435
18	0x3c1d082b	0.009584467
19	0x3d35a519	0.044346903
20	0x3c6456f9	0.0139367515
21	0x3ca28b2d	0.019841755
22	0xbd526754	-0.051368073
23	0xbd079d30	-0.03310889
24	0xbc49d3ca	-0.012318561
25	0x3cc80383	0.024415737
26	0x3d39e0b3	0.045380305
27	0x3c8e9367	0.017404271
28	0xbd11551a	-0.03548155
29	0x3c7473ab	0.0149201555
30	0x3d2f4fcf	0.04280072
31	0xbc9b00e9	-0.018921332
32	0xbc816d18	-0.01579909
33	0xbb979b5f	-0.004626676
34	0xbc8fbd90	-0.017546445
35	0xbcdd8a7e	-0.027043577
36	0x3c8486da	0.016177583
37	0xbd824609	-0.063610144
38	0xbd282966	-0.041055106
39	0x3c5e93d4	0.01358505
40	0x3bca2e1e	0.0061700484
41	0x3ca689d3	0.020329392
42	0xbc824282	-0.015900854
43	0xba58f6ef	-0.0008276542
44	0xbcd9d231	-0.026589485
45	0x3ce33df4	0.027739502
46	0xbce7b8f8	-0.028286442
47	0xbd919412	-0.0710832
48	0xbc909012	-0.017646823
49	0xbbc03081	-0.005865157
50	0xbccce85d	-0.025013143
51	0xbbc54faa	-0.0060214596
52	0x3d615830	0.055015743
53	0xbc76a9c9	-0.015055128
54	0xbd153ffc	-0.036437973
55	0x3cabd217	0.020974202
56	0xbc81d88b	-0.015850326
57	0xbceb70d3	-0.028740322
58	0xbd46ccd2	-0.048535176
59	0xbd06ed36	-0.032941066
60	0x3ccf4436	0.02530108
61	0x3d03a7e5	0.03214254
62	0xbd162f1c	-0.03666602
63	0xbced6f99	-0.028983878

norm1.running_var f4 [64]
0	0x3ad1a09e	0.0015993302
1	0x3b15cd77	0.0022858062
2	0x3aba9001	0.001423359
3	0x3ac990b7	0.0015378211
4	0x3af07e87	0.0018348255
5	0x3993baec	0.00028177293
6	0x3a0275ad	0.00049766415
7	0x3a9bae37	0.0011877482
8	0x39fc7c18	0.00048157643
9	0x3a85efdc	0.0010218578
10	0x3a644213	0.00087073556
11	0x3a45d9d5	0.0007547413
12	0x3a8f26c7	0.0010921591
13	0x3ab0f759	0.001350145
14	0x3acecbd1	0.0015777295
15	0x3acf26cc	0.0015804409
16	0x3a866f40	0.0010256544
17	0x3adea5e6	0.0016986697
18	0x3a272d72	0.00063773163
19	0x3ad42b5e	0.0016187241
20	0x3a40b824	0.0007351658
21	0x3a990a21	0.0011675992
22	0x3b07ccf1	0.002072152
23	0x3b02b705	0.0019945514
24	0x3a5227db	0.0008016803
25	0x3a39d22e	0.0007088509
26	0x3b52a19c	0.0032139784
27	0x3b1ae638	0.0023635756
28	0x3af6a49e	0.001881737
29	0x39fa8887	0.00047785437
30	0x3b3b0664	0.0028537745
31	0x3aa8a5c4	0.0012866785
32	0x3a34f2c3	0.00069026294
33	0x39e1aeef	0.0004304568
34	0x3a8c3dff	0.0010699629
35	0x3a849064	0.0010113833
36	0x3a1d16b2	0.00059924566
37	0x3aca5cc9	0.0015439029
38	0x3abc5573	0.0014368728
39	0x39df7e1e	0.0004262784
40	0x3a183c9f	0.0005807373
41	0x3a86e356	0.001029114
42	0x3a51c6f5	0.0008002364
43	0x3b282aaf	0.0025660207
44	0x3a579f1f	0.000822531
45	0x3ad188f6	0.0015986252
46	0x3ac84240	0.0015278533
47	0x3aea5b36	0.0017879966
48	0x3a1a8256	0.00058940554
49	0x3b7dd7d3	0.0038733378
50	0x3a2f86f0	0.00066958275
51	0x3a7950d0	0.0009510638
52	0x3b993a0c	0.004676109
53	0x3a6131e9	0.0008590506
54	0x3b01a7ed	0.001978393
55	0x3a214ddd	0.0006153265
56	0x3a895bc0	0.0010479614
57	0x3b2f94d0	0.002679158
58	0x3b6017a8	0.0034193788
59	0x3aa21294	0.0012365156
60	0x3a9de139	0.0012045271
61	0x3aa4aff8	0.001256465
62	0x3b02909f	0.0019922627
63	0x3a6f1d9d	0.0009121539

conv_layer2.weight f4 [64, 64, 3, 3]
0	0xbb498283	-0.0030747957
1	0xb9694a1b	-0.00022248218
2	0xbacdd802	-0.0015704634
3	0xbb908aa5	-0.004411059
4	0x3a9ebd5e	0.0012110879
5	0xbb969a97	-0.0045960653
6	0xbb0d2be4	-0.0021541053
7	0x3b33e2cf	0.002744842
8	0xbba46402	-0.0050168047
9	0xbc34ba45	-0.011030738
10	0xbcd14f70	-0.025550574
11	0xbbd3f6bf	-0.0064686234
12	0xbb07a37a	-0.0020696805
13	0xbc59c592	-0.013291733
14	0xbbde39b3	-0.0067817806
15	0xbbec262e	-0.0072067
16	0xbc4e91b9	-0.012607985
17	0xbc1be5eb	-0.009515266
18	0xbb138ede	-0.0022515575
19	0xbba00cbd	-0.004884331
20	0xbb421cd4	-0.0029619234
21	0xbba0a691	-0.0049026688
22	0xba990fcf	-0.0011677685
23	0xbbd91d88	-0.006625835
24	0xbab901a2	-0.0014114866
25	0x3a268bf7	0.0006353254
26	0xbb1524fa	-0.0022757635
27	0xbb49a8e9	-0.0030770844
28	0xb9a073b1	-0.00030603775
29	0xbacbbfda	-0.0015544847
30	0xbb898971	-0.0041972925
31	0x3a8d2843	0.0010769445
32	0xbb9486f6	-0.00453269
33	0xbb06b2bd	-0.0020553314
34	0x3b35d468	0.0027745012
35	0xbba2f368	-0.004972864
36	0xbb9f31d9	-0.004858237
37	0xbbcbb1a8	-0.0062162466
38	0xbb3a55d1	-0.0028432498
39	0x3a23c04f	0.0006246613
40	0xbaaca6cc	-0.0013172268
41	0xbb64af42	-0.00348945
42	0x384dd30a	4.9072354e-05
43	0xbb029a4e	-0.0019928399
44	0xba90bdd2	-0.0011042899
45	0x373534e0	1.0800752e-05
46	0xba0ea3fa	-0.00054413045
47	0xbad7b23c	-0.0016456316
48	0xba61480d	-0.0008593805
49	0x391d4a1f	0.00015000299
50	0xbab55d89	-0.001383708
51	0xba933310	-0.0011230428
52	0xbb2e142c	-0.0026562316
53	0xba64ff9c	-0.00087355985
54	0xbb8f26c3	-0.0043686344
55	0xbb9dad7f	-0.004811942
56	0xbaba0c5e	-0.001419436
57	0xba09eba4	-0.00052612484
58	0xb93d623a	-0.00018061037
59	0xb991d2ed	-0.00027813707
60	0xbb1cbd9e	-0.0023916732
61	0xbadd799a	-0.0016897202
62	0xb916a565	-0.00014366729
63	0xbb2a222b	-0.0025960307
64	0x3a799598	0.00095208874
65	0xbbdfa759	-0.0068253693
66	0xbbbb5e86	-0.005718055
67	0x3b01682f	0.0019745936
68	0x3b8a5ac8	0.0042222477
69	0xbac72d86	-0.0015196062
70	0xbbe88769	-0.0070962203
71	0xb9fb808c	-0.00047970226
72	0xba8b5eb9	-0.0010633088
73	0xb9aebecc	-0.0003333002
74	0xbb0da747	-0.0021614598
75	0xba3ad312	-0.0007126789
76	0xb9df4359	-0.00042584052
77	0xbacd2cfb	-0.0015653664
78	0xbadc5fdc	-0.0016813236
79	0xbb157ea8	-0.0022811089
80	0xbb027812	-0.0019907993
81	0xbbef4fc6	-0.007303211
82	0x3b83c83c	0.0040216725
83	0x3ab83656	0.0014054279
84	0xbc07509f	-0.008258968
85	0x3a6a7bc2	0.0008944833
86	0x3974c34e	0.0002334241
87	0x38ff8ce0	0.000121855875
88	0xb96e40e4	-0.00022721622
89	0xb9abd69b	-0.00032775555
90	0xbbbace10	-0.005700834
91	0xbae78815	-0.0017664457
92	0xbab8cd97	-0.0014099356
93	0x3ba69047	0.005083117
94	0x3ad567cd	0.0016281545
95	0xbaafd8ca	-0.0013416049
96	0xbb43b0c7	-0.0029860006
97	0xbb59e7b0	-0.0033249669
98	0x3b010593	0.001968716
99	0xbb34261a	-0.002748853
100	0xbbf69c27	-0.007525939
101	0xbb8253c1	-0.0039772694
102	0xba2dbb83	-0.00066273677
103	0xbb83ba8a	-0.00402004
104	0xba900203	-0.0010986928
105	0xba6ffa07	-0.00091543834
106	0xbbd89954	-0.006610075
107	0xbaeebb19	-0.0018213718
108	0xba1016b7	-0.0005496549
109	0xbb84ed2f	-0.004056595
110	0x3a6f496e	0.00091280683
111	0x3b8470a9	0.0040417504
112	0x3a155966	0.00056972203
113	0xbaab6d10	-0.0013078768
114	0xbbc587a8	-0.0060281344
115	0xbb2237ea	-0.0024752566
116	0xbbb2b415	-0.0054535964
117	0xba052b30	-0.0005079983
118	0xbaeca81a	-0.0018055469
119	0x3b00b744	0.0019640485
120	0xbb8421b0	-0.004032336
121	0x3b03ebf4	0.0020129653
122	0xba1bd8b3	-0.00059450715
123	0x384a766c	4.8270842e-05
124	0x38ac213e	8.207791e-05
125	0xba91fa94	-0.00111373
126	0xb987786c	-0.00025838928
127	0xbc3e7f21	-0.01162699
128	0xba8a997a	-0.0010574304
129	0x3802420c	3.1055926e-05
130	0xbae686c7	-0.0017587774
131	0xba99d459	-0.0011736258
132	0xbc517c7b	-0.012786026
133	0xbbe3c12c	-0.006950518
134	0xbbf85896	-0.0075789196
135	0xbc43869b	-0.011933948
136	0xbb8c1149	-0.0042745215
137	0xbc25be57	-0.010116181
138	0xbc6cf363	-0.014462325
139	0xbbcfd93c	-0.006343035
140	0xbc347eee	-0.0110165905
141	0xbb90eb47	-0.0044225785
142	0xbb4e29a6	-0.003145793
143	0xbc3a36bc	-0.011365589
144	0xbb654b9c	-0.0034987694
145	0x3aa6edcb	0.0012735663
146	0xbb3c32cf	-0.0028716808
147	0xbb8c3b8e	-0.0042795604
148	0xba0f289c	-0.00054610684
149	0xbafb00b4	-0.001914999
150	0xba31e1e8	-0.0006785677
151	0xbb4de1e9	-0.003141517
152	0xb9952cf9	-0.00028453002
153	0xbc51d261	-0.012806506
154	0xbba66f4d	-0.005079186
155	0xbb67a047	-0.0035343335
156	0xbc338c94	-0.010958809
157	0xbaf0d717	-0.0018374649
158	0xbca716f5	-0.020396689
159	0xbb81ec90	-0.003964968
160	0xbc1cd1fe	-0.00957155
161	0xbc00f31a	-0.00787046
162	0xbb7b263b	-0.0038322348
163	0x39dff696	0.00042717595
164	0x390c767f	0.00013395584
165	0x3a66e907	0.00088085275
166	0x397461d0	0.00023306091
167	0xbaa84c46	-0.0012840114
168	0xbb0f3ae0	-0.002185516
169	0xbb05a285	-0.0020391059
170	0xbb27451c	-0.002552337
171	0xbc06fe20	-0.008239299
172	0xbb3cd195	-0.0028811444
173	0xbaf817c8	-0.0018927986
174	0xbbe21198	-0.00689907
175	0xba69d1ab	-0.00089194876
176	0xbc705200	-0.014667988
177	0xbaf6bd63	-0.0018824752
178	0xbb9daedd	-0.004812105
179	0xbb9d6ea0	-0.0048044473
180	0xbac7fa29	-0.0015257049
181	0x3a6cf8a8	0.0009039738
182	0xba75a403	-0.0009370448
183	0xbb101a00	-0.0021988153
184	0x3aad8672	0.001323892
185	0x3b6024b4	0.0034201564
186	0x39b3bfa0	0.00034284312
187	0x389f9dd5	7.611109e-05
188	0x3a08ae68	0.0005213977
189	0x3a0992ab	0.00052479905
190	0xbab09402	-0.0013471844
191	0x3b84313b	0.004034189
192	0xbbb29ca3	-0.0054508015
193	0x3ad3a8a3	0.001614828
194	0x3b546a2b	0.0032411914
195	0x3a3a0ea4	0.00070975185
196	0x3afca0af	0.0019273962
197	0x3a43d5ae	0.00074705004
198	0xbc46eb40	-0.012141049
199	0xbacfc278	-0.0015850803
200	0xbaf19003	-0.001842976
201	0xbb8c51b0	-0.004282199
202	0x378fbc20	1.7134531e-05
203	0x3b7c0e79	0.0038460775
204	0xbbbe6b73	-0.005811149
205	0x3a829b78	0.0009964546
206	0xbb582725	-0.0032982316
207	0xbc12ca9c	-0.008959439
208	0x3ad85928	0.0016506063
209	0xbbbd2ce2	-0.0057731727
210	0xbb85df21	-0.004085437
211	0x3b2c7b02	0.0026318436
212	0xbb632368	-0.0034658555
213	0xbc017ff9	-0.007904046
214	0xbc486c55	-0.01223286
215	0xbc6deaef	-0.014521345
216	0x39813379	0.00024643147
217	0xba8f8324	-0.0010949117
218	0xbbb89fd2	-0.0056342864
219	0xbad22f28	-0.0016035782
220	0x3a784675	0.0009470948
221	0xba534903	-0.0008059891
222	0x36ba0310	5.5435885e-06
223	0xbb326f91	-0.0027227143
224	0xbb6957f3	-0.00356054
225	0xbbc8273c	-0.0061081927
226	0xbb3d15e9	-0.002885217
227	0xbb98e577	-0.004666026
228	0xbbfd8242	-0.007736475
229	0x3996f28c	0.0002879094
230	0xbb19d8f0	-0.0023475252
231	0xbb97529d	-0.0046180026
232	0xbbb59757	-0.0055417228
233	0xbb41512a	-0.002949784
234	0xbc41ab25	-0.011820589
235	0xbc4681c9	-0.012115904
236	0xbba9eccc	-0.005185699
237	0xbb672baa	-0.0035273829
238	0xbb47f366	-0.0030510067
239	0xbc0932d8	-0.0083739385
240	0xbb77ed26	-0.003783056
241	0xbc07e2b4	-0.008293796
242	0xbb95b923	-0.004569189
243	0xbb0a46ec	-0.0021099402
244	0xbc010802	-0.007875444
245	0xb94b0fe2	-0.00019365505
246	0x3a862eb5	0.0010237308
247	0xba428359	-0.0007420085
248	0x3b679086	0.0035333945
249	0xba3c2fa1	-0.0007178728
250	0xbb75cf70	-0.0037507676
251	0x3b15eb3f	0.0022875813
252	0xbb5eac99	-0.0033977388
253	0xb996aa60	-0.0002873717
254	0xbae5ac46	-0.0017522655
255	0xbb99abd2	-0.004689672

conv_layer2.bias f4 [64]
0	0x363506da	2.697509e-06
1	0xb5b691ef	-1.3602529e-06
2	0x34c6c237	3.7021684e-07
3	0xb54b0660	-7.563267e-07
4	0xb7124603	-8.718579e-06
5	0x3606dcc7	2.0096065e-06
6	0x34db9482	4.0899982e-07
7	0xb6135b88	-2.1957985e-06
8	0xb5de0da6	-1.6544261e-06
9	0x370ff8ab	8.581362e-06
10	0x360f8926	2.1388491e-06
11	0x352d5712	6.4574226e-07
12	0xb65fe0e3	-3.336049e-06
13	0xb5f0c394	-1.7938314e-06
14	0xb27f3308	-1.4854557e-08
15	0xb506d9a7	-5.0235616e-07
16	0xb4f63e39	-4.5866344e-07
17	0x36dbf868	6.555627e-06
18	0x359a66b8	1.1503789e-06
19	0xb4a2699a	-3.0251687e-07
20	0xb5cafbaa	-1.5123417e-06
21	0x3697abc9	4.520149e-06
22	0x34425b0c	1.810078e-07
23	0x35996ceb	1.1431088e-06
24	0x32668570	1.3418102e-08
25	0xb607dc34	-2.0244743e-06
26	0xb4ae199b	-3.2428656e-07
27	0x359e6277	1.1800574e-06
28	0x36d67b47	6.3920484e-06
29	0x3196aa58	4.3849404e-09
30	0x35c91f00	1.4984689e-06
31	0xb54f5984	-7.724377e-07
32	0x370b6fb7	8.311056e-06
33	0xb4b5aed0	-3.384107e-07
34	0xb54732de	-7.42073e-07
35	0xb5c8b4d2	-1.4953787e-06
36	0x35f10d78	1.7959819e-06
37	0x3768150c	1.3833178e-05
38	0xb5e3e93a	-1.6980696e-06
39	0xb7206ab8	-9.561591e-06
40	0xb5c647a2	-1.4772997e-06
41	0xb572fb86	-9.051804e-07
42	0x35368925	6.7999855e-07
43	0xb64d7661	-3.0616286e-06
44	0xb56ba614	-8.7786e-07
45	0xb61ff4bb	-2.3835298e-06
46	0xb608e0a4	-2.0396337e-06
47	0x3687d836	4.048484e-06
48	0xb52b5653	-6.382808e-07
49	0xb3e25081	-1.0538589e-07
50	0xb52bf25c	-6.4055143e-07
51	0x346163c4	2.0991052e-07
52	0xb5bfe860	-1.4298239e-06
53	0xb48fb2a0	-2.6765792e-07
54	0xb6ef4d0e	-7.1317254e-06
55	0xb606a0ed	-2.0061227e-06
56	0xb612db58	-2.188337e-06
57	0x34819567	2.4136827e-07
58	0x34b508d8	3.3720312e-07
59	0x361272fd	2.1822627e-06
60	0x35344cfd	6.716726e-07
61	0x35bfc329	1.4287408e-06
62	0x347cad53	2.3532384e-07
63	0x35190330	5.700158e-07

norm2.weight f4 [64]
0	0x3d92b044	0.07162526
1	0x3e6c88fa	0.23099127
2	0x3e73868f	0.23781799
3	0x3e6c6e76	0.23089013
4	0x3dd1da0a	0.10246666
5	0x3dd89ded	0.10576997
6	0x3e0ef86f	0.13961957
7	0x3eaae3d6	0.3337695
8	0x3e3cfb68	0.18455279
9	0x3eca5a68	0.395221
10	0x3eb5d870	0.3551669
11	0x3e10ccb4	0.14140588
12	0x3e2eba14	0.1706317
13	0x3e9e0b39	0.30867937
14	0x3dc9af10	0.09847844
15	0x3dbbf309	0.09177215
16	0x3dce8e35	0.100857176
17	0x3dffbb23	0.12486865
18	0x3dc5c183	0.0965605
19	0x3db1facd	0.086904146
20	0x3ddc891b	0.10768338
21	0x3e2187ce	0.15774462
22	0x3e1417a0	0.14462137
23	0x3dcd8144	0.10034421
24	0x3de8995e	0.113573775
25	0x3e1f7f28	0.1557585
26	0x3e5f898d	0.21829815
27	0x3dba11b5	0.090854086
28	0x3ea670c8	0.3250792
29	0x3dc98fad	0.09841857
30	0x3e09f815	0.13473542
31	0x3da51958	0.080614746
32	0x3e5ec5cd	0.21755143
33	0x3f186692	0.5953151
34	0x3dd14ae7	0.102193646
35	0x3e300bc3	0.17191987
36	0x3e1eadee	0.15496036
37	0x3e40f050	0.18841672
38	0x3e01e206	0.12683877
39	0x3ebb9c14	0.36642516
40	0x3e16487b	0.14676087
41	0x3da192d0	0.078893304
42	0x3e47a5fc	0.19496912
43	0x3e97aeeb	0.2962564
44	0x3e8570e0	0.2606268
45	0x3e5a0a11	0.21292903
46	0x3e02597d	0.1272945
47	0x3e906618	0.2820289
48	0x3e1318c6	0.14364919
49	0x3eb90c55	0.3614222
50	0x3dc41ab5	0.095754065
51	0x3e02f8d0	0.12790227
52	0x3e663449	0.22480883
53	0x3e8546ce	0.26030582
54	0x3e78e08d	0.2430441
55	0x3e7a23e4	0.24427754
56	0x3dfca435	0.123360075
57	0x3dab9171	0.0837735
58	0x3f22e244	0.63626504
59	0x3f010cc5	0.5041011
60	0x3dcb167d	0.09916399
61	0x3e586843	0.21133523
62	0x3e7befe7	0.24603234
63	0x3e650857	0.22366463

norm2.bias f4 [64]
0	0xbd7aef46	-0.061263345
1	0xbe4b9846	-0.19882306
2	0xbde087b8	-0.10963386
3	0xbd269d00	-0.04067707
4	0xbb889892	-0.0041685784
5	0xbd12dd17	-0.03585538
6	0x3c56ca3f	0.013109743
7	0xbec4f177	-0.38465473
8	0xbde26284	-0.110539466
9	0xbd954c8b	-0.0728999
10	0xbe10e018	-0.14147985
11	0xbe0ba00f	-0.13635276
12	0xbe00d2b3	-0.12580375
13	0xbdb3af69	-0.08773691
14	0xbd65a954	-0.056069687
15	0xbd83823d	-0.06421325
16	0xbd2572fc	-0.04039286
17	0xbdd41108	-0.10354811
18	0xbd66170c	-0.056174323
19	0xbb84e9cb	-0.0040561906
20	0xbda84234	-0.08215752
21	0x3c4a8138	0.01235991
22	0xbd07efd3	-0.0331877
23	0xbd4f77ee	-0.050651483
24	0xbe0d694c	-0.13809699
25	0xbde1d601	-0.11027146
26	0xbddaf202	-0.106906906
27	0xbd98f122	-0.074678674
28	0xbe301bba	-0.17198077
29	0xbdc6a334	-0.09699097
30	0xbd2a0c58	-0.04151568
31	0xbd4c304d	-0.04985075
32	0xbe801c9a	-0.2502182
33	0xbe431ae4	-0.19053227
34	0xbd34d5aa	-0.04414908
35	0xbe4c710e	-0.19965002
36	0xbcb1be01	-0.021697046
37	0xbcc5c0d4	-0.0241398
38	0xbc7eb79c	-0.015546706
39	0xbe1fd78e	-0.15609571
40	0xbe1de935	-0.15420993
41	0xbd56d9e7	-0.0524539
42	0xbe1db012	-0.15399197
43	0xbe4279ea	-0.18991819
44	0xbe6189a0	-0.22025156
45	0xbe6dafd1	-0.232116
46	0xbdcf9e5d	-0.10137627
47	0xbdd7fe0a	-0.10546501
48	0xbdb40754	-0.0879046
49	0x3b8c4a9d	0.0042813555
50	0xbd68efbd	-0.056869257
51	0x3bfe9e32	0.007770323
52	0xbe8f6425	-0.28006092
53	0xbe4b4019	-0.1984867
54	0xbe935a71	-0.2877994
55	0xbe590741	-0.21194173
56	0xbe2887ce	-0.16458055
57	0xbbca7508	-0.006178502
58	0xbecf621c	-0.4050454
59	0xbe070871	-0.13186814
60	0xbd8fd807	-0.07023626
61	0xbe1b77d9	-0.15182437
62	0xbdbd35c2	-0.09238769
63	0xbe86ff83	-0.26366815

norm2.running_mean f4 [64]
0	0xbe253735	-0.16134341
1	0xbe09f9d2	-0.13474205
2	0x3bae0c15	0.005311499
3	0x3e176925	0.14786203
4	0xbdd4d40c	-0.10392007
5	0xbe1ef2ed	-0.15522356
6	0x3d8c0e85	0.06838707
7	0x3ddc2601	0.10749436
8	0xbddc737c	-0.107642144
9	0xbe430eb7	-0.19048582
10	0xbe36dc6b	-0.1785752
11	0x3d5fc5fe	0.05463218
12	0xbdc89dd6	-0.0979573
13	0x3d0591b1	0.032609645
14	0xbdde62f5	-0.10858718
15	0x3d598eb2	0.0531146
16	0xbd64ab88	-0.055827647
17	0x3b6027dd	0.0034203448
18	0xbd6dd309	-0.058062587
19	0x3cb26256	0.021775406
20	0xbde538eb	-0.11192497
21	0xbdc6bd51	-0.09704078
22	0xbd113bc5	-0.03545739
23	0xbd682791	-0.05667836
24	0x3cd72460	0.026262462
25	0xbd708240	-0.058717966
26	0xbdbd343c	-0.092384785
27	0xbda0c4a5	-0.07850007
28	0xbdc5dd14	-0.09661308
29	0x3d477f6f	0.048705515
30	0xbc1974c5	-0.009366219
31	0xbdaff1f5	-0.085910715
32	0xbd6ef0cc	-0.05833511
33	0x3e8a282d	0.26983777
34	0xbcf14527	-0.02945192
35	0x3da46443	0.08026936
36	0xbd0f4bf1	-0.034984533
37	0xbe0e898b	-0.13919656
38	0xbd517df8	-0.051145524
39	0xbe800d5c	-0.25010192
40	0x3d93453e	0.07190941
41	0xbcaebb31	-0.021329494
42	0x3dd577bd	0.10423229
43	0xbdeb6dee	-0.11495577
44	0xbe04c9a8	-0.12967551
45	0xbdb81ef8	-0.08990282
46	0x3d12e5e2	0.035863765
47	0xbe279546	-0.16365537
48	0xbd327043	-0.043564092
49	0x3e72182e	0.23642036
50	0xbce0dacf	-0.027448086
51	0x3d80cf49	0.062895365
52	0x3dbd257c	0.09235665
53	0xbdfb5fb8	-0.12274116
54	0xbd9e3537	-0.07724994
55	0xbddea0b4	-0.108704954
56	0x3d2c5ede	0.04208266
57	0x3d7a89ba	0.061166503
58	0x3e84a1fe	0.2590484
59	0x3e08e62a	0.1336905
60	0x3a8fe7f7	0.0010979165
61	0xbe0f7b4b	-0.14011876
62	0xbe251a80	-0.1612339
63	0xbdad699d	-0.0846741

norm2.running_var f4 [64]
0	0x3b0ebd10	0.002178017
1	0x3be85107	0.0070897373
2	0x3c4e1249	0.012577602
3	0x3cb55f7b	0.022140255
4	0x3b699c3d	0.0035646104
5	0x3b519b59	0.0031983464
6	0x3c89e5ce	0.016833212
7	0x3b12bc21	0.0022389966
8	0x3be1ea28	0.0068943687
9	0x3bccd80f	0.006251342
10	0x3c44f16b	0.012020449
11	0x3b4afab0	0.0030972175
12	0x3b6a4ee7	0.0035752596
13	0x3c7ff184	0.015621547
14	0x3a999f0c	0.0011720373
15	0x3b8aa0bd	0.0042305873
16	0x3b5d98b0	0.0033812933
17	0x3c02142f	0.007939382
18	0x3b2ac1b5	0.00260554
19	0x3bbb3529	0.0057131243
20	0x3b2b896a	0.0026174434
21	0x3be0a9f2	0.0068561966
22	0x3b995e31	0.004680418
23	0x3b19a11c	0.0023441976
24	0x3aa16bf8	0.0012315502
25	0x3b9ff583	0.004881562
26	0x3bea44f7	0.0071493345
27	0x3b505644	0.00317897
28	0x3c0be53e	0.008538542
29	0x3ac2e2e4	0.0014868644
30	0x3bde0f33	0.006776714
31	0x3b21fbd7	0.0024716759
32	0x3ab0ab2e	0.001347875
33	0x3c89266c	0.016741954
34	0x3b98e0e3	0.0046654805
35	0x3b914659	0.004433435
36	0x3bc9bd41	0.006156594
37	0x3c572a8f	0.013132705
38	0x3b5c1dfe	0.0033587213
39	0x3c4b0968	0.012392379
40	0x3ade4383	0.0016957376
41	0x3ae39b83	0.0017365072
42	0x3ba3a72b	0.004994293
43	0x3becb7dd	0.0072240666
44	0x3bfe86ba	0.0077675255
45	0x3b213b6f	0.0024602076
46	0x3bfef908	0.0077811517
47	0x3bf2b723	0.0074070855
48	0x3b227640	0.002478972
49	0x3cefab15	0.029256383
50	0x3b5102a3	0.003189244
51	0x3c7535ab	0.014966409
52	0x3b2507d6	0.0025181673
53	0x3c1bcdd1	0.00950952
54	0x3b03b038	0.0020094048
55	0x3bf3c86a	0.0074396627
56	0x3acea19a	0.0015764714
57	0x3bfa03f0	0.007629864
58	0x3c1e78af	0.009672328
59	0x3c91177f	0.0177114
60	0x3bcbba5a	0.006217283
61	0x3b7527fc	0.0037407866
62	0x3c21f6d7	0.009885511
63	0x3b633cd4	0.0034673708

conv_layer3.weight f4 [64, 64, 3, 3]
0	0x3b2d320d	0.0026427538
1	0xbb72ca44	-0.003704683
2	0x3ba2a1bd	0.0049631284
3	0xbab8bf4d	-0.0014095098
4	0x3ba3934a	0.0049919235
5	0xba090ea5	-0.00052283175
6	0xba4f6736	-0.0007911803
7	0xba8e88f5	-0.0010874557
8	0xbb9a1238	-0.004701879
9	0x3add70be	0.0016894562
10	0xbb100a7f	-0.0021978912
11	0xba9dbfd4	-0.0012035319
12	0xb99e6e7a	-0.0003021842
13	0x3c6807a8	0.014161982
14	0x3b0f1f64	0.0021838779
15	0x3a5ec8ae	0.00084985315
16	0x3aa1596e	0.0012309977
17	0xba7cee74	-0.00096485694
18	0xbadae8e1	-0.0016701483
19	0xbca219c7	-0.019787682
20	0xbbd90a5b	-0.006623549
21	0xbcf4979d	-0.029857451
22	0x3d45bb53	0.04827435
23	0xbc9b54b9	-0.018961297
24	0xba9e727b	-0.0012088561
25	0xbc887d8a	-0.016661424
26	0xbb9f3edc	-0.0048597883
27	0xba4320ef	-0.0007443567
28	0xba5f8854	-0.00085270894
29	0xba801cb7	-0.0009774183
30	0xbb36362c	-0.0027803285
31	0xbc422e7d	-0.011851904
32	0x3b1ad066	0.002362275
33	0x39b257f1	0.00034016327
34	0x38aab8a8	8.1406266e-05
35	0x3a819c61	0.0009888523
36	0x3b890eac	0.004182657
37	0x3c429ad1	0.011877731
38	0xba8737d6	-0.0010316323
39	0x3c437013	0.011928576
40	0x3b9ad962	0.004725621
41	0xbb5926e2	-0.0033134748
42	0x3b03fc2e	0.0020139324
43	0xbc4c38c4	-0.012464706
44	0x3c45f4d5	0.012082298
45	0xbb95e4e5	-0.0045744055
46	0x3bedd33f	0.0072578485
47	0x3b8ba144	0.0042611677
48	0x3acff41b	0.0015865596
49	0x3bbc1656	0.0057399673
50	0xbb88607b	-0.004161892
51	0xbb702ee8	-0.0036649052
52	0x3a81e863	0.0009911176
53	0xb840da30	-4.597957e-05
54	0xb8218d86	-3.8517195e-05
55	0xbbaf9f8c	-0.0053595956
56	0xbb7c4fd2	-0.0038499725
57	0xbb24700f	-0.0025091206
58	0xbc8f95d2	-0.017527495
59	0xbb698184	-0.0035630176
60	0x39f5154e	0.00046745915
61	0xbb593dc2	-0.0033148383
62	0xbb423c1e	-0.0029637883
63	0x3c0c4ac9	0.008562752
64	0x3cbdac6c	0.023153506
65	0x3c53ffde	0.012939421
66	0xbd3655df	-0.044515487
67	0x3ca03cca	0.019560236
68	0x3cc40fb1	0.023933263
69	0x3c047032	0.00808339
70	0x3b19704b	0.002341288
71	0x3ba259dc	0.0049545597
72	0xb9ae9c2c	-0.00033304223
73	0x3c00efda	0.007869685
74	0xbb38a43c	-0.0028174063
75	0x3b285ac3	0.0025688864
76	0xbae70c76	-0.0017627615
77	0x3bc28123	0.0059358045
78	0xbb095504	-0.0020955214
79	0xbaac5790	-0.0013148654
80	0xbbfca8bd	-0.007710545
81	0xbb5f3e71	-0.0034064318
82	0x3a5733e0	0.0008209329
83	0xbaf39503	-0.0018583838
84	0xba81f467	-0.0009914757
85	0xbd344f40	-0.04402089
86	0x3aee3f48	0.0018176818
87	0xb94805d0	-0.00019075652
88	0xbaeff0f1	-0.0018306059
89	0x3b1abd8d	0.0023611516
90	0xbabc70a7	-0.0014376835
91	0x3c80721c	0.015679412
92	0x3c025402	0.007954599
93	0x3c9a0fa6	0.01880629
94	0xbceb1ce8	-0.028700307
95	0x3cca593b	0.024700752
96	0x3b4d429f	0.0031320227
97	0x3c9f9071	0.019478055
98	0x3aaaf5ba	0.0013043203
99	0x3c4fa711	0.012674109
100	0x3c9db574	0.019251563
101	0xbbbc1ee1	-0.0057409857
102	0x3a67c0ab	0.00088406604
103	0x3b2a1e1e	0.0025957893
104	0x3b94c242	0.004539759
105	0xbadc8c83	-0.0016826544
106	0x3bfde51b	0.0077482588
107	0x3b22f61d	0.0024865933
108	0x3c2476ac	0.010038059
109	0xbbb52044	-0.005527528
110	0x3c0ad9d5	0.008474787
111	0x3b0f0f69	0.0021829254
112	0x3be293f8	0.006914612
113	0x3b00a582	0.00196299
114	0x3bb020d0	0.0053750053
115	0x3cf63d4a	0.030058522
116	0xbc0cc21b	-0.0085912
117	0xbb93ce14	-0.0045106504
118	0xbca7c78f	-0.0204809
119	0xbc1ee833	-0.009698915
120	0xbcf3b1c0	-0.029747844
121	0x3d7bc9ee	0.061471872
122	0xbcd260a4	-0.025680847
123	0xbb40d4f9	-0.0029423817
124	0xbca6f853	-0.020382082
125	0xbbdf7350	-0.0068191662
126	0x3b82419e	0.0039751073
127	0xbba7f8d2	-0.0051260972
128	0xbb184b17	-0.0023238116
129	0x3b8409df	0.004029497
130	0x3b289e9c	0.0025729304
131	0xbab811c6	-0.0014043383
132	0xbbe15dff	-0.0068776603
133	0x3b7a06f9	0.0038151129
134	0x3b2004f9	0.0024417026
135	0xbb38f0e2	-0.002821975
136	0x3b94844a	0.0045323716
137	0xbac961fe	-0.0015364287
138	0x3b35435b	0.0027658555
139	0xbb1f2a1a	-0.002428657
140	0xbba6146e	-0.0050683534
141	0x3b2e469c	0.002659238
142	0xbbff3734	-0.007788563
143	0x3b8afa44	0.00424126
144	0x3b9388fd	0.0045024143
145	0xbb61a78a	-0.0034432136
146	0x3a365196	0.0006954906
147	0x3af7b0a7	0.0018897251
148	0xbb1a2d91	-0.0023525695
149	0xba82f4e0	-0.0009991191
150	0xbb647ae0	-0.0034863278
151	0x3bb2937a	0.0054497095
152	0x3b7aa922	0.0038247784
153	0x3bd9764f	0.006636418
154	0xbb2a404d	-0.0025978268
155	0xbb69b195	-0.0035658826
156	0xbc9c4020	-0.019073546
157	0xb94cd00c	-0.0001953246
158	0x3c244668	0.010026552
159	0x39b95128	0.00035346416
160	0x3b1a5aff	0.0023552773
161	0x3a8148c3	0.0009863604
162	0xba40d676	-0.0007356176
163	0x3886d86e	6.429931e-05
164	0x3bbff83e	0.00585845
165	0xbb4f378e	-0.0031618807
166	0xb709b2e8	-8.207491e-06
167	0xb9992d3d	-0.0002921614
168	0x3b986ffd	0.004652022
169	0x3aa98a38	0.0012934869
170	0xbab21454	-0.001358638
171	0x39fbd450	0.00048032636
172	0xbc71d354	-0.014759857
173	0xbb20be15	-0.002452736
174	0xbb4c94ef	-0.00312167
175	0xbbbc0c67	-0.005738783
176	0xbb00536b	-0.001958097
177	0x3a82c9b4	0.0009978325
178	0xba4902da	-0.00076679664
179	0x3a09ca5e	0.00052562903
180	0xb82dca5a	-4.143487e-05
181	0xbbb0ebed	-0.0053992183
182	0x3afa0674	0.001907541
183	0xbbe29cd8	-0.00691567
184	0xb9857105	-0.00025451943
185	0xbbb018d6	-0.0053740544
186	0xbad703e8	-0.0016404362
187	0xbb6e6deb	-0.0036381434
188	0xba2d0bda	-0.0006601192
189	0x3bde78f7	0.0067893225
190	0x3a783bea	0.0009469377
191	0x3ae4a995	0.0017445559
192	0xbc46aaa5	-0.012125646
193	0xbb79318c	-0.0038023917
194	0x3ca07e95	0.019591609
195	0x3afa9745	0.0019118568
196	0x3b34ef98	0.002760863
197	0xbb240ad7	-0.0025030875
198	0x3b871cad	0.0041232915
199	0x39347778	0.00017210643
200	0xba5b0a05	-0.000835568
201	0xba08470c	-0.0005198575
202	0xba7bc83d	-0.0009604728
203	0x39cc4d07	0.00038967302
204	0x3a761eed	0.00093887636
205	0x390fcaf0	0.00013713143
206	0xb83c7b02	-4.4937253e-05
207	0xbba92046	-0.005161318
208	0x39bc48a5	0.0003591228
209	0x3a314bee	0.00067633286
210	0xba3ad754	-0.00071274233
211	0x3b9a1388	0.0047020353
212	0x3b3685ab	0.0027850668
213	0x3bce354f	0.006292976
214	0xbb4fb9f9	-0.0031696542
215	0xbb6cd244	-0.003613607
216	0xbc0e9369	-0.0087021375
217	0x3d341aa3	0.043970715
218	0xbbea343b	-0.0071473396
219	0xbbcc123f	-0.006227761
220	0x3c8b721d	0.017022187
221	0x3b244820	0.0025067404
222	0x3a9e8a87	0.0012095728
223	0x3d2c79bf	0.042108294
224	0xbbc56cae	-0.0060249185
225	0xbb8e9939	-0.0043517617
226	0xbb1c3400	-0.0023834705
227	0xb9b8005b	-0.0003509548
228	0x3b83a5f4	0.004017586
229	0xba0385bc	-0.00050171814
230	0x3bd1b87e	0.006400167
231	0x3b38198a	0.0028091394
232	0xbbad40c0	-0.00528726
233	0x3bce9d3f	0.0063053663
234	0xbc448a9c	-0.011995938
235	0xbba90f59	-0.0051593003
236	0xbbde56b4	-0.006785238
237	0x3b736305	0.0037137878
238	0xbc374157	-0.011185012
239	0xbb78843e	-0.003792062
240	0xbc40d8a4	-0.011770401
241	0xbb4355fe	-0.0029805894
242	0x3b73a304	0.0037176022
243	0xba4f469a	-0.0007906944
244	0x3b2c77de	0.0026316564
245	0xb8fb22ae	-0.00011975072
246	0x3c40263f	0.011727869
247	0xba17bc16	-0.000578822
248	0xbb275fc7	-0.0025539265
249	0xbb1c5dfa	-0.0023859725
250	0x3b801c86	0.0039096503
251	0x3aaa304e	0.0012984367
252	0x3b91765e	0.0044391593
253	0xbbc340a9	-0.005958636
254	0x3b492318	0.0030691084
255	0x3b343615	0.0027498056

conv_layer3.bias f4 [64]
0	0x3747ae9a	1.1901977e-05
1	0xb6829398	-3.891484e-06
2	0xb6d72b7c	-6.4125616e-06
3	0xb529b6da	-6.322349e-07
4	0xb5b3d39a	-1.3398123e-06
5	0x34c244ce	3.6185378e-07
6	0x34480b1d	1.8630494e-07
7	0x34bf3947	3.5618197e-07
8	0x36307994	2.6296811e-06
9	0xb5ca47fa	-1.5071121e-06
10	0xb643ee19	-2.9195855e-06
11	0x360eb070	2.126235e-06
12	0xb6092315	-2.0435011e-06
13	0xb548fca1	-7.487343e-07
14	0x3555ef90	7.969729e-07
15	0xb70748cd	-8.063577e-06
16	0x354eaeac	7.699516e-07
17	0x35280468	6.259129e-07
18	0x35efee9a	1.787633e-06
19	0x3616e464	2.2484683e-06
20	0x363c68c2	2.807516e-06
21	0x37bb7644	2.2347209e-05
22	0xb69fd1f5	-4.7630115e-06
23	0xb51e05b0	-5.8867863e-07
24	0x3685a1aa	3.982529e-06
25	0x35be15d6	1.4162458e-06
26	0xb6510b86	-3.1150134e-06
27	0x37863e44	1.600304e-05
28	0x351e7c7b	5.904073e-07
29	0xb601c80e	-1.9338945e-06
30	0x325c1018	1.2809345e-08
31	0x3559120a	8.086505e-07
32	0xb5323252	-6.6383393e-07
33	0x36653d9e	3.4159525e-06
34	0xb51afa68	-5.773386e-07
35	0xb613248d	-2.1925982e-06
36	0xb681468b	-3.852712e-06
37	0xb6b4342e	-5.3704925e-06
38	0x35527a16	7.8408755e-07
39	0xb744ff29	-1.17419195e-05
40	0xb4dd7b9c	-4.1254395e-07
41	0xb71eb3e0	-9.459414e-06
42	0x354d4674	7.6470974e-07
43	0xb7ede4a0	-2.8359063e-05
44	0xb7af96ad	-2.093179e-05
45	0xb6466746	-2.9564412e-06
46	0x3608c978	2.038285e-06
47	0xb55125e0	-7.791368e-07
48	0x3641a13a	2.8853087e-06
49	0xb49b6e3f	-2.8951214e-07
50	0x3592dfef	1.0943021e-06
51	0xb616f90c	-2.2496706e-06
52	0x3659aba1	3.243542e-06
53	0x33e4c238	1.06524055e-07
54	0x3519f64c	5.735535e-07
55	0x352ed636	6.513177e-07
56	0xb5fa1372	-1.8632111e-06
57	0xb71dfdec	-9.41705e-06
58	0x36d4b6ab	6.3393577e-06
59	0x35be98b9	1.4200551e-06
60	0xb3f37c98	-1.1338233e-07
61	0x35f859ee	1.8503613e-06
62	0xb409ebf2	-1.2844956e-07
63	0x36054148	1.9856543e-06

norm3.weight f4 [64]
0	0x3ea500a7	0.3222706
1	0x3edb6387	0.4284937
2	0x3f054613	0.5206005
3	0x3e6d4d10	0.23173928
4	0x3f33b80c	0.7020271
5	0x3e6396b8	0.22225463
6	0x3f2da43b	0.6782872
7	0x3e6a7590	0.22896409
8	0x3f253aa9	0.64542633
9	0x3ee12239	0.43971422
10	0x3eb3e281	0.35133746
11	0x3ec0fcbc	0.3769282
12	0x3f12e957	0.573873
13	0x3e8fad7c	0.28062046
14	0x3e96913a	0.29407674
15	0x3ee0009f	0.43750474
16	0x3edf8a73	0.43660316
17	0x3eead0e5	0.458625
18	0x3f1c0005	0.6093753
19	0x3f26370e	0.64927757
20	0x3f073941	0.5282174
21	0x3eb4fe26	0.3535015
22	0x3f04f200	0.5193176
23	0x3f24e4b5	0.6441148
24	0x3ef1d7a6	0.4723484
25	0x3ef47d9a	0.47752076
26	0x3f1ae1a5	0.60500556
27	0x3eb186d0	0.34673166
28	0x3f0180c6	0.5058712
29	0x3f1ee259	0.6206413
30	0x3e8a1745	0.26970878
31	0x3e77652d	0.24159689
32	0x3f5641dc	0.83694243
33	0x3f2a3a73	0.66495436
34	0x3ef647f2	0.48101765
35	0x3f21bc7e	0.6317824
36	0x3f024ef7	0.5090174
37	0x3ee4f1ae	0.44715637
38	0x3ebbc74b	0.36675486
39	0x3e90dd90	0.2829404
40	0x3e89c811	0.2691045
41	0x3ed45505	0.41471115
42	0x3f30fb74	0.69133687
43	0x3f24f723	0.644396
44	0x3f80d3a0	1.0064583
45	0x3f3a202d	0.72705346
46	0x3f138547	0.5762524
47	0x3f23902e	0.63891876
48	0x3f2925b9	0.66073185
49	0x3efebe6a	0.4975465
50	0x3e8b4624	0.2720195
51	0x3ebf2ab7	0.37337276
52	0x3f5a51b7	0.85280937
53	0x3e230511	0.15919901
54	0x3e9ec648	0.31010652
55	0x3eadc9d9	0.3394306
56	0x3e340cb3	0.1758297
57	0x3ee84e2b	0.45372137
58	0x3f0f6063	0.5600645
59	0x3f38c40b	0.7217414
60	0x3f14687a	0.5797192
61	0x3f5c18bc	0.8597524
62	0x3eae560e	0.3405003
63	0x3eb0a9a6	0.3450443

norm3.bias f4 [64]
0	0x3e17e881	0.14834787
1	0x3e936d11	0.2879415
2	0x3e0ae83d	0.13565154
3	0x3dd9b76e	0.106306896
4	0x3e0a1f6c	0.13488549
5	0x3de2ebf6	0.11080162
6	0x3e729b6a	0.23692098
7	0x3df73397	0.12070387
8	0x3e06cb10	0.131634
9	0x3deb8043	0.11499073
10	0x3e4c033a	0.19923106
11	0x3e56f144	0.20990473
12	0x3e49a772	0.19692782
13	0x3dd67495	0.10471455
14	0x3e009ce0	0.12559843
15	0x3e3b31e6	0.18280753
16	0x3e220071	0.15820481
17	0x3e6855f7	0.22689043
18	0x3e869628	0.26286435
19	0x3e7b24ec	0.24525803
20	0x3e5c2f51	0.21502425
21	0x3e371664	0.17879635
22	0x3e848a12	0.2588659
23	0x3e51bd70	0.20482421
24	0x3e3a7618	0.18209112
25	0x3e2e82cc	0.17042083
26	0x3e90d877	0.2829015
27	0x3e28f289	0.1649877
28	0x3e2c832f	0.16846918
29	0x3e0fc294	0.1403907
30	0x3d906bda	0.07051821
31	0x3e06bd45	0.13158138
32	0x3e3687a1	0.17825176
33	0x3d0cca3e	0.03437256
34	0x3e3841c0	0.17993832
35	0x3e1814aa	0.14851633
36	0x3e4f57ce	0.20248339
37	0x3e1e46f3	0.15456752
38	0x3e2c820b	0.16846482
39	0x3e36adce	0.17839739
40	0x3e0d61c7	0.1380683
41	0x3e8189e5	0.25300518
42	0x3e0bbf91	0.13647296
43	0x3e4c41ad	0.19946928
44	0x3eaa971a	0.33318406
45	0x3e874432	0.26419216
46	0x3e3f88e3	0.18704562
47	0x3e81844f	0.25296256
48	0x3df1fe9a	0.118161395
49	0x3e85d474	0.2613865
50	0x3de672dc	0.112523764
51	0x3e400bbc	0.18754476
52	0x3e338e12	0.17534664
53	0x3de826eb	0.11335548
54	0x3e29f424	0.16597039
55	0x3e3b2c26	0.1827856
56	0x3da2ee78	0.079556406
57	0x3e54ae56	0.20769629
58	0x3e951b1e	0.2912225
59	0x3e3d2758	0.1847204
60	0x3ea2b100	0.31775665
61	0x3e8d0098	0.27539515
62	0x3db89a92	0.09013857
63	0x3e0d5a0b	0.1380388

norm3.running_mean f4 [64]
0	0xbb714079	-0.003681211
1	0x39045f4c	0.00012624002
2	0x3bd3308d	0.0064449967
3	0xbba94613	-0.005165824
4	0xbbb344f0	-0.0054708645
5	0x3c3523fb	0.011055942
6	0x3b9c3e64	0.0047681797
7	0x3a20e856	0.00061381364
8	0xbb429ec6	-0.0029696687
9	0x3ba5851d	0.0050512687
10	0xbc1135bb	-0.008862908
11	0x3b8c7512	0.004286417
12	0x3ad71861	0.0016410464
13	0x3c0fc02b	0.008773844
14	0xb98979c6	-0.00026221405
15	0x3b243b7a	0.0025059865
16	0xbcfe7d2c	-0.031065546
17	0x3a119fae	0.0005555105
18	0xbc153322	-0.009106429
19	0x3cdab3ae	0.026697006
20	0xbb8d4d66	-0.004312205
21	0xba069bb7	-0.00051348977
22	0x3bd0bad4	0.006369928
23	0x3c18845b	0.0093089
24	0xbbd51cbc	-0.0065036695
25	0x3c6ef8de	0.014585702
26	0x3b41868a	0.0029529654
27	0x3b840110	0.004028447
28	0x3bca8859	0.0061808047
29	0xba5d0159	-0.0008430682
30	0x3a948a73	0.0011332765
31	0x3acba041	0.001553543
32	0xbd2b5f9e	-0.041839235
33	0xbd903f75	-0.070433535
34	0xbbb0d04d	-0.005395925
35	0xbb88e814	-0.0041780565
36	0xbc99b629	-0.018763619
37	0xbc0802cb	-0.008301447
38	0x393d68af	0.00018063442
39	0x3bf98eaa	0.007615884
40	0xb981b7eb	-0.00024741827
41	0x3c5a2fa6	0.013317024
42	0x3c4b47d4	0.012407262
43	0x3c70caf3	0.014696824
44	0x3c4e365b	0.012586202
45	0x3b895642	0.004191191
46	0x3cc2a877	0.02376197
47	0x3926938e	0.00015885962
48	0x3b862778	0.0040940605
49	0xbbe615f5	-0.0070216605
50	0xbab0964c	-0.0013472526
51	0x3b64f707	0.0034937279
52	0xbd43f8b7	-0.047844615
53	0x3adb846e	0.0016747841
54	0xbb90a542	-0.0044142315
55	0x3b4a9532	0.0030911681
56	0xbaab3aea	-0.0013063822
57	0xbc39d586	-0.011342412
58	0xbba1a8de	-0.0049334606
59	0xbbc4f074	-0.0060101096
60	0x3b08f89f	0.0020900143
61	0x3c8e3d32	0.017363165
62	0xbbe56fcf	-0.007001854
63	0xbc0e882b	-0.008699457

norm3.running_var f4 [64]
0	0x39d9610a	0.00041461765
1	0x3a126a3d	0.0005585289
2	0x3a298d9f	0.00064679416
3	0x398f0339	0.00027277487
4	0x39bb0866	0.00035673677
5	0x398171f9	0.00024689714
6	0x3a2b5921	0.00065364136
7	0x399a6b17	0.00029452957
8	0x3a08b064	0.00052142725
9	0x39978251	0.00028898058
10	0x3a067c32	0.0005130201
11	0x39e4f428	0.0004366946
12	0x3a0ebe21	0.00054452015
13	0x3a79d079	0.0009529661
14	0x39ea2ee2	0.00044666888
15	0x3a03548c	0.0005009852
16	0x3a0240b6	0.0004968749
17	0x39a3e552	0.0003126064
18	0x3ac5a74e	0.0015079768
19	0x39f15e4a	0.00046037353
20	0x3a0bfe3f	0.0005340315
21	0x3a5b791e	0.0008372235
22	0x3a1a6fed	0.0005891312
23	0x3a81ecbf	0.0009912475
24	0x3a207ee9	0.0006122427
25	0x3a01da21	0.0004953463
26	0x3ad16234	0.0015974701
27	0x39d23442	0.00040093256
28	0x3a0c431e	0.00053505774
29	0x39e51aff	0.00043698397
30	0x3aa04480	0.0012227446
31	0x39fc3dea	0.00048111315
32	0x3a19f895	0.00058735284
33	0x3a01d6c8	0.00049529644
34	0x3a5bc8d5	0.00083841133
35	0x3a29b957	0.0006474456
36	0x39dbaae0	0.00041898247
37	0x39b484ae	0.0003443113
38	0x3a5050fa	0.0007946637
39	0x39e84029	0.0004429829
40	0x39c35622	0.00037257472
41	0x39f8755f	0.00047389694
42	0x3a1e8b76	0.0006048003
43	0x3a3e0851	0.0007249164
44	0x3a8d91e3	0.0010800924
45	0x3a48967a	0.0007651817
46	0x3a0594b2	0.00050957047
47	0x3a09ee67	0.000526166
48	0x39e9e9c5	0.00044615395
49	0x3a000281	0.00048831856
50	0x39cdb0f5	0.0003923249
51	0x39dd713f	0.0004223678
52	0x3a10ed06	0.00055284833
53	0x397e8bd2	0.00024275415
54	0x39ecc3a5	0.00045159194
55	0x39bb4f73	0.00035726614
56	0x398f7e29	0.00027369082
57	0x3a15b631	0.00057110476
58	0x3a45331d	0.000752257
59	0x39b097b0	0.00033682352
60	0x3a492e51	0.0007674443
61	0x3a7a0723	0.00095378066
62	0x39f6559d	0.00046984563
63	0x39e2e445	0.00043276153
